checkpoints/xvad_epoch_5.pth (torch, 340597 bytes, 23 tensors)

conv.0.weight f4 [32, 80, 3]
-0.0874533 0.0034860405 -0.005276722 -0.035612144 -0.0094849765 -0.0031560366 -0.026170813 0.08158931
-0.05722296 -0.0487195 0.040893704 0.010083947 0.049963556 0.04058355 -0.020393454 -0.0742563
0.010458176 0.023291277 0.008681363 0.03567244 -0.009100801 -0.027875435 -0.019434573 0.027022263
0.028185437 0.01813639 0.022774516 -0.048599172 -0.009513331 -0.049123287 -0.009436317 -0.0014007996
-0.03591183 -0.020787003 -0.04838745 0.06062868 0.061634853 0.0531306 0.047185026 0.020383041
0.04575933 -0.04854022 0.075419046 0.042008664 -0.015397313 0.017152207 0.042475812 -0.053743094
0.048682686 -0.057570748 0.02781311 -0.043998178 -0.007172886 -0.023617897 -0.0075647375 0.05499866
-0.03675618 0.015214511 0.058143977 -0.029075954 -0.03145938 0.04065916 0.06839325 0.0041692695
-0.060352366 -0.014136226 -0.06606776 -0.0018495966 0.0050621163 -0.040015545 -0.027018353 0.052538857
-0.02964037 -0.037499238 0.032702774 -0.03304233 -0.06037199 -0.03537764 -0.014054731 0.021291805
0.010795321 0.03533698 0.06905993 0.026643159 0.052198064 0.080012985 -0.020055626 -0.05936032
-0.00045470387 -0.047854856 -0.00081271364 -0.049999204 0.03914571 0.0042737434 0.03220631 0.027999327
-0.005496639 -0.04407978 0.030500915 0.060694348 0.052898273 0.036364403 -0.053722735 0.015222939
-0.028615965 -0.046118516 0.00556937 0.00022902957 -0.083001584 -0.08423374 0.04755728 -0.006128556
-0.043634973 -0.011948528 -0.019214818 0.008478192 -0.01435463 0.034435846 -0.060561787 0.060204457
0.009377981 0.0030470397 -0.031847186 -0.057639323 -0.07972766 0.016983198 0.016960453 -0.01634113
0.052552033 0.016477693 -0.013566408 -0.037365172 -0.030954484 -0.013790481 0.038080636 -0.032204494
0.011537895 -0.04186819 -0.028028904 -0.017088791 -0.0063069137 0.0033567725 -0.05184946 -0.032014966
0.022167204 0.006959227 0.058325246 0.0266044 -0.05348058 0.027426232 0.0056596757 0.034307554
-0.021954274 0.033655707 -0.04266386 0.06347518 -0.03399628 0.024502868 -0.00789344 0.032774813
-0.030121287 0.030802317 -0.06961145 -0.031861145 -0.053616542 0.060302936 -0.022541769 0.017715288
-0.08208139 0.05713427 0.027584998 0.026997847 0.028234202 0.029655257 0.043278754 0.0025236642
0.04034276 -0.05692302 0.037650477 0.03692349 -0.022410462 0.04795194 0.04959735 0.009809518
-0.012649065 0.03243802 -0.03029364 -0.003750293 0.057362847 0.03838168 -0.01582086 -0.08273211
0.031545028 0.006688805 -0.036457226 0.0070785955 0.03671079 -0.019286549 -0.047202792 -0.013314724
0.025119986 -0.041096 -0.08008753 -0.05234163 0.053511064 -0.05237372 0.052843943 0.058787536
0.0404945 -0.07174834 -0.021524306 -0.080001995 0.0076075243 0.015807778 -0.00148868 -0.04326361
-0.040824126 0.026211556 -0.022476276 -0.0044325963 -0.059089873 -0.0018599277 -0.022583919 -0.007788056
-0.005109845 -0.02778093 0.04490457 -0.036143523 0.003641496 -0.024317376 0.056437816 -0.06468393
0.0057851668 -0.07139881 0.04349379 -0.0057812072 0.015215052 -0.019062513 -0.038027003 -0.024230134
0.03544576 0.028956387 -0.03630961 0.036235716 0.0042294413 0.07060793 -0.05997209 -0.053628277
0.025351476 -0.024402983 0.042713474 -0.046495784 -0.029939681 0.014533276 0.047898725 -0.0033364387
00000000: b71a b3bd 0e76 643b 5ae8 acbb 0ade 11bd
00000010: e066 1bbc 82d5 4ebb 2c64 d6bc 4c18 a73d
00000020: 9f62 6abd 198e 47bd 2880 273d 2437 253c
00000030: 96a6 4c3d f03a 263d 2c10 a7bc b013 98bd
00000040: c558 2b3c 59cd be3c 473c 0e3c 441d 123d
00000050: 871b 15bc 065b e4bc 4135 9fbc cb5d dd3c
00000060: 25e5 e63c c492 943c 9f91 ba3c ed0f 47bd
00000070: cddd 1bbc 8035 49bd c89a 1abc 099b b7ba
00000080: 4818 13bd 8149 aabc eb31 46bd c755 783d
00000090: d474 7c3d 799f 593d 1645 413d 56fa a63c
000000a0: 236e 3b3d 1cd2 46bd 4d75 9a3d 4711 2c3d
000000b0: 0345 7cbc c982 8c3c 1efb 2d3d b821 5cbd
000000c0: 7f67 473d 4ecf 6bbd 52d8 e33c 6f37 34bd
000000d0: 870a ebbb 527a c1bc 9ee1 f7bb 4646 613d
000000e0: a68d 16bd 4946 793c 6128 6e3d b230 eebc
000000f0: 8ddb 00bd 388a 263d c311 8c3d 5e9e 883b
00000100: 0b34 77bd a19b 67bc 894e 87bd 2a6e f2ba
00000110: 1ce0 a53b 57e7 23bd 9855 ddbc fc32 573d
00000120: 5cd0 f2bc cd98 19bd 58f3 053d 6557 07bd
00000130: 9f48 77bd 25e8 10bd d045 66bc 276c ae3c
00000140: dcde 303c 82bd 103d 4b6f 8d3d c142 da3c
00000150: a3cd 553d d9dd a33d b24b a4bc cf23 73bd
00000160: 5265 eeb9 7403 44bd 4a0c 55ba f7cb 4cbd
00000170: 4157 203d c20a 8c3b c4ea 033d d85e e53c
00000180: 261d b4bb 008d 34bd 0edd f93c a39a 783d
00000190: dcab 583d d7f2 143d 5f0c 5cbd a269 793c
000001a0: 076c eabc c5e6 3cbd 437f b63b a827 7039
000001b0: bcfc a9bd bd82 acbd 6ccb 423d 0ed2 c8bb
000001c0: 96ba 32bd c2c3 43bc 6568 9dbc 1de8 0a3c
000001d0: af2f 6bbc 9a0c 0d3d a30f 78bd f398 763d
000001e0: 1aa6 193c d8b0 473b 3272 02bd 3617 6cbd
000001f0: 4148 a3bd 5920 8b3c a6f0 8a3c d5dd 85bc
00000200: cd40 573d 3afc 863c a445 5ebc 390c 19bd
00000210: 4294 fdbc 78f1 61bc 71fa 1b3d dce8 03bd
00000220: 7009 3d3c fb7d 2bbd df9c e5bc cbfd 8bbc
00000230: 3aaa cebb 4cfd 5b3b 1960 54bd 2022 03bd
00000240: ff97 b53c 3a0a e43b 74e6 6e3d 78f1 d93c
00000250: 740e 5bbd faac e03c cd74 b93b 1486 0c3d
00000260: 73d9 b3bc 91da 093d 4dc0 2ebd 46ff 813d
00000270: af3f 0bbd 3dba c83c 7d53 01bc e23e 063d
00000280: ebc0 f6bc 2455 fc3c 7390 8ebd d580 02bd
00000290: 059d 5bbd 3600 773d 84a9 b8bc a71f 913c
000002a0: 4a1a a8bd a005 6a3d eff9 e13c 972a dd3c
000002b0: 6a4b e73c 95ef f23c 1045 313d 0f64 253b
000002c0: 733e 253d 1d28 69bd 6337 1a3d 163d 173d
000002d0: 2596 b7bc 4169 443d 9726 4b3d 1ab8 203c
000002e0: 063e 4fbc bbdd 043d 5e2a f8bc 7ac7 75bb
000002f0: 4ef5 6a3d 1c36 1d3d c09a 81bc 746f a9bd
00000300: 5c35 013d c32d db3b 2c54 15bd 90f3 e73b
00000310: 0e5e 163d d3fe 9dbc b757 41bd 0026 5abc
00000320: 6ec8 cd3c 4754 28bd ee04 a4bd 2d64 56bd
00000330: 6b2e 5b3d d385 56bd e472 583d 33cb 703d
00000340: 90dd 253d cbf0 92bd be53 b0bc 16d8 a3bd
00000350: 8a48 f93b 507f 813c d01f c3ba 2f35 31bd
00000360: 3337 27bd 9eb9 d63c 2b20 b8bc 503f 91bb
00000370: 3908 72bd d1c8 f3ba e901 b9bc f332 ffbb
00000380: 7d70 a7bb d594 e3bc dbed 373d 3b0b 14bd
00000390: 2aa6 6e3b 3c35 c7bc 572b 673d 0279 84bd
000003a0: 7f91 bd3b 8a39 92bd 8b26 323d 4870 bdbb
000003b0: 8e48 793c fd28 9cbc 34c2 1bbd 467e c6bc
000003c0: 932f 113d f235 ed3c 63b9 14bd e76b 143d
000003d0: 2097 8a3b e49a 903d 4ba5 75bd 53a9 5bbd
000003e0: e6ad cf3c c4e8 c7bc 53f4 2e3d 5d72 3ebd
000003f0: 1044 f5bc fa1c 6e3c 7431 443d 27a8 5abb

conv.0.bias f4 [32]
0.047859475 0.06373812 0.030158328 0.042314783 0.054525595 0.06414371 -0.047229674 -0.03230931
-0.057373513 -0.06266782 0.06135896 0.060530152 -0.051630232 0.060153857 0.010760173 -0.012365653
-0.03412635 -0.050789423 0.03523217 -0.061162338 -0.012501826 -0.020843958 -0.034228794 0.06394985
-0.061747305 0.032946467 -0.0513004 0.029562717 -0.0038573367 0.040651705 -0.014681262 -0.017344214
00000000: 4c08 443d 2289 823d 990e f73c 4452 2d3d
00000010: 3b56 5f3d c75d 833d e773 41bd c456 04bd
00000020: 7d00 6bbd fc57 80bd 8853 7b3d 77ee 773d
00000030: 397a 53bd e463 763d 704b 303c 4f99 4abc
00000040: 12c8 0bbd 9208 50bd 9c4f 103d 5c85 7abd
00000050: 75d4 4cbc f3c0 aabc 7e33 0cbd 24f8 823d
00000060: beea 7cbd e0f2 063d 5e20 52bd 832d f23c
00000070: 5fcb 7cbb 6782 263d ad89 70bc 7415 8ebc

conv.1.weight f4 [32]
1.0038693 1.0011616 0.9924209 1.0031468 1.0236244 1.0040944 0.9974075 0.99218726
1.0028484 1.0102087 1.0161471 1.0027025 1.0225437 0.9900719 0.979826 1.0156003
0.9933088 1.0044869 0.9874447 1.0112886 1.0083126 0.99376744 1.0061641 0.97542137
0.9995434 1.0162178 0.97661126 0.9850079 1.001314 1.0134381 0.97942054 1.0050286
00000000: ca7e 803f 1026 803f 4c0f 7e3f 1d67 803f
00000010: 2006 833f 2a86 803f 1956 7f3f fcff 7d3f
00000020: 565d 803f 854e 813f 1c11 823f 8e58 803f
00000030: b6e2 823f 5a75 7d3f e0d5 7a3f 31ff 813f
00000040: 7c49 7e3f 0793 803f 2dc9 7c3f e871 813f
00000050: 6310 813f 8b67 7e3f fcc9 803f 37b5 793f
00000060: 14e2 7f3f 6d13 823f 3203 7a3f 7a29 7c3f
00000070: 0f2b 803f 57b8 813f 4ebb 7a3f c7a4 803f

conv.1.bias f4 [32]
-0.0049169725 -0.0029843296 9.5729236e-05 -0.0010727312 0.0010334327 -0.015223509 0.009782119 -0.0018815097
0.0012542862 -0.01214938 0.0067457003 0.01166009 0.030487966 -0.006598078 -0.02123472 0.0064347447
-0.012961934 0.00046593152 -0.0032620488 0.012287229 0.0044533154 -0.022583598 0.0027467282 -0.010067182
-0.0147215 -0.0031018863 -0.008108234 0.0073104985 0.00335098 0.00035741588 -0.023432301 0.0122471545
00000000: 8e1e a1bb be94 43bb 3ec2 c838 e39a 8cba
00000010: 3f74 873a 066c 79bc 2e45 203c fd9c f6ba
00000020: dc66 a43a 310e 47bc 090b dd3b f609 3f3c
00000030: e6c1 f93c b134 d8bb 6ff4 adbc 8dda d23b
00000040: 4b5e 54bc 4548 f439 19c8 55bb 6050 493c
00000050: 1eed 913b 3d01 b9bc 7402 343b d2f0 24bc
00000060: 7232 71bc 0449 4bbb 66d8 04bc e88c ef3b
00000070: 1e9c 5b3b 8c63 bb39 19f5 bfbc 4aa8 483c

conv.1.running_mean f4 [32]
0.050787304 0.065996245 0.03083658 0.044358756 0.053380378 0.06580903 -0.04995021 -0.034806482
-0.056318685 -0.060730387 0.061643053 0.059097864 -0.052951872 0.06040493 0.009852796 -0.013962391
-0.03291097 -0.049313363 0.034139533 -0.060863826 -0.014283529 -0.018753456 -0.03558651 0.06719245
-0.06321956 0.031808637 -0.052222252 0.026172185 -0.008037103 0.039245445 -0.012774551 -0.015056543
00000000: 5906 503d 0a29 873d ff9c fc3c 87b1 353d
00000010: 62a5 5a3d e2c6 863d 9798 4cbd 3e91 0ebd
00000020: 6cae 66bd 6dc0 78bd 6d7d 7c3d 9a10 723d
00000030: 10e4 58bd 296b 773d 9f6d 213c 83c2 64bc
00000040: a7cd 06bd cffc 49bd e5d5 0b3d 594c 79bd
00000050: 7605 6abc d9a0 99bc 29c3 11bd 329c 893d
00000060: 4279 81bd c649 023d 00e7 55bd 0d67 d63c
00000070: 0eae 03bc d5bf 203d 5a4c 51bc b8af 76bc

conv.1.running_var f4 [32]
0.37468526 0.35741925 0.37509972 0.36802366 0.3575311 0.36789158 0.37128446 0.40344653
0.39211974 0.3520446 0.37428248 0.3709457 0.36765718 0.35881954 0.3904488 0.3808894
0.352494 0.33652824 0.3481829 0.36476287 0.3305693 0.36539248 0.3544083 0.4024264
0.3696864 0.34997508 0.33409485 0.33782205 0.36980498 0.36300445 0.36554167 0.36454603
00000000: bfd6 bf3e a8ff b63e 120d c03e 996d bc3e
00000010: 510e b73e 495c bc3e ff18 be3e 8b90 ce3e
00000020: ebc3 c83e 313f b43e f4a1 bf3e 98ec bd3e
00000030: 903d bc3e 32b7 b73e e8e8 c73e ef03 c33e
00000040: 187a b43e 6e4d ac3e 0745 b23e 33c2 ba3e
00000050: 6140 a93e b914 bb3e 0175 b53e d50a ce3e
00000060: 8947 bd3e ef2f b33e 7b0e ab3e 03f7 ac3e
00000070: 1457 bd3e b8db b93e 4728 bb3e c7a5 ba3e

conv.4.weight f4 [64, 32, 3]
-0.021542339 -0.07012668 0.09609652 -0.033663053 0.08970343 0.06791239 -0.046936683 -0.083884634
0.06447239 0.042967338 0.05969001 0.074492805 0.08522497 0.057804257 0.08472787 -0.07016359
-0.05452174 -0.006443357 -0.08578806 -0.010358786 0.05798758 -0.02909921 -0.099285945 -0.018729579
-0.08038754 0.06341082 -0.019596087 0.011707475 0.0062946905 -0.012992606 0.015188209 0.09563911
-0.0577367 0.0468421 0.07161098 0.021950591 -0.10832758 -0.060623966 0.04160938 -0.052501287
-0.001846468 -0.030872764 0.05445438 0.07431524 0.07300689 0.022670016 0.08161717 0.045288082
-0.0092124045 0.04947565 -0.025820665 0.09849629 -0.085700855 -0.05768124 0.0384443 -0.025389075
0.03162584 -0.0847232 -0.0048336885 0.03820477 0.094972506 -0.082302384 0.07911472 0.007312801
-0.091001354 0.104504615 0.08459877 -0.015238585 -0.071521245 0.0660089 -0.06780597 -0.03583995
-0.025100715 -0.0026486188 0.050881535 -0.04632094 0.08220954 0.08525873 -0.0042213867 0.08026728
0.043970954 -0.03883172 -0.08555932 0.089581884 0.05324838 0.013655621 0.00042603203 0.08063203
0.046985276 -0.024218047 0.076879404 0.07882017 -0.033423804 -0.014090946 0.013068616 -0.03441433
-0.044011094 0.07263637 0.000911414 -0.008417369 -0.015639754 0.054808296 -0.00428938 0.05660448
-0.009679022 0.019665075 0.11290474 0.021137804 0.046624914 0.05968441 0.09242061 0.10315386
-0.037297226 0.03938165 -0.051718812 -0.06663309 -0.051540088 0.057488445 -0.067757376 0.027879793
0.061319888 0.05836634 -0.07315912 0.05475186 0.05745597 -0.03602976 0.053372256 -0.03881627
0.045090444 -0.06171669 -0.08992845 0.018158475 0.0013828218 0.012147142 0.049691357 0.048440762
-0.07078577 0.081343174 -0.058549155 0.10931322 0.09389653 -0.02502477 -0.05973532 -0.032755792
0.03706285 0.0303244 0.07853813 0.0029605303 -0.11151064 0.03279997 0.014966786 0.004757676
-0.10197751 0.08555036 0.041077007 -0.026452683 -0.015017589 -0.08358237 -0.035748344 -0.087007664
0.0523094 -0.03317992 0.007530461 0.0013995394 -0.043593496 -0.048511043 0.001141463 0.06477767
-0.02465148 -0.11085855 -0.05940381 -0.0853122 -0.041486345 0.08931644 0.04823545 0.056202773
0.033526544 -0.046777338 -0.10580464 0.06885909 -0.024940377 0.0013036361 -0.09396353 0.044775248
0.028638123 -0.068910345 0.061914556 -0.08956953 0.06348365 -0.057305843 -0.03748455 -0.0010734767
-0.0016327514 -0.021633387 -0.054895353 0.048257854 -0.06622678 0.0887858 -0.03145406 0.06457184
0.04241172 0.088724256 0.11463494 -0.014606272 0.089367494 -0.05712974 0.047717888 -0.030966887
0.06675429 -0.06051873 0.06355072 0.10175759 -0.01274459 0.005875441 -0.08745136 -0.023703407
-0.012826586 0.06849748 -0.019606568 -0.08303059 -0.10218325 0.05406232 0.10770348 -0.034256402
-0.07845003 0.038919862 0.090347745 -0.08821931 -0.047778465 -0.03820367 -0.015284469 0.066362105
-0.032417595 0.027313955 0.06316938 0.05969944 0.101423524 -0.03491204 -0.094332926 0.059589975
0.08214469 0.019901317 -0.057690557 -0.024013681 -0.09671527 0.018033661 -0.052985094 -0.097182214
-0.024205664 -0.022397444 0.079999276 0.00032611197 -0.03216945 0.10198352 0.071788885 0.080093786
00000000: 8f79 b0bc 949e 8fbd 41ce c43d 45e2 09bd
00000010: 6fb6 b73d a715 8b3d ae40 40bd b5cb abbd
00000020: 1a0a 843d 85fe 2f3d 837d 743d af8f 983d
00000030: 6e8a ae3d 28c4 6c3d ce85 ad3d eeb1 8fbd
00000040: 3052 5fbd cc22 d3bb a7b1 afbd e6b7 29bc
00000050: 6284 6d3d 7761 eebc 6e56 cbbd c66e 99bc
00000060: 39a2 a4bd 88dd 813d f987 a0bc b6d0 3f3c
00000070: b143 ce3b f0de 54bc f7d7 783c 70de c33d
00000080: 517d 6cbd 80dd 3f3d c7a8 923d bad1 b33c
00000090: dada ddbd d650 78bd 996e 2a3d 970b 57bd
000000a0: 2f05 f2ba e1e8 fcbc 8e0b 5f3d 9732 983d
000000b0: a384 953d 78b6 b93c e726 a73d ff7f 393d
000000c0: a0ef 16bc fba6 4a3d dc85 d3bc 6cb8 c93d
000000d0: ee83 afbd 2a43 6cbd c577 1d3d c0fc cfbc
000000e0: 198a 013d 5b83 adbd eb63 9ebb 9b7c 1c3d
000000f0: f280 c23d 278e a8bd e606 a23d 39a0 ef3b
00000100: eb5e babd 8406 d63d 1f42 ad3d 42ab 79bc
00000110: bb79 92bd ad2f 873d dbdd 8abd e9cc 12bd
00000120: 04a0 cdbc 7394 2dbb 2869 503d 07bb 3dbd
00000130: 7a5d a83d 219c ae3d 8f53 8abb 2c63 a43d
00000140: e31a 343d 020e 1fbd ba39 afbd b576 b73d
00000150: f91a 5a3d d3bb 5f3c 0d5d df39 6822 a53d
00000160: a273 403d ed64 c6bc f372 9d3d 786c a13d
00000170: 66e7 08bd b6dd 66bc c01d 563c 0af6 0cbd
00000180: fa44 34bd 61c2 943d f5eb 6e3a 01e9 09bc
00000190: f11e 80bc aa7e 603d ed8d 8cbb 19da 673d
000001a0: c394 1ebc a718 a13c 9a3a e73d 3029 ad3c
000001b0: c4f9 3e3d a477 743d 0447 bd3d 5542 d33d
000001c0: fac4 18bd a74e 213d 1bd7 53bd ee76 88bd
000001d0: b31b 53bd 0179 6b3d 61c4 8abd 2a64 e43c
000001e0: 902a 7b3d 8b11 6f3d 73d4 95bd 7d43 603d
000001f0: f456 6b3d f193 13bd de9c 5a3d cffd 1ebd
00000200: c2b0 383d a4ca 7cbd 682c b8bd 15c1 943c
00000210: cd3f b53a ce04 473c 2a89 4b3d d269 463d
00000220: 21f8 90bd 4097 a63d 3dd1 6fbd 9cdf df3d
00000230: d34c c03d bf00 cdbc 06ad 74bd f02a 06bd
00000240: 37cf 173d e06a f83c 99d8 a03d 7505 423b
00000250: b15f e4bd 4359 063d 4037 753c 47e6 9b3b
00000260: 96d9 d0bd 0735 af3d 5d40 283d 4cb3 d8bc
00000270: 550c 76bc 3c2d abbd db6c 12bd 1331 b2bd
00000280: 6242 563d abe7 07bd 16c2 f63b c070 b73a
00000290: 188f 32bd 84b3 46bd 259d 953a 28aa 843d
000002a0: e7f1 c9bc cf09 e3bd 6951 73bd 2ab8 aebd
000002b0: 96ed 29bd 8aeb b63d 8992 453d e134 663d
000002c0: 2153 093d 9899 3fbd 1ab0 d8bd ff05 8d3d
000002d0: c34f ccbc c5de aa3a f46f c0bd 4066 373d
000002e0: 7f9a ea3c de20 8dbd 1e9a 7d3d 3b70 b7bd
000002f0: b703 823d 88b9 6abd 6689 19bd e7b3 8cba
00000300: 0c02 d6ba 8038 b1bc f3d9 60bd 07aa 453d
00000310: e8a1 87bd 54d5 b53d f9d5 00bd 3e3e 843d
00000320: e9b7 2d3d 10b5 b53d b9c5 ea3d 254f 6fbc
00000330: 4e06 b73d e000 6abd d573 433d 45ae fdbc
00000340: 79b6 883d 7de2 77bd e126 823d 4966 d03d
00000350: afce 50bc c586 c03b b319 b3bd a62d c2bc
00000360: 9a26 52bc 6848 8c3d f49d a0bc f10b aabd
00000370: 7445 d1bd 7470 5d3d a493 dc3d 7150 0cbd
00000380: 69aa a0bd 6f6a 1f3d 3d08 b93d 53ac b4bd
00000390: 5ab3 43bd 747b 1cbd b66b 7abc dbe8 873d
000003a0: 50c8 04bd 84c1 df3c f35e 813d 6687 743d
000003b0: 23b7 cf3d edff 0ebd 9f31 c1bd 9e14 743d
000003c0: 7a3b a83d 1608 a33c ef4c 6cbd 57b8 c4bc
000003d0: a812 c6bd 54bb 933c e606 59bd 7807 c7bd
000003e0: f54a c6bc d87a b7bc a9d6 a33d 02fa aa39
000003f0: 1dc4 03bd bcdc d03d 0d06 933d 3608 a43d

conv.4.bias f4 [64]
0.07748932 -0.034503903 -0.015313999 -0.06645673 0.059890687 0.077527195 0.055881564 0.09736402
0.07487106 0.0732147 -0.0029409782 -0.09207729 0.03617672 0.0047271713 0.058716845 -0.07119415
-0.051940713 -0.0004181265 0.047835946 -0.020151973 -0.08484057 0.008778177 0.04238274 0.051092792
0.036974162 0.03633201 0.08325852 -0.014060414 -0.009926584 0.08210713 -0.05171755 0.056739103
-0.029268911 0.037166383 -0.080234006 0.094536476 0.09133346 -0.06134364 0.08552652 0.0948302
0.029926786 -0.032030836 0.0868635 0.008826192 0.060881004 -0.037691902 -0.035868388 0.0669412
-0.019178981 -0.0049917023 0.022916732 -0.0032108855 0.016092833 -0.062489945 -0.029056065 0.043936726
0.052353457 0.014076036 -0.10011099 -0.010554021 0.07848656 0.033274427 -0.09363323 0.09595339
00000000: b8b2 9e3d f753 0dbd 91e7 7abc 771a 88bd
00000010: f04f 753d 94c6 9e3d 11e4 643d ca66 c73d
00000020: 0056 993d 97f1 953d 6dbd 40bb 0593 bcbd
00000030: 0a2e 143d 63e6 9a3b 1381 703d 3dce 91bd
00000040: c9bf 54bd fd37 dbb9 a0ef 433d c015 a5bc
00000050: e5c0 adbd 58d2 0f3c 8699 2d3d ad46 513d
00000060: 3872 173d e0d0 143d 7183 aa3d a75d 66bc
00000070: 1ca3 22bc c827 a83d c8d5 53bd 4367 683d
00000080: 5bc5 efbc c73b 183d ba51 a4bd 579c c13d
00000090: 090d bb3d 7843 7bbd 8728 af3d 5636 c23d
000000a0: 0529 f53c c432 03bd 7ee5 b13d bb9b 103c
000000b0: 5c5e 793d d362 1abd bbea 12bd 7818 893d
000000c0: 3d1d 9dbc 6f91 a3bb dfbb bb3c b86d 52bb
000000d0: 1ed5 833c 75f5 7fbd fc06 eebc fff6 333d
000000e0: 9470 563d 2d9f 663c fe06 cdbd c6ea 2cbc
000000f0: 90bd a03d c44a 083d c7c2 bfbd 3683 c43d

conv.5.weight f4 [64]
1.0024325 0.9862507 1.0008746 1.0059034 0.9784391 1.0132309 0.9867459 0.9831308
1.0156016 1.0082641 0.98709494 0.99857473 1.009073 0.9942525 1.0014178 1.002433
0.9963815 1.0048109 0.98502827 0.9902934 0.9849296 0.99221605 1.0126388 0.99112517
1.0053142 1.0019772 1.005315 1.0040752 0.9809098 1.0061525 0.9899768 0.98522145
0.9916029 0.994506 1.0041047 0.994134 0.9912217 1.0067705 0.98944503 0.9816356
0.9802708 0.9850434 0.98692894 1.0097387 1.0057162 1.0076361 1.0082366 0.98822314
1.013953 0.9902321 1.0083307 0.98536086 0.98259443 1.0067847 0.9908482 0.988283
0.9926376 1.0097494 0.9900971 0.99727345 1.0077102 0.98974586 0.9997731 1.000524
00000000: b54f 803f ed7a 7c3f a91c 803f 71c1 803f
00000010: fc7a 7a3f 8db1 813f 619b 7c3f 76ae 7b3f
00000020: 3cff 813f cc0e 813f 41b2 7c3f 98a2 7f3f
00000030: 4e29 813f 5587 7e3f 752e 803f b94f 803f
00000040: dc12 7f3f a59d 803f d02a 7c3f de83 7d3f
00000050: 5924 7c3f df01 7e3f 269e 813f 61ba 7d3f
00000060: 23ae 803f ca40 803f 29ae 803f 8985 803f
00000070: e81c 7b3f 9bc9 803f 1f6f 7d3f 7937 7c3f
00000080: b0d9 7d3f f297 7e3f 8186 803f 917f 7e3f
00000090: b5c0 7d3f dbdd 803f 454c 7d3f 784c 7b3f
000000a0: 07f3 7a3f ce2b 7c3f 60a7 7c3f 1e3f 813f
000000b0: 4fbb 803f 38fa 803f e60d 813f 31fc 7c3f
000000c0: 36c9 813f da7f 7d3f fb10 813f 9c40 7c3f
000000d0: 4f8b 7b3f 52de 803f 3aa8 7d3f 1d00 7d3f
000000e0: 7f1d 7e3f 783f 813f 0177 7d3f 504d 7f3f
000000f0: a6fc 803f fc5f 7d3f 21f1 7f3f 2c11 803f

conv.5.bias f4 [64]
-0.0059342766 -0.015733093 0.0004750698 0.005803481 -0.017127745 0.011561838 -0.012809407 -0.018481618
0.0094351 0.005632999 -0.009243214 0.0011362509 0.010904338 -0.0061135786 8.51424e-05 0.002893424
-0.0011401334 0.010713063 -0.012069715 -0.006294708 -0.019548066 -0.009059359 0.010332694 -0.0155562805
0.0085137095 -0.00040535262 0.0035026693 0.0054200506 -0.020436972 0.0053166104 -0.010989225 -0.015234769
-0.00996323 -0.008663831 -0.0012188493 -0.0086535225 -0.011805944 0.00579281 -0.007552832 -0.013795173
-0.02310693 -0.015732167 -0.014450139 0.0057129306 0.0020545018 0.007185378 0.011744213 -0.009375019
0.019083632 -0.010749877 0.010037306 -0.0154158985 -0.018541515 0.008634277 -0.010527666 -0.012210726
-0.00496362 0.0076721674 -0.0132023925 0.0015724007 0.0063567623 -0.00967256 -0.0014363718 -0.00043008785
00000000: 5274 c2bb b0e2 80bc ca12 f939 212b be3b
00000010: 7c4f 8cbc dd6d 3d3c 8cde 51bc c366 97bc
00000020: ad95 1a3c 0595 b83b d970 17bc 41ee 943a
00000030: 1ca8 323c 6a54 c8bb 7a8e b238 999f 3d3b
00000040: 8770 95ba d885 2f3c 0ec0 45bc d643 cebb
00000050: 4423 a0bc b56d 14bc 764a 293c c5df 7ebc
00000060: 167d 0b3c 8285 d4b9 0a8d 653b ae9a b13b
00000070: 706b a7bc f636 ae3b 260c 34bc 419b 79bc
00000080: d13c 23bc bef2 0dbc ccc1 9fba 81c7 0dbc
00000090: b86d 41bc 9dd1 bd3b bf7d f7bb 2605 62bc
000000a0: bf4a bdbc bfe0 80bc 47c0 6cbc 8933 bb3b
000000b0: d2a4 063b 5273 eb3b cd6a 403c ae99 19bc
000000c0: 4755 9c3c 4120 30bc 8373 243c f792 7cbc
000000d0: 60e4 97bc c876 0d3c 3b7c 2cbc 7f0f 48bc
000000e0: dda5 a2bb ce66 fb3b d94e 58bc 0319 ce3a
000000f0: 634c d03b a879 1ebc a444 bcba 6a7d e1b9

conv.5.running_mean f4 [64]
0.73290807 0.046150766 0.27112198 -0.066878855 0.64723516 0.0026078064 0.8370951 0.37073585
0.22954807 -0.15818453 0.86690533 -0.26554608 0.27637896 0.06663434 -0.35336006 -0.20213534
-0.6728693 -0.44831306 -0.13816635 -0.4428137 -0.6653161 -0.49001136 -0.19343217 -0.35327
0.23350589 0.018569356 -0.1717938 -0.13708821 -0.3211176 0.091661945 0.008310582 -0.30186683
-1.1498837 -0.73085743 0.034539014 0.63509625 0.11518199 0.17664129 0.0670751 0.14216745
-0.15328273 -0.4256251 -0.28725052 0.053840265 0.4782111 -0.52054644 0.29959583 -0.19147295
-0.062395968 0.044042192 -0.4803331 -0.32253376 -0.1301916 -0.21417701 0.4055202 -0.20747425
0.41306746 -0.08495361 -0.54860234 -0.43421885 0.7978098 0.36025122 -0.37448734 0.042619534
00000000: dd9f 3b3f 9608 3d3d 80d0 8a3e c8f7 88bd
00000010: 34b1 253f bbe7 2a3b dd4b 563f 17d1 bd3e
00000020: a60e 6b3e 20fb 21be 82ed 5d3f a8f5 87be
00000030: 8b81 8d3e 9677 883d 9ceb b4be 91fc 4ebe
00000040: 2a41 2cbf 4a89 e5be 7b7b 0dbe 7ab8 e2be
00000050: 2852 2abf c5e2 fabe 1513 46be cedf b4be
00000060: 2b1c 6f3e c31e 983c b7ea 2fbe da60 0cbe
00000070: 8769 a4be 42b9 bb3d 1b29 083c 4a8e 9abe
00000080: 642f 93bf 7919 3bbf c878 0d3d ab95 223f
00000090: 89e4 eb3d 74e1 343e ac5e 893d 5894 113e
000000a0: 26f6 1cbe 88eb d9be 8012 93be 9c87 5c3d
000000b0: 16d8 f43e 8842 05bf a064 993e 7c11 44be
000000c0: ea92 7fbd 9665 343d 38ee f5be 2523 a5be
000000d0: f250 05be 3851 5bbe 58a0 cf3e 2174 54be
000000e0: 947d d33e 29fc adbd 3471 0cbf ef51 debe
000000f0: 433d 4c3f d972 b83e cebc bfbe d291 2e3d

conv.5.running_var f4 [64]
0.1700548 0.14183831 0.170985 0.14746231 0.13123985 0.19398269 0.16027482 0.17003657
0.16656713 0.19901612 0.16672178 0.12761533 0.16564605 0.17790265 0.14587626 0.17191912
0.15340866 0.17017443 0.15680343 0.1683814 0.14373216 0.15699145 0.1467544 0.17713128
0.15909037 0.13547303 0.14217755 0.1138392 0.18148792 0.15256092 0.16017777 0.1531437
0.14826025 0.16061364 0.15261717 0.16381906 0.15587106 0.14730915 0.1727477 0.16787115
0.15120748 0.18887684 0.17252283 0.13999397 0.14185475 0.17212985 0.14269158 0.15919994
0.15908158 0.16075665 0.1639258 0.14639138 0.14657727 0.15642749 0.14392434 0.16512485
0.15627337 0.13463658 0.14260745 0.16560319 0.15309964 0.1543922 0.18272881 0.17632648
00000000: d822 2e3e 103e 113e b116 2f3e 5c00 173e
00000010: bd63 063e 66a3 463e 151f 243e 111e 2e3e
00000020: 9390 2a3e e2ca 4b3e 1db9 2a3e 98ad 023e
00000030: 1e9f 293e 1d2c 363e 9660 153e 910b 303e
00000040: 2917 1d3e 3542 2e3e 1491 203e 2c6c 2c3e
00000050: 862e 133e 5ec2 203e c946 163e e761 353e
00000060: 96e8 223e 71b9 0a3e fe96 113e 8724 e93d
00000070: f8d7 393e ee38 1c3e a405 243e b4d1 1c3e
00000080: 89d1 173e e777 243e ad47 1c3e 2fc0 273e
00000090: aa9c 1f3e 36d8 163e c6e4 303e 6ae6 2b3e
000000a0: 22d6 1a3e ee68 413e d3a9 303e 945a 0f3e
000000b0: 5f42 113e cf42 303e be1d 123e 4f05 233e
000000c0: 48e6 223e 649d 243e 2adc 273e 9fe7 153e
000000d0: 5a18 163e 872e 203e e760 133e 7d16 293e
000000e0: 2006 203e 2cde 093e b007 123e e293 293e
000000f0: 27c6 1c3e fd18 1e3e 431d 3b3e ee8e 343e

lstm.weight_ih_l0 f4 [256, 64]
0.039362486 -0.029626055 0.048588682 0.0610326 -0.036789093 -0.07152293 0.093872026 0.0064156763
0.036878873 -0.12243625 -0.011545412 0.06001679 0.022953175 -0.021665117 0.10215489 0.047504265
-0.07460769 0.057461735 -0.10487386 -0.028875556 -0.044712856 -0.0141390255 -0.037007518 0.08100456
0.0916351 0.028041719 0.012962484 0.101683415 0.10224737 -0.055407282 0.08482703 -0.084535494
-0.028008278 -0.042617355 -0.04684731 -0.087652266 0.05894738 0.079400085 -0.028393237 0.01007803
0.08148383 -0.12972905 -0.07450864 -0.09097842 -0.0921276 -0.028634487 0.031918358 -0.044342723
0.041151468 0.069720395 0.09381213 -0.100665554 -0.09969401 0.058675695 -0.10582106 -0.061666127
-0.009096608 -0.045465034 0.010776481 0.0929317 0.008400767 0.069473416 -0.025387907 0.10137711
-0.06304661 0.0819351 0.12221067 0.04806451 -0.057115782 0.098308235 -0.11375861 0.123395465
0.04414749 -0.04391169 -0.11733434 0.028945053 0.016982373 0.10493126 0.12133056 -0.017085826
0.11322005 0.02095177 -0.0037956042 0.08996039 -0.10190536 0.034955155 -0.09858437 0.060560476
-0.12214639 -0.062034834 -0.025620805 0.10645165 0.086270116 0.0145556675 0.08555533 0.029043142
-0.08971945 -0.02176152 -0.046974417 0.11721681 -0.018034387 -0.09114802 -0.016455892 0.11682078
0.0724641 -0.09389099 -0.032635402 0.072634354 -0.076078415 -0.04900623 0.01246232 -0.022027414
0.02585923 -0.09451614 0.10388386 0.10701245 -0.0429488 0.085455164 0.022982115 -0.0044721467
0.061914824 0.03292455 -0.105155714 -0.002269797 -0.037203398 -0.006045538 0.070344396 0.07430448
0.094778575 0.04514021 -0.03829396 0.07717039 -0.077551395 -0.035109527 -0.045325805 0.10366835
-0.13214359 0.049477067 -0.08404827 0.062212154 0.016263902 0.034181513 -0.1293833 -0.012205178
-0.06908183 -0.056465164 0.08105508 -0.08706646 0.06431718 -0.05074983 -0.055077683 0.035567638
-0.051354516 0.12724732 0.10807687 -0.032256983 0.05179571 0.108468905 -0.045637652 0.113070324
0.060821068 0.116959535 0.005580584 -0.017514633 -0.10559795 -0.098851636 0.10278529 0.023872145
-0.01114658 0.014053268 0.01622033 0.020854369 0.033732917 0.008622427 0.043826684 0.08899297
0.08133627 0.05630652 -0.028325122 0.03510013 -0.079465 0.09284148 0.0035141283 -0.062642455
-0.039463393 0.07862632 0.091770604 0.037108324 -0.09247588 -0.12687548 0.043027394 -0.056113828
0.05745064 -0.0032872804 0.013757319 0.08927471 -0.0068450025 -0.017166477 -0.13279992 -0.00024501098
-0.09184636 -0.12621652 0.021360254 -0.09277675 0.0028613133 0.10543989 0.057990074 0.060936626
0.020400248 0.08025896 -0.11960143 0.010060893 0.048916757 0.006625112 0.05924596 0.06226566
0.025108676 0.108373806 -0.05520655 -0.12699728 0.057314016 -0.119289555 -0.04438009 -0.014732565
0.10298855 0.033235557 -0.08773952 -0.03762956 -0.03958163 -0.0936727 -0.11609447 -0.049496207
-0.06645593 0.014225793 -0.011875162 -0.036292326 -0.06927057 0.014149762 -0.0065465835 -0.04392997
0.09452313 0.04263362 -0.021706942 -0.072679356 0.10017485 -0.035219405 0.021795241 0.08820512
0.066429034 0.017200336 0.022774173 0.081965074 0.013999772 0.040860243 -0.13261592 -0.090226956
00000000: 8f3a 213d 57b2 f2bc ed04 473d 52fd 793d
00000010: 29b0 16bd 9d7a 92bd fa3f c03d 983a d23b
00000020: 4d0e 173d dbbf fabd f828 3dbc 2ad4 753d
00000030: 4c08 bc3c 0b7b b1bc 9536 d13d d593 423d
00000040: ebcb 98bd ff5c 6b3d 1bc8 d6bd 6e8c ecbc
00000050: d424 37bd 5fa7 67bc 3295 17bd b8e5 a53d
00000060: 2fab bb3d bfb7 e53c 9960 543c 653f d03d
00000070: 1267 d13d bff2 62bd cbb9 ad3d f220 adbd
00000080: 9e71 e5bc 898f 2ebd f7e2 3fbd 0883 b3bd
00000090: cf72 713d 839c a23d ef98 e8bc 521e 253c
000000a0: ffe0 a63d b1d7 04be fc97 98bd e552 babd
000000b0: 65ad bcbd df92 eabc d3bc 023d b7a0 35bd
000000c0: 718e 283d 91c9 8e3d 9320 c03d be29 cebd
000000d0: 602c ccbd ed55 703d b6b8 d8bd 9f95 7cbd
000000e0: f009 15bc 8b39 3abd d68f 303c fa52 be3d
000000f0: 5fa3 093c 1448 8e3d 4dfa cfbc cd9e cf3d
00000100: 951e 81bd 97cd a73d 9649 fa3d 4bdf 443d
00000110: 3df2 69bd d455 c93d 46fa e8bd c3b6 fc3d
00000120: 00d4 343d bfdc 33bd fd4c f0bd 2d1e ed3c
00000130: 9e1e 8b3c 33e6 d63d 287c f83d 93f7 8bbc
00000140: eadf e73d 0ca3 ab3c acbf 78bb 273d b83d
00000150: c2b3 d0bd 232d 0f3d 9ae6 c9bd 430e 783d
00000160: e327 fabd 3d18 7ebd b9e2 d1bc 5303 da3d
00000170: 63ae b03d e57a 6e3c a237 af3d e2eb ed3c
00000180: d5be b7bd 3745 b2bc 3f68 40bd 5e0f f03d
00000190: dabc 93bc d0ab babd 82ce 86bc bc3f ef3d
000001a0: 0f68 943d eb49 c0bd b3ac 05bd 52c1 943d
000001b0: 00cf 9bbd c2ba 48bd c22e 4c3c d672 b4bc
000001c0: bcd6 d33c ae91 c1bd 10c1 d43d 5829 db3d
000001d0: 15eb 2fbd 1e03 af3d fd44 bc3c 168b 92bb
000001e0: 669a 7d3d e5db 063d e15b d7bd e0c0 14bb
000001f0: 9762 18bd a619 c6bb b910 903d f22c 983d
00000200: 451b c23d f1e4 383d 21da 1cbd 820b 9e3d
00000210: 44d3 9ebd 02cf 0fbd 8da7 39bd 1250 d43d
00000220: a650 07be 77a8 4a3d 8021 acbd 2cd2 7e3d
00000230: e03b 853c ea01 0c3d 0e7d 04be 3af8 47bc
00000240: c67a 8dbd 0448 67bd 3500 a63d e64f b2bd
00000250: bab8 833d 0edf 4fbd 2399 61bd 5faf 113d
00000260: 1d59 52bd 1f4d 023e 6857 dd3d e61f 04bd
00000270: bd27 543d f224 de3d 8cee 3abd 6a91 e73d
00000280: 831f 793d 7b88 ef3d 55dd b63b d97a 8fbc
00000290: bd43 d8bd ba72 cabd 1881 d23d 848f c33c
000002a0: 25a0 36bc ae3f 663c 7fe0 843c c8d6 aa3c
000002b0: 872b 0a3d 1445 0d3c 9c83 333d f241 b63d
000002c0: a193 a63d aaa1 663d 160a e8bc 27c5 0f3d
000002d0: 8cbe a2bd ad23 be3d 4a4d 663b b04a 80bd
000002e0: 5ea4 21bd d606 a13d 3af2 bb3d e6fe 173d
000002f0: ff63 bdbd a5eb 01be 7e3d 303d 9dd7 65bd
00000300: 5d51 6b3d 6a6f 57bb 6166 613c a9d5 b63d
00000310: 0b4c e0bb b6a0 8cbc b4fc 07be d174 80b9
00000320: f219 bcbd e73e 01be b3fb ae3c bd01 bebd
00000330: df84 3b3b def0 d73d 0087 6d3d af98 793d
00000340: 6c1e a73c cf5e a43d 98f1 f4bd 72d6 243c
00000350: f05c 483d 7817 d93b e4ab 723d 470a 7f3d
00000360: b6b0 cd3c 16f3 dd3d 4320 62bd 930b 02be
00000370: 1ac2 6a3d 154e f4bd e6c7 35bd db60 71bc
00000380: a9eb d23d 0222 083d c7b0 b3bd 7421 1abd
00000390: 5920 22bd 79d7 bfbd f0c2 edbd 89bc 4abd
000003a0: 0c1a 88bd 4d13 693c 0a90 42bc 43a7 14bd
000003b0: bbdd 8dbd 67d4 673c b984 d6bb eaef 33bd
000003c0: 5895 c13d 97a0 2e3d c2d2 b1bc ead8 94bd
000003d0: 7928 cd3d 3942 10bd ef8b b23c e3a4 b43d
000003e0: f20b 883d b8e7 8c3c e790 ba3c 4edd a73d
000003f0: 4d5f 653c 125d 273d 78cc 07be e9c8 b8bd

lstm.weight_hh_l0 f4 [256, 64]
-0.0925269 0.09548268 -0.0028677888 0.031303532 -0.03864939 0.09493618 0.08905619 -0.08055284
-0.026573788 0.0137982415 0.03660862 0.03596182 0.006674646 -0.0125517 -0.05118519 -0.040616598
0.021693707 -0.066578075 -0.10479874 -0.0683927 0.006090742 -0.09129419 -0.06624756 -0.07361346
-0.0829927 0.01573275 -0.050274283 0.048469167 0.0851654 0.081412025 -0.035457194 -0.04372146
-0.05657856 -0.010163879 0.030950755 0.06482565 0.035026345 -0.06920225 -0.10557675 0.01539822
-0.123307146 -0.11417373 -0.07066274 0.10931777 -0.12706985 0.043234415 -0.041646987 -0.047139674
-0.037169762 0.114576794 -0.003283108 0.09875043 -0.017809838 0.124556825 0.0062420648 -0.03218532
-0.056318764 -0.026276048 0.12438597 0.07208225 -0.055905994 0.05266313 0.09954226 0.040112846
-0.09083418 0.109345846 -0.032879606 0.091441095 0.0934456 0.11571722 -0.0002867912 0.08095024
0.08569786 0.03653347 0.11410071 -0.04893045 -0.014976791 -0.06458655 -0.04722807 0.0709229
0.1100935 0.10604044 0.062203865 0.10392019 0.0033813145 0.10406495 -0.047380663 0.015105717
-0.072284706 -0.015480798 0.042961117 -0.10209181 0.044817124 0.026207665 -0.028762983 -0.030371541
0.03887639 -0.10033325 0.019440925 0.08327648 0.011433888 -0.10576445 0.0548862 0.029126149
0.1331412 0.06302498 -0.07318789 0.1143455 0.107416384 -0.10197888 -0.059993334 0.075779855
0.027391424 0.1106086 0.016380953 -0.043282885 0.11432598 -0.012398346 0.03309386 0.043203484
0.0770862 0.083197825 -0.035341326 0.11925101 0.0004495998 -0.0107119335 -0.03893437 0.002928435
-0.0497393 0.069419466 0.03002571 0.060886517 -0.07267293 -9.867019e-05 -0.025710164 0.010308366
0.05123743 -0.07670123 0.07382994 0.03211595 -0.09834868 0.10968747 -0.015885025 0.06593353
0.01654505 -0.02986176 0.07377263 0.0136148445 -0.09152331 -0.0954036 -0.0013464745 -0.083474815
0.12776557 -0.084048085 0.044696994 0.10232413 -0.12922394 -0.04569268 0.03415962 -0.02642622
0.10469814 -0.06344714 -0.05860659 -0.02905596 0.01779205 0.06913475 -0.07650738 0.08268193
-0.050531704 0.04639174 -0.079725474 -0.12689942 0.096486144 -0.04060156 -0.059212577 0.0705622
-0.021554003 -0.016721921 0.07639674 0.09068434 0.01251504 -0.04338782 0.10165942 -0.10840585
-0.1063142 -0.039513227 0.024681924 0.07983419 -0.034153145 0.015336783 -0.012717196 -0.09267022
-0.07915594 0.10176264 0.07770757 0.12085866 -0.015460471 -0.093149304 -0.026143527 0.000110448374
0.01559726 -0.014107775 0.0050978204 0.032241482 0.0068378416 -0.048388414 -0.109588854 0.08417536
0.028134031 -0.084485024 -0.037728626 -0.015116531 -0.08181828 0.08375383 -0.080866925 0.018350204
0.11732648 0.04701993 0.044058744 0.013346208 -0.09314625 -0.036856774 -0.0028267638 0.075926095
-0.06884354 0.06795983 0.051849775 0.091476016 0.030703614 -0.059940245 -0.048376422 -0.09724049
-0.09286042 -0.0049094134 0.06373529 -0.0038885141 0.060465626 0.03510311 -0.046599515 -0.004715866
-0.034268774 -0.106498726 -0.025339555 0.030314263 0.049262837 -0.07720131 -0.07617034 -0.025805078
-0.008550996 0.08675081 -0.053761534 -0.03504414 -0.12387405 0.07204747 0.009271498 -0.022323761
00000000: be7e bdbd 6c8c c33d 83f1 3bbb 2238 003d
00000010: d34e 1ebd e66d c23d 1763 b63d e3f8 a4bd
00000020: 46b1 d9bc 0512 623c ecf2 153d b44c 133d
00000030: fdb6 da3b a5a5 4dbc 90a7 51bd 975d 26bd
00000040: 00b7 b13c 165a 88bd b9a0 d6bd 7911 8cbd
00000050: d994 c73b 73f8 babd cdac 87bd a7c2 96bd
00000060: 14f8 a9bd f8e1 803c 68ec 4dbd 9b87 463d
00000070: 326b ae3d 59bb a63d 903b 11bd 4615 33bd
00000080: ecbe 67bd 6686 26bc 708c fd3c 4fc3 843d
00000090: c977 0f3d e9b9 8dbd a038 d8bd d148 7c3c
000000a0: 7588 fcbd ebd3 e9bd a0b7 90bd ffe1 df3d
000000b0: 991e 02be 9216 313d 0896 2abd 8815 41bd
000000c0: 523f 18bd 3da7 ea3d 6929 57bb aa3d ca3d
000000d0: f0e5 91bc a617 ff3d 3c8a cc3b c1d4 03bd
000000e0: 81ae 66bd de40 d7bc 12be fe3d dc9f 933d
000000f0: affd 64bd 4bb5 573d d0dc cb3d 5e4d 243d
00000100: 4507 babd b7f0 df3d c4ac 06bd 7845 bb3d
00000110: 6860 bf3d 26fd ec3d 775c 96b9 3dc9 a53d
00000120: 5c82 af3d 1fa4 153d a2ad e93d 4c6b 48bd
00000130: 3761 75bc f445 84bd 3972 41bd 0740 913d
00000140: b378 e13d bb2b d93d 7bc9 7e3d 1cd4 d43d
00000150: 0b99 5d3b 0120 d53d 3a12 42bd f87d 773c
00000160: 010a 94bd 2ca3 7dbc fff7 2f3d 8315 d1bd
00000170: 2992 373d 75b1 d63c 59a0 ebbc bdcd f8bc
00000180: d93c 1f3d 857b cdbd 9342 9f3c dc8c aa3d
00000190: 3455 3b3c 089b d8bd 5ad0 603d f699 ee3c
000001a0: 2b56 083e 3e13 813d 88e3 95bd f92d ea3d
000001b0: 1ffd db3d 4eda d0bd 92bb 75bd 7832 9b3d
000001c0: fb63 e03c c386 e23d 5931 863c 6549 31bd
000001d0: bd23 ea3d 6f22 4bbc 6d8d 073d 23f6 303d
000001e0: 5fdf 9d3d 9f63 aa3d 11c2 10bd e039 f43d
000001f0: 43b8 eb39 1b81 2fbc a579 1fbd fdea 3f3b
00000200: 70bb 4bbd cb2b 8e3d 7af8 f53c 2464 793d
00000210: 8cd5 94bd 28ed ceb8 1f9e d2bc 6ce4 283c
00000220: 57de 513d 8915 9dbd 2734 973d 048c 033d
00000230: 086b c9bd d3a3 e03d 5021 82bc 2908 873d
00000240: 7c89 873c a6a0 f4bc 1b16 973d cc10 5f3c
00000250: 9370 bbbd f662 c3bd 307c b0ba d8f4 aabd
00000260: fad4 023e 6721 acbd 3214 373d 508f d13d
00000270: 4853 04be 3f28 3bbd f5ea 0b3d cd7b d8bc
00000280: fa6b d63d 93f0 81bd 770d 70bd c406 eebc
00000290: a2c0 913c 8596 8d3d e7af 9cbd 2555 a93d
000002a0: 55fa 4ebd 4405 3e3d 1c47 a3bd ecf1 01be
000002b0: 879a c53d d24d 26bd e388 72bd ea82 903d
000002c0: 0592 b0bc 69fc 88bc e575 9c3d b6b8 b93d
000002d0: e20b 4d3c 6db7 31bd d032 d03d e303 debd
000002e0: 42bb d9bd 9fd8 21bd bf31 ca3c 1c80 a33d
000002f0: 2be4 0bbd 2147 7b3c c95b 50bc e2c9 bdbd
00000300: 821c a2bd ee68 d03d 2525 9f3d bf84 f73d
00000310: ea4d 7dbc 10c5 bebd f32a d6bc 85a0 e738
00000320: a68b 7f3c 4c24 67bc 9e0b a73b a50f 043d
00000330: f90f e03b ee32 46bd 1f70 e0bd 2264 ac3d
00000340: 5779 e63c 7c06 adbd 5589 1abd 54ab 77bc
00000350: 5890 a7bd 2187 ab3d 8f9d a5bd 2b53 963c
00000360: de48 f03d f897 403d f176 343d 0eaa 5a3c
00000370: 76c3 bebd 21f7 16bd 3a41 39bb 247f 9b3d
00000380: d8fd 8cbd 862e 8b3d 6e60 543d c757 bb3d
00000390: 2586 fb3c e783 75bd 5b26 46bd 0626 c7bd
000003a0: 9b2d bebd 25df a0bb a687 823d 71d6 7ebb
000003b0: ceaa 773d 47c8 0f3d 22df 3ebd 8d87 9abb
000003c0: 6a5d 0cbd 011c dabd e694 cfbc 9e55 f83c
000003d0: d4c7 493d b81b 9ebd 32ff 9bbd 2c65 d3bc
000003e0: 7a19 0cbc 69aa b13d 0e35 5cbd 728a 0fbd
000003f0: aeb1 fdbd a08d 933d 7be7 173c 52e0 b6bc

lstm.bias_ih_l0 f4 [256]
0.040238317 -0.07519676 -0.065931015 -0.04320081 -0.046530694 0.07377257 -0.030279497 -0.015557717
-0.0069643958 -0.11796564 -0.046281196 -0.12655407 -0.025011629 -0.057751976 -0.05683279 -0.010928978
-0.03744818 -0.05532542 0.01935041 -0.005095999 -0.03096876 -0.07393532 0.015391836 0.021636872
0.053595167 0.0054356656 0.08256101 0.06569319 -0.10936836 0.039873652 0.046929803 0.030226052
-0.05980203 -0.077240676 -0.055441465 -0.053394042 0.10242043 -0.057042375 -0.08633943 0.06417461
0.06532371 0.081582464 -0.03091566 -0.10166648 -0.09308055 -0.13165137 -0.029943503 -0.008150412
0.07215955 -0.048750788 0.011669318 -0.029021652 0.054655638 -0.06387205 -0.05409018 0.033313386
0.11149063 0.069911055 0.012438234 0.10169688 0.069132656 0.058082685 -0.102750346 0.045515988
-0.06907697 0.10119277 -0.0702252 -0.041176423 0.038966242 0.09273314 -0.12372865 -0.045446582
-0.02803736 -0.08187458 0.03332675 0.0877313 0.043510232 -0.0273054 -0.068062186 0.052431088
0.08406902 -0.10015059 -0.030148275 0.054333936 -0.08923523 0.07910846 -0.004074675 -0.08870716
-0.043194566 0.07084768 -0.05674241 0.08759131 0.07528158 -0.06801554 -0.023055919 -0.011757792
0.09329582 0.045820944 -0.1327905 0.09737247 -0.0739349 -0.022717608 0.10376148 0.06269894
0.08922444 0.011201326 -0.0012331423 0.083713874 0.086837605 -0.106513776 -0.0371213 0.012452888
-0.0035665764 -0.09740025 0.09722112 -0.03498639 0.11420595 -0.050786424 -0.08078658 0.0574296
-0.11145488 0.095216446 0.090324335 0.11521235 0.10130477 -0.12751439 0.051926352 -0.06815067
-0.091142185 -0.033852898 -0.07653597 0.012503468 0.07694483 -0.12666054 -0.03707639 0.114685856
0.0020416996 -0.12488127 0.07318198 0.07831391 -0.109044515 -0.021728085 0.022362793 0.0623876
-0.093762524 -0.11480497 0.082146734 -0.04370883 0.09754739 -0.099993296 0.12912284 -0.12906344
0.10705205 -0.044198953 0.0273198 -0.0013077811 0.074927576 0.11342156 -0.101628825 0.033201084
-0.0205144 -0.00730049 0.09360746 0.08423181 0.042008135 -0.08441557 -0.026256192 -0.053734735
0.06383556 0.003127277 -0.012987053 0.09335538 0.0656138 -0.042310048 0.0362522 0.061653342
-0.0109026665 -0.11920801 0.002272801 -0.04151631 -0.05728221 -0.0020781353 -0.099965 -0.10939295
0.040527757 -0.03500436 -0.021985807 0.035496973 0.005428908 -0.06883019 0.008343136 0.04946538
-0.0024771143 -0.03194768 0.026906844 -0.022028789 -0.10239602 -0.06876597 0.06444222 -0.11683505
-0.030034572 -0.01742892 -0.07255246 0.0285302 -0.030444238 0.012647547 0.057712916 -0.13003108
-0.12997332 0.028070837 0.03646328 0.026895965 -0.044100158 -0.1361693 -0.05695125 0.06463875
-0.058836963 -0.00932491 0.088784344 0.062937856 0.114486665 -0.0010812702 -0.11252994 -0.051593535
-0.055015273 0.01821893 -0.07743555 0.095841005 0.09611662 -0.021241032 0.06920667 0.018093878
0.0102626365 0.087194644 0.009881056 -0.05934634 0.115448035 0.060427666 0.06800176 -0.023852596
0.025293471 0.017986538 -0.11125637 0.11670684 -0.12720416 -0.08715426 0.112112366 -0.011741877
-0.12516183 0.12537001 0.10304271 0.039343227 -0.04419666 0.050042223 0.035778653 -0.0942884
00000000: efd0 243d c200 9abd d706 87bd 55f3 30bd
00000010: f896 3ebd 1316 973d b50c f8bc cbe5 7ebc
00000020: 9635 e4bb f897 f1bd 5a91 3dbd 6497 01be
00000030: 30e5 ccbc 568d 6cbd 80c9 68bd 750f 33bc
00000040: 4363 19bd e89c 62bd c084 9e3c 57fc a6bb
00000050: 32b2 fdbc 676b 97bd 0a2e 7c3c cf3f b13c
00000060: 9b86 5b3d ab1d b23b bf15 a93d 278a 863d
00000070: 85fc dfbd 8e52 233d 7739 403d a09c f73c
00000080: f9f2 74bd 5c30 9ebd 9716 63bd b6b3 5abd
00000090: cdc1 d13d 44a5 69bd bad2 b0bd fa6d 833d
000000a0: 70c8 853d b514 a73d d742 fdbc 8436 d0bd
000000b0: 04a1 bebd 9ecf 06be 144c f5bc 4e89 05bc
000000c0: 63c8 933d e8ae 47bd ab30 3f3c d1be edbc
000000d0: 97de 5f3d 59cf 82bd aa8d 5dbd 9e73 083d
000000e0: 3355 e43d 872d 8f3d bcc9 4b3c 7446 d03d
000000f0: 6c95 8d3d 1ce8 6d3d c66e d2bd f96e 3a3d
00000100: 3a78 8dbd 283e cf3d 3bd2 8fbd 9ca8 28bd
00000110: 119b 1f3d dfea bd3d 7265 fdbd 3226 3abd
00000120: 9bae e5bc dcad a7bd a181 083d 78ac b33d
00000130: c937 323d 93af dfbc 3064 8bbd fbc1 563d
00000140: 612c ac3d c11b cdbd 84f9 f6bc 438d 5e3d
00000150: f6c0 b6bd 9e03 a23d da84 85bb 19ac b5bd
00000160: c9ec 30bd 9718 913d bb6a 68bd 1363 b33d
00000170: 3b2d 9a3d bb4b 8bbd c4df bcbc c1a3 40bc
00000180: e111 bf3d beae 3b3d 3cfa 07be 386b c73d
00000190: 2e6b 97bd 471a babc e680 d43d 4d68 803d
000001a0: 4ebb b63d c485 373c 64a1 a1ba 2e72 ab3d
000001b0: ead7 b13d e523 dabd 810c 18bd 3307 4c3c
000001c0: 39bd 69bb c879 c7bd de1b c73d e44d 0fbd
000001d0: cfe4 e93d 6d05 50bd 6f73 a5bd 4d3b 6b3d
000001e0: 7542 e4bd d700 c33d f7fb b83d 74f4 eb3d
000001f0: e078 cf3d 2293 02be bab0 543d 9492 8bbd
00000200: c1a8 babd 56a9 0abd e4be 9cbd 59db 4c3c
00000210: 4095 9d3d 4db3 01be 6add 17bd 6be0 ea3d
00000220: 09ce 053b c0c1 ffbd 6fe0 953d 0b63 a03d
00000230: bb52 dfbd 19ff b1bc 2d32 b73c 248a 7f3d
00000240: 9106 c0bd de1e ebbd 8c3c a83d 0808 33bd
00000250: edc6 c73d 49c9 ccbd c738 043e 3529 04be
00000260: 1b3e db3d f609 35bd c6cd df3c da69 abba
00000270: a173 993d 9049 e83d c622 d0bd dcfd 073d
00000280: d10d a8bc f338 efbb 45b5 bf3d ba81 ac3d
00000290: b910 2c3d 12e2 acbd 3a17 d7bc f418 5cbd
000002a0: 38bc 823d 00f3 4c3b a6c7 54bc 1b31 bf3d
000002b0: 8760 863d 4d4d 2dbd 307d 143d 3788 7c3d
000002c0: 19a1 32bc 5423 f4bd 46f3 143b 020d 2abd
000002d0: c0a0 6abd 5331 08bb 73ba ccbd 6909 e0bd
000002e0: 6f00 263d bb60 0fbd 941b b4bc 4665 113d
000002f0: fbe4 b13b d8f6 8cbd a6b1 083c 369c 4a3d
00000300: 1557 22bb 92db 02bd be6b dc3c b875 b4bc
00000310: 01b5 d1bd 2cd5 8cbd 48fa 833d 3747 efbd
00000320: 100b f6bc 18c7 8ebc 6296 94bd 2ab8 e93c
00000330: 3266 f9bc a837 4f3c 6164 6c3d de26 05be
00000340: ba17 05be d0f4 e53c 855a 153d ed54 dc3c
00000350: 5ea2 34bd f76f 0bbe b745 69bd 5261 843d
00000360: 07ff 70bd 82c7 18bc 91d4 b53d 90e5 803d
00000370: fc77 ea3d 68b9 8dba 1976 e6bd be53 53bd
00000380: b257 61bd de3f 953c 8896 9ebd 4a48 c43d
00000390: cad8 c43d ac01 aebc 3abc 8d3d 9d39 943c
000003a0: 9e24 283c 1b93 b23d 27e4 213c 2615 73bd
000003b0: 0570 ec3d 0083 773d 8244 8b3d 8566 c3bc
000003c0: 4134 cf3c 8158 933c 61da e3bd ff03 ef3d
000003d0: cf41 02be ef7d b2bd 2b9b e53d 0061 40bc
000003e0: 6c2a 00be ff60 003e 0e08 d33d 5d26 213d
000003f0: 8f07 35bd 13f9 4c3d a38c 123d 471a c1bd

lstm.bias_hh_l0 f4 [256]
0.09115671 0.03312236 0.1072267 0.031174403 0.045839265 -0.029280769 -0.04364526 -0.1083364
0.039876778 0.026943918 0.046981446 -0.109871276 -0.11535577 0.08053346 -0.005138489 0.0971947
-0.119423866 0.116431154 -0.05055777 -0.13190646 0.100868426 -0.036214937 -0.023971675 0.031396966
0.0263342 0.022191163 -0.05122206 -0.02754186 -0.10327726 -0.022545323 0.11662781 -0.015559801
0.06896945 0.018416742 -0.117992274 0.007648777 0.06890691 0.044869304 -0.010030327 -0.12605081
0.03603662 -0.0030037928 0.041158687 -0.09727195 0.08653432 -0.08977208 -0.10255917 0.029405806
-0.013594048 -0.06921916 -0.11854146 -7.400741e-05 0.041889172 -0.07065404 -0.11296712 0.03988837
-0.038566504 0.07627765 -0.043903746 0.11873409 -0.038236544 0.060237624 -0.03240959 -0.046738323
0.07663438 -0.064295985 -0.1157267 -0.08180857 -0.010976754 -0.0322437 0.089940384 0.016933354
-0.074259885 -0.078623995 -0.11319075 -0.087798014 -0.008108042 0.051176466 0.0026506134 0.005704105
0.06830364 -0.09436446 -0.10214231 -0.029510397 -0.026179489 0.017893443 0.014287475 0.11748827
0.095939375 0.09867596 -0.110445626 -0.11162809 0.03821712 0.0930033 0.10263599 -0.05870436
-0.03876294 -0.07543107 0.06552467 -0.10575092 -0.090751916 0.09781863 0.0053829267 0.043782983
0.07680367 0.037686676 -0.02474687 -0.06379554 0.008871316 -0.13493717 -0.06758636 0.0053309035
0.08159541 0.03472278 0.004322434 0.014908875 -0.10215772 0.058912974 0.036180392 0.081446774
0.029631162 -0.10526434 0.012161151 -0.05815565 -0.057423137 0.046191487 -0.08559161 -0.099021375
0.094426654 -0.011187413 -0.039352927 -0.11994808 0.10359007 -0.09251844 -0.11252745 -0.0007891617
0.0076292665 0.08607053 0.04579148 0.095370345 0.04422308 0.11442285 -0.117295526 -0.10406734
0.037767418 0.09567577 0.08830649 -0.030789807 0.10909917 -0.015557284 0.057933547 0.037386652
-0.12945226 0.09432787 -0.047383092 0.01045144 -0.053814046 -0.118007064 -0.050223105 -0.04446788
-0.04469969 -0.01668845 -0.089060344 -0.118075535 -0.12906757 0.040603835 0.13869506 0.06726795
0.07818429 -0.094523825 0.08044571 -0.10545451 0.13181672 -0.0024857514 0.12251429 -0.0025795135
-0.03613545 -0.08741258 -0.016955724 -0.05489733 -0.08233438 -0.07115453 -0.0014975965 -0.09509174
0.05993218 -0.030180225 -0.040914908 -0.03431558 0.039749436 0.114060715 0.046335094 -0.12895316
-0.12006117 -0.0012302925 0.019821998 0.030529179 0.07946167 -0.056336664 0.09442708 -0.11756424
-0.11010402 0.12805314 0.0630543 -0.020625442 -0.04505667 0.10598878 0.11553125 -0.1003835
0.10136959 0.04985653 0.04649091 -0.031446584 0.060247052 -0.063877225 -0.04657769 0.04030487
0.047494385 0.037760675 -0.054795023 0.03306866 -0.1085348 0.049996898 -0.07350849 -0.028587315
0.008871409 0.11037012 0.03460085 -0.0065041846 -0.098351434 0.10433457 0.052093577 -0.016470755
-0.077958085 -0.0514144 0.103885345 0.018899605 -0.095978685 0.045071274 -0.1144259 -0.0539834
0.048044197 -0.057628933 0.105926536 -0.06168432 0.063484214 -0.055647053 -0.0709229 0.07206387
-0.121378034 -0.1058047 -0.036482055 -0.08803107 -0.014713448 0.009892604 0.09376997 -0.10976889
00000000: 5fb0 ba3d 50ab 073d ac99 db3d 7661 ff3c
00000010: f4c1 3b3d 39de efbc 5fc5 32bd 79df ddbd
00000020: d555 233d 7eb9 dc3c 9e6f 403d 3104 e1bd
00000030: a53f ecbd baee a43d c560 a8bb 040e c73d
00000040: 8094 f4bd 7573 ee3d aa15 4fbd 7d12 07be
00000050: 1b94 ce3d 1d56 14bd 3f60 c4bc 1b9a 003d
00000060: d2ba d73c 3eca b53c 39ce 51bd 779f e1bc
00000070: 0783 d3bd f8b0 b8bc 90da ee3d 89ee 7ebc
00000080: db3f 8d3d b5de 963c efa5 f1bd 98a2 fa3b
00000090: 111f 8d3d e0c8 373d 3e56 24bc 7713 01be
000000a0: 239b 133d 48db 44bb 0396 283d 8436 c7bd
000000b0: e838 b13d 6dda b7bd 8b0a d2bd 72e4 f03c
000000c0: 92b9 5ebc c6c2 8dbd ddc5 f2bd 6d34 9bb8
000000d0: fb93 2b3d 11b3 90bd 4e5b e7bd fd61 233d
000000e0: e9f7 1dbd 7537 9c3d 6ad4 33bd dc2a f33d
000000f0: ec9d 1cbd babb 763d ebbf 04bd af70 3fbd
00000100: 7cf2 9c3d 9dad 83bd 1f02 edbd 408b a7bd
00000110: d8d7 33bc f811 04bd aa32 b83d d1b7 8a3c
00000120: 9115 98bd 9e05 a1bd 8dd0 e7bd 72cf b3bd
00000130: 98d7 04bc 6a9e 513d eab5 2d3b 80e9 ba3b
00000140: c7e2 8b3d 2742 c1bd fd2f d1bd cabf f1bc
00000150: 5e76 d6bc 4595 923c 0316 6a3c b19d f03d
00000160: dd7b c43d 9f16 ca3d 5131 e2bd 459d e4bd
00000170: 8e89 1c3d 8478 be3d d132 d23d fc73 70bd
00000180: e3c5 1ebd 9b7b 9abd cc31 863d f093 d8bd
00000190: 24dc b9bd 2255 c83d 4363 b03b c955 333d
000001a0: 3e4b 9d3d 585d 1a3d f3b9 cabc 3ca7 82bd
000001b0: ff58 113c f82c 0abe b86a 8abd dcae ae3b
000001c0: 7f1b a73d 7939 0e3d 34a3 8d3b 5b44 743c
000001d0: 1138 d1bd bb4e 713d e431 143d 91cd a63d
000001e0: 0dbd f23c d594 d7bd 903f 473c 9e34 6ebd
000001f0: 8634 6bbd 4933 3d3d a74a afbd b8cb cabd
00000200: c362 c13d 694b 37bc 8930 21bd 57a7 f5bd
00000210: 0827 d43d 4f7a bdbd cb74 e6bd bfdf 4eba
00000220: edfe f93b bf45 b03d d98f 3b3d 8751 c33d
00000230: 4323 353d 8756 ea3d a338 f0bd 4221 d5bd
00000240: 02b2 1a3d a8f1 c33d 08da b43d e83a fcbc
00000250: 636f df3d fae3 7ebc ba4b 6d3d bf22 193d
00000260: 228f 04be f82e c13d c614 42bd 843c 2b3c
00000270: 1e6c 5cbd b0ad f1bd beb6 4dbd f423 36bd
00000280: 0617 37bd 37b6 88bc 4565 b6bd 96d1 f1bd
00000290: 4a2a 04be 3550 263d 1406 0e3e c7c3 893d
000002a0: 161f a03d b595 c1bd b8c0 a43d 89f8 d7bd
000002b0: f6fa 063e fde7 22bb c6e8 fa3d 0e0d 29bb
000002c0: c402 14bd 5e05 b3bd bbe6 8abc 06dc 60bd
000002d0: ed9e a8bd 77b9 91bd 004b c4ba 75bf c2bd
000002e0: 727b 753d 853c f7bc 6496 27bd 7e8e 0cbd
000002f0: 4ed0 223d aa98 e93d dec9 3d3d 4c0c 04be
00000300: a1e2 f5bd c441 a1ba be61 a23c 5418 fa3c
00000310: cdbc a23d 46c1 66bd fc62 c13d 85c5 f0bd
00000320: 377e e1bd 5d20 033e 9d22 813d b0f6 a8bc
00000330: 588d 38bd a510 d93d a69b ec3d dd95 cdbd
00000340: dc9a cf3d 5c36 4c3d 416d 3e3d 22ce 00bd
00000350: 9dc5 763d 10d2 82bd 3fc8 3ebd b816 253d
00000360: 7989 423d f0aa 1a3d bf70 60bd 0173 073d
00000370: 7e47 debd 8cc9 4c3d 9f8b 96bd f22f eabc
00000380: 6359 113c bb09 e23d 9fb9 0d3d 0e21 d5bb
00000390: 7a6c c9bd 5dad d53d 1360 553d aded 86bc
000003a0: 7da8 9fbd e897 52bd d7c1 d43d 58d3 9a3c
000003b0: 7990 c4bd a89c 383d 2058 eabd b31d 5dbd
000003c0: fec9 443d 510c 6cbd 03f0 d83d b3a8 7cbd
000003d0: 0304 823d 2aee 63bd 0740 91bd 3996 933d
000003e0: 0c95 f8bd 22b0 d8bd 356e 15bd a249 b4bd
000003f0: ac10 71bc 9714 223c 780a c03d 83ce e0bd
