checkpoints/xvad_epoch_1.pth (torch, 340597 bytes, 23 tensors)

conv.0.weight f4 [32, 80, 3]
0	0xbd90d925	-0.07072667
1	0x39c1c5af	0.00036959114
2	0xbb85e98d	-0.0040866793
3	0xbd01acdf	-0.031659003
4	0xbcc78dff	-0.024359701
5	0xbc6faa98	-0.014628075
6	0xbc4bc697	-0.012437484
7	0x3d824d23	0.06362369
8	0xbd835130	-0.0641197
9	0xbd50d6d7	-0.050986137
10	0x3d196d5e	0.037457816
11	0x3cde0117	0.027100129
12	0x3d3d1685	0.046164054
13	0x3d300824	0.042976514
14	0xbcef76da	-0.029231478
15	0xbd7dbe43	-0.061949026
16	0x3b14618d	0.0022641153
17	0x3d19c83e	0.03754448
18	0xbb1560d1	-0.0022793303
19	0x3cffca2f	0.031224338
20	0xbc54e0c3	-0.0129930405
21	0xbd176229	-0.036958847
22	0xbccefb14	-0.025266208
23	0x3c9c23a2	0.01905996
24	0x3ce401e8	0.02783294
25	0x3cbb00ca	0.022827525
26	0x3ca776a4	0.020442314
27	0xbd362e26	-0.044477604
28	0xbba9d507	-0.0051828655
29	0xbd2d32a8	-0.042284638
30	0xbcd63f67	-0.02615328
31	0x3b9c90bc	0.004777996
32	0xbca4361d	-0.020045334
33	0xbc8af3a6	-0.016961884
34	0xbd5c6d52	-0.053815193
35	0x3d45e6e3	0.048315894
36	0x3d774194	0.060365275
37	0x3d8e7e00	0.06957626
38	0x3d27b4c9	0.040943895
39	0x3ce546b6	0.02798782
40	0x3d6d744c	0.057972237
41	0xbd5347e5	-0.051582236
42	0x3d913743	0.070906185
43	0x3d46cdbf	0.04853606
44	0xbc84b674	-0.016200282
45	0x3c7c2d09	0.015391597
46	0x3d4d427e	0.05011224
47	0xbd4299e1	-0.04751003
48	0x3d3200bc	0.04345773
49	0xbd3dccb0	-0.046337783
50	0x3d11652d	0.03549688
51	0xbd1e5a3f	-0.038660284
52	0xbbe616ec	-0.0070217755
53	0xbcb58b0d	-0.022161031
54	0x3b88ba5b	0.004172606
55	0x3d688534	0.056767657
56	0xbcf26d34	-0.029593088
57	0x3c1ce7de	0.009576766
58	0x3d808172	0.0627469
59	0xbcfdb79c	-0.03097134
60	0xbcc151a2	-0.023598496
61	0x3d2eafa1	0.04264796
62	0x3d80754f	0.06272375
63	0x3c1bd23d	0.009510574
64	0xbd468be7	-0.048473265
65	0xbcb9ff42	-0.022704724
66	0xbd6aa9a5	-0.057290692
67	0x3ba7781d	0.005110754
68	0x3b5f8d77	0.003411142
69	0xbd65e0c1	-0.056122545
70	0xbd0520c0	-0.032501936
71	0x3d44eba2	0.04807628
72	0xbd137318	-0.035998434
73	0xbd3e9cc1	-0.04653621
74	0x3d0a079c	0.033698663
75	0xbd207f65	-0.039183993
76	0xbd778027	-0.06042495
77	0xbcd53c4e	-0.026029732
78	0xbbe78a5b	-0.007066054
79	0xb9bb878c	-0.0003576841
80	0x3b8c9ec3	0.004291387
81	0x3d28015a	0.041016914
82	0x3d8a9d9a	0.06768341
83	0x3ce1dd30	0.02757129
84	0x3d227e27	0.03967109
85	0x3d8535d6	0.06504409
86	0xbcf51464	-0.02991695
87	0xbd7bb5ce	-0.06145268
88	0x3b97101c	0.0046100747
89	0xbd442410	-0.047885954
90	0x3ad07c97	0.0015906271
91	0xbd4da16e	-0.05020278
92	0x3d20f204	0.039293304
93	0x3c0d5721	0.00862673
94	0x3cff0c34	0.031133749
95	0x3c94412c	0.018097483
96	0xbba9797b	-0.0051719523
97	0xbd3351fe	-0.043779366
98	0x3d327d10	0.0435763
99	0x3d6bc78d	0.057563353
100	0x3d6342df	0.055483695
101	0x3ce5c86d	0.028049672
102	0xbd5f7da6	-0.054563187
103	0x3c5b7126	0.013393676
104	0xbcdcf087	-0.026970161
105	0xbd1a48cc	-0.03766708
106	0x3c3d13c4	0.011540357
107	0xbadf3e6a	-0.0017032151
108	0xbd829b15	-0.06377236
109	0xbd8a7449	-0.06760461
110	0x3d466135	0.048432548
111	0xbc11b678	-0.008893602
112	0xbd28d3fc	-0.04121779
113	0xbc92a58b	-0.017901203
114	0xbccb323c	-0.024804227
115	0x3c3136a2	0.010816248
116	0xbc68cbf9	-0.014208787
117	0x3d08b54e	0.03337603
118	0xbd7f3b09	-0.06231216
119	0x3d44c191	0.04803616
120	0x3cc5373f	0.024074195
121	0xbc8e07c4	-0.017337687
122	0xbcc7228d	-0.024308467
123	0xbd8733c7	-0.066016726
124	0xbd895802	-0.06706239
125	0x3ce16431	0.027513595
126	0x3caff174	0.021477439
127	0xbcd8b031	-0.026451202
128	0x3d5232b6	0.051317893
129	0x3ca0d074	0.019630648
130	0xbc989ae8	-0.018628553
131	0xbd3efc89	-0.046627555
132	0xbd02d810	-0.031944335
133	0xbc9853ad	-0.018594587
134	0x3d1b468d	0.03790908
135	0xbd0a0215	-0.03369339
136	0xba97e2f6	-0.0011588025
137	0xbd44be89	-0.04803327
138	0xbd45f98f	-0.0483337
139	0xbc85bab7	-0.016324384
140	0xbc55c493	-0.013047355
141	0x3b3838cb	0.0028110023
142	0xbd452871	-0.04813427
143	0xbca3e117	-0.020004792
144	0x3cc4e8be	0.024036761
145	0xb958c52b	-0.00020672816
146	0x3d7d31cf	0.06181508
147	0x3cc42092	0.023941312
148	0xbd559094	-0.052139834
149	0x3cd2d8d9	0.025738167
150	0x3b030dc0	0.001999721
151	0x3d1b21b0	0.037873924
152	0xbd0544e6	-0.03253641
153	0x3d286fd6	0.04112228
154	0xbd34f3dc	-0.044177875
155	0x3d86edad	0.06588302
156	0xbcdc0a92	-0.026860509
157	0x3c224204	0.009903435
158	0xbc05edd3	-0.0081743775
159	0x3cbca285	0.023026714
160	0xbcdeb85a	-0.027187515
161	0x3d24ba9a	0.04021702
162	0xbd92d086	-0.07168679
163	0xbcc3e541	-0.023913028
164	0xbd5a6ebf	-0.053328272
165	0x3d8a1367	0.06741982
166	0xbcfc8b03	-0.030828005
167	0x3d14e2e1	0.03634918
168	0xbd8e832f	-0.06958615
169	0x3d83510a	0.06411941
170	0x3d00c8c3	0.03144146
171	0x3cb83fc0	0.022491336
172	0x3d028577	0.031865563
173	0x3cd09e7c	0.025466196
174	0x3d54b823	0.05193342
175	0xbbed242d	-0.0072369785
176	0x3cea1fae	0.02857956
177	0xbd80fc5e	-0.06298135
178	0x3d17074f	0.036872204
179	0x3d2a5742	0.04158712
180	0xbc9e88f5	-0.019352416
181	0x3d34686b	0.044044893
182	0x3d722b28	0.05912319
183	0x3becf470	0.0072312877
184	0xbc063b4c	-0.008192848
185	0x3d0b9381	0.034076218
186	0xbcdf2c4f	-0.027242808
187	0xbb5732ae	-0.0032836604
188	0x3d5d2da9	0.053998623
189	0x3d17f988	0.037103206
190	0x3b9dfe1a	0.004821551
191	0xbd8b3568	-0.06797296
192	0x3d14225c	0.03616558
193	0xbc3f128c	-0.011662137
194	0xbd1fa6f5	-0.038977582
195	0x3c2df10a	0.01061655
196	0x3d19ef0c	0.03758149
197	0xbcadcc83	-0.021215683
198	0xbd29a1c7	-0.04141405
199	0xbcb352e5	-0.021890113
200	0x3cd68905	0.026188383
201	0xbd2e0670	-0.042486608
202	0xbd881fb3	-0.06646671
203	0xbd1e425f	-0.038637515
204	0x3d3431e4	0.043992892
205	0xbd3abd01	-0.045590404
206	0x3d413740	0.04717183
207	0x3d8690f5	0.06570617
208	0x3d2272d1	0.03966028
209	0xbd8919a8	-0.06694347
210	0xbc3ae7af	-0.011407777
211	0xbd8b3b1f	-0.06798386
212	0x3c3150dd	0.010822502
213	0x3c49fb0d	0.012327922
214	0xb9f6ce81	-0.00047074634
215	0xbd1bc337	-0.03802797
216	0xbd34263e	-0.043981783
217	0x3c906b65	0.017629335
218	0xbc617cf7	-0.013762704
219	0xbb18a97d	-0.0023294382
220	0xbd7f22a6	-0.062288903
221	0xbc675df7	-0.014121524
222	0xbd124689	-0.0357118
223	0xbc593502	-0.013257267
224	0xbc501282	-0.012699725
225	0xbcf2dde8	-0.029646829
226	0x3d5d4b26	0.054026745
227	0xbcf5c6ae	-0.030001964
228	0x3c335eb8	0.010947876
229	0xbca1c620	-0.019747794
230	0x3d619991	0.055078093
231	0xbd7ce785	-0.06174423
232	0x3c725b97	0.0147923445
233	0xbd9022ef	-0.07037913
234	0x3d4118d5	0.047142822
235	0xbc500e10	-0.012698665
236	0x3ca7b328	0.02047117
237	0xbcb49fbc	-0.022048824
238	0xbd02d1f3	-0.031938504
239	0xbcffc3f4	-0.031221367
240	0x3ca5b371	0.020227166
241	0x3cc8ce37	0.024512393
242	0xbd085f7b	-0.033294182
243	0x3d0ef172	0.03489823
244	0x3c12306c	0.0089226775
245	0x3d6e485e	0.058174483
246	0xbd52f8a9	-0.051506672
247	0xbd58d959	-0.052941654
248	0x3d352631	0.044225875
249	0xbc8f3049	-0.017479079
250	0x3d428b58	0.04749617
251	0xbd42e4d9	-0.047581527
252	0xbd31e13a	-0.043427683
253	0x3c9968cf	0.018726734
254	0x3d344887	0.04401448
255	0x3b861cfc	0.0040928107

conv.0.bias f4 [32]
0	0x3d4411ef	0.047868665
1	0x3d828f18	0.06374949
2	0x3cf6ea43	0.030141002
3	0x3d2d3c95	0.042294104
4	0x3d5f337b	0.054492455
5	0x3d8349c6	0.064105555
6	0xbd41551f	-0.04720032
7	0xbd0468b6	-0.032326423
8	0xbd6af457	-0.057361927
9	0xbd805d01	-0.06267739
10	0x3d7badef	0.061445173
11	0x3d77eacb	0.06052665
12	0xbd538497	-0.05164012
13	0x3d763dcf	0.06011754
14	0x3c2fd570	0.01073204
15	0xbc4af6ea	-0.01238797
16	0xbd0bb001	-0.034103397
17	0xbd50134e	-0.05079966
18	0x3d105c16	0.03524407
19	0xbd7a530d	-0.06111436
20	0xbc4d0e14	-0.0125155635
21	0xbcaada26	-0.020855974
22	0xbd0c2e12	-0.034223624
23	0x3d830245	0.06396917
24	0xbd7d1888	-0.061790973
25	0x3d06e973	0.03293748
26	0xbd5257a3	-0.05135311
27	0x3cf1d53c	0.029520623
28	0xbb7ed64a	-0.003888505
29	0x3d268886	0.040657543
30	0xbc700bc6	-0.0146512445
31	0xbc8ebc7f	-0.017423866

conv.1.weight f4 [32]
0	0x3f804f95	1.0024287
1	0x3f8031ca	1.0015194
2	0x3f808f90	1.0043812
3	0x3f7eb63b	0.9949681
4	0x3f80dc50	1.0067234
5	0x3f80b935	1.0056521
6	0x3f7f56e3	0.99741954
7	0x3f80f9ab	1.0076193
8	0x3f80046b	1.0001348
9	0x3f806b95	1.0032831
10	0x3f806c38	1.0033026
11	0x3f7e6c5e	0.99384105
12	0x3f818b39	1.0120612
13	0x3f7e83b8	0.99419737
14	0x3f7e7c21	0.99408156
15	0x3f7facbd	0.9987295
16	0x3f7ece14	0.995332
17	0x3f80aa15	1.0051905
18	0x3f7f33b2	0.99688256
19	0x3f7f265b	0.996679
20	0x3f806439	1.0030586
21	0x3f7eec5d	0.9957941
22	0x3f7f97c1	0.99840933
23	0x3f7fbc56	0.9989675
24	0x3f811a7a	1.0086205
25	0x3f81cce1	1.0140649
26	0x3f7cbbe7	0.98724216
27	0x3f7cde71	0.9877692
28	0x3f7f1e94	0.99656034
29	0x3f8047bd	1.0021893
30	0x3f7fe0f2	0.99952614
31	0x3f7e0b48	0.99235964

conv.1.bias f4 [32]
0	0xbbad4601	-0.005287886
1	0xbb89847e	-0.0041967025
2	0xbabc9f53	-0.0014390744
3	0xbb8f3a35	-0.0043709525
4	0x39bfb1b8	0.0003656277
5	0xb98fc49f	-0.0002742158
6	0xb9c25b9d	-0.0003707082
7	0x3ba1cc82	0.0049377093
8	0x3b5c5109	0.0033617637
9	0xb947f822	-0.00019070556
10	0x3aec2d0f	0.00180188
11	0xbc0f9019	-0.008762383
12	0x3c4a9581	0.012364746
13	0xbb08e79e	-0.0020890008
14	0xbc1292f9	-0.008946174
15	0xbb94203c	-0.004520444
16	0xbbb4b514	-0.0055147503
17	0x3ae58219	0.0017510086
18	0xbbab5c2d	-0.005229494
19	0x3bbd3953	0.005774656
20	0x3aec9059	0.001804839
21	0xbca44dfb	-0.020056715
22	0xbb206ce2	-0.0024478962
23	0x3a234384	0.0006228017
24	0xba71be10	-0.0009221742
25	0xbacf9afe	-0.0015839038
26	0xbbbca2c9	-0.00575671
27	0xbbd37017	-0.006452571
28	0x3b1b624f	0.002370972
29	0x3a593138	0.0008285227
30	0xbbb3c0da	-0.005485636
31	0xbaf1ef74	-0.0018458203

conv.1.running_mean f4 [32]
0	0x3d3b3c37	0.045711722
1	0x3d833318	0.0640623
2	0x3cf60b42	0.030034665
3	0x3d209d37	0.03921243
4	0x3d4ade29	0.049528275
5	0x3d82d3d1	0.06388057
6	0xbd3f883c	-0.046760783
7	0xbce55473	-0.02799437
8	0xbd60d2b8	-0.054888457
9	0xbd81cbda	-0.0633771
10	0x3d773b94	0.060359553
11	0x3d7a39bd	0.06109022
12	0xbd47fbf0	-0.04882425
13	0x3d660f13	0.05616672
14	0x3c0d9cec	0.00864337
15	0xbc65e0cc	-0.0140306465
16	0xbd024f85	-0.031814117
17	0xbd41e0b7	-0.047333445
18	0x3d1187be	0.035529844
19	0xbd614b40	-0.055003405
20	0xbc3fc16e	-0.011703832
21	0xbc911551	-0.01771036
22	0xbd09ee25	-0.033674378
23	0x3d7d461d	0.061834443
24	0xbd7c2201	-0.061555866
25	0x3ceb4296	0.028718274
26	0xbd44da93	-0.04806001
27	0x3cebe6d0	0.028796583
28	0xbb6a581c	-0.0035758084
29	0x3d1e0597	0.03857955
30	0xbc7c21c7	-0.0153889125
31	0xbc44dd55	-0.01201566

conv.1.running_var f4 [32]
0	0x3ec088e4	0.3760444
1	0x3eb5e709	0.35527828
2	0x3ec15b1e	0.3776483
3	0x3eb9d708	0.36296868
4	0x3eb3fa5a	0.3515194
5	0x3ebd3f2c	0.3696226
6	0x3ebb61da	0.36598092
7	0x3ed162ee	0.4089579
8	0x3ec5cd64	0.38633263
9	0x3eb58b2b	0.3545774
10	0x3eb982b5	0.36232534
11	0x3eb8f84f	0.36126944
12	0x3eb818b9	0.35956362
13	0x3eb92762	0.3616286
14	0x3ec63005	0.3870851
15	0x3ec47d54	0.38376868
16	0x3eb20f0b	0.34777102
17	0x3ead36fe	0.33831018
18	0x3eb2abcc	0.34896696
19	0x3eb73853	0.3578516
20	0x3eab3f3b	0.3344668
21	0x3ebe9b2e	0.37227768
22	0x3eb54258	0.3540218
23	0x3ecd9ec6	0.40160197
24	0x3ec0d70a	0.37664062
25	0x3eb1194c	0.34589612
26	0x3eae890b	0.3408893
27	0x3ead85ed	0.3389124
28	0x3ebd3713	0.3695608
29	0x3eb76018	0.358155
30	0x3eba35cc	0.3636917
31	0x3eb7d35a	0.35903436

conv.4.weight f4 [64, 32, 3]
0	0xbb29a021	-0.0025882798
1	0xbd88feee	-0.06689249
2	0x3dbc721c	0.09201452
3	0xbd20e387	-0.039279487
4	0x3daac67d	0.0833864
5	0x3d9be19d	0.07611392
6	0xbd40e025	-0.04708876
7	0xbd96b4d6	-0.073587105
8	0x3da91087	0.082551055
9	0x3d3a8035	0.045532424
10	0x3d7147be	0.05890631
11	0x3d83eb2e	0.06441341
12	0x3db1d042	0.086823
13	0x3d4f2b5d	0.050578464
14	0x3d9c1f81	0.076231964
15	0xbd886825	-0.06660489
16	0xbd59097b	-0.052987557
17	0xbbbd9176	-0.0057851626
18	0xbd94c70b	-0.07264527
19	0xbc637f31	-0.013885305
20	0x3da3c307	0.07996183
21	0xbd0894a8	-0.033344895
22	0xbd9cb955	-0.07652537
23	0xbcacdaff	-0.02110052
24	0xbd8b3085	-0.06796364
25	0x3d8d071f	0.06886124
26	0xbccdd827	-0.025127484
27	0x3bf3790e	0.0074302023
28	0x3c9707da	0.018436361
29	0x39eba0ae	0.0004494241
30	0x3c269f92	0.01016988
31	0x3db7748c	0.089577764
32	0xbd5d9262	-0.05409468
33	0x3d6a14cf	0.05714875
34	0x3da0e563	0.07856252
35	0x3c6513ce	0.013981773
36	0xbdbca20d	-0.09210596
37	0xbd2e9753	-0.042624783
38	0x3d3eaec0	0.046553373
39	0xbd3b4edb	-0.0457295
40	0xb9ad6a34	-0.0003307626
41	0xbd27a5d5	-0.040929634
42	0x3d492abc	0.04911302
43	0x3d863578	0.06553167
44	0x3d91823b	0.071049176
45	0x3cdabbc3	0.02670086
46	0x3d950204	0.07275775
47	0x3d353e77	0.044249024
48	0xbd1afe6d	-0.037840296
49	0x3d380e30	0.044935405
50	0xbcdd208b	-0.026993057
51	0x3dc2ced2	0.09512104
52	0xbdbad689	-0.091229506
53	0xbd60654f	-0.054784115
54	0x3d23c353	0.039981198
55	0xbcb59141	-0.022163989
56	0x3d0ca30a	0.034335174
57	0xbdb7bd28	-0.089716256
58	0xbc281992	-0.010260003
59	0x3d44e237	0.048067298
60	0x3db4244a	0.08795984
61	0xbd9b53a2	-0.07584311
62	0x3d9d340b	0.07675942
63	0x3bcafcc4	0.006194683
64	0xbdbc1894	-0.091843754
65	0x3dc596fd	0.09647939
66	0x3d9cb379	0.07651419
67	0xbcdfef30	-0.027335733
68	0xbd834082	-0.06408788
69	0x3d79764f	0.060903843
70	0xbd8f4ba4	-0.06996849
71	0xbd152a33	-0.036417197
72	0xbcdc991b	-0.026928475
73	0x3c431d23	0.011908802
74	0x3d391543	0.045186292
75	0xbd3c81dc	-0.04602228
76	0x3dae54ff	0.085123055
77	0x3dadf407	0.0849381
78	0xbcc43c37	-0.023954494
79	0x3d987301	0.0744381
80	0x3d143395	0.036182005
81	0xbd5511be	-0.052018873
82	0xbdc1bd04	-0.0945988
83	0x3dbd502d	0.09243808
84	0x3d4f0ed1	0.05055124
85	0x3cd9e55e	0.026598629
86	0x3c88a48f	0.01668003
87	0x3d96b250	0.07358229
88	0x3d3b769b	0.045767408
89	0xbd526b8d	-0.0513721
90	0x3d93a6af	0.07209527
91	0x3dbc7c0a	0.09203346
92	0xbce2b525	-0.027674267
93	0xbc80ddc2	-0.015730742
94	0x3ce77344	0.028253205
95	0xbcfe6b03	-0.031056887
96	0xbcde20a8	-0.027115181
97	0x3da66c94	0.081261784
98	0x3c9ed533	0.01938877
99	0xbc636ca3	-0.0138808815
100	0xbcc8abf6	-0.02449606
101	0x3d88975a	0.06669493
102	0x3b3054de	0.0026906054
103	0x3d9439f1	0.07237614
104	0x3baf68b3	0.0053530573
105	0x3c632bb7	0.013865403
106	0x3dce7c72	0.1008233
107	0x3cbd5006	0.023109447
108	0x3d257e03	0.040403377
109	0x3d57250d	0.05252557
110	0x3daba4d5	0.083810486
111	0x3dc5fc2d	0.09667239
112	0xbd3153ec	-0.043292925
113	0x3d481982	0.04885245
114	0xbd4051ea	-0.04695312
115	0xbd78a743	-0.06070639
116	0xbd19642d	-0.03744905
117	0x3d8ae7e4	0.06782511
118	0xbdb36898	-0.08760184
119	0x3c152df6	0.009105196
120	0x3da0b3ec	0.078468174
121	0x3d984a42	0.074360386
122	0xbd531652	-0.05153496
123	0x3d65b058	0.056076378
124	0x3d87bf54	0.0662829
125	0xbd059982	-0.0326171
126	0x3d1e8c98	0.0387083
127	0xbd7598d5	-0.059960205
128	0x3d5aa9d3	0.053384613
129	0xbd458e8c	-0.048231646
130	0xbda41cf9	-0.080133386
131	0x3cab03ad	0.020875776
132	0x3ced4552	0.028963719
133	0x3c9cbfda	0.01913445
134	0x3d2e2859	0.042518947
135	0x3d546b76	0.051860295
136	0xbd9d8438	-0.07691234
137	0x3da8d203	0.082431816
138	0xbd6fcb88	-0.058543712
139	0x3dc377d5	0.095443405
140	0x3dad55f4	0.0846366
141	0xbcae5b12	-0.02128366
142	0xbd432835	-0.047645766
143	0xbcd3c48a	-0.025850553
144	0x3d0fc58d	0.03510051
145	0x3d122264	0.03567733
146	0x3d88bacc	0.06676254
147	0x3a4bd8dc	0.000777615
148	0xbdc0abfd	-0.09407804
149	0x3ce18470	0.027528971
150	0x3c3ac5ad	0.011399669
151	0x3c7b5b00	0.01534152
152	0xbdb9d070	-0.090729594
153	0x3d883390	0.0665046
154	0x3d182909	0.03714851
155	0xbd0d4fcf	-0.03449994
156	0xbc887fbd	-0.016662473
157	0xbda6c694	-0.081433445
158	0xbd670652	-0.056402512
159	0xbd99f1c1	-0.07516814
160	0x3d19dad3	0.037562203
161	0xbd1bc51a	-0.038029768
162	0xbbdc42b3	-0.0067218184
163	0xbb15eaf3	-0.0022875636
164	0xbd5bec47	-0.05369213
165	0xbd7b749d	-0.061390508
166	0xbc8361c3	-0.016037827
167	0x3d59b90b	0.053154986
168	0xbc088cbc	-0.008334335
169	0xbdba3701	-0.090925224
170	0xbd4a3f61	-0.04937685
171	0xbd8d4a2d	-0.068989135
172	0xbd1c5c96	-0.038174234
173	0x3dad0bbb	0.08449503
174	0x3d3fc6d3	0.046820473
175	0x3d72a36c	0.059237882
176	0x3d0522dd	0.03250395
177	0xbd7af5cf	-0.061269578
178	0xbdc760b5	-0.09735242
179	0x3d99b1a1	0.07504583
180	0xbd00724b	-0.031359
181	0x3ce43c0c	0.027860664
182	0xbda1bbd5	-0.07897154
183	0x3d5e13d5	0.054218132
184	0x3cc7ea65	0.02440376
185	0xbdaff00e	-0.08590709
186	0x3d95bc0b	0.07311257
187	0xbdc8a205	-0.09796528
188	0x3da8deb7	0.082456045
189	0xbd5705ba	-0.052495696
190	0xbd286563	-0.041112315
191	0x3840935c	4.5913606e-05
192	0xbc5ea698	-0.013589524
193	0xbce35d5e	-0.027754482
194	0xbd4cfa05	-0.050043125
195	0x3d8f57dd	0.069991805
196	0xbd895243	-0.06705143
197	0x3dcd79bb	0.10032984
198	0xbcc5c104	-0.024139889
199	0x3d8a5164	0.06753805
200	0x3d5e1815	0.054222185
201	0x3da41ed2	0.08013691
202	0x3dcab515	0.0989782
203	0xbc7fdf48	-0.015617199
204	0x3d9d994f	0.07695257
205	0xbd867c6d	-0.06566701
206	0x3d18acf6	0.037274323
207	0xbcca6551	-0.024706515
208	0x3d859c95	0.06524006
209	0xbd80a933	-0.06282272
210	0x3d8dc4fd	0.06922338
211	0x3dcdc903	0.100481056
212	0xbb74e238	-0.0037366282
213	0x3b393b47	0.0028264092
214	0xbdb3de4e	-0.08782636
215	0xbc8c05fb	-0.017092695
216	0xbb9d40de	-0.0047989925
217	0x3d889de8	0.06670743
218	0xbc030515	-0.007996817
219	0xbdc8578d	-0.09782324
220	0xbdc21c44	-0.094780475
221	0x3d4c8bb1	0.049937908
222	0x3db8fff0	0.09033191
223	0xbd2b2c3e	-0.04179024
224	0xbd9d1ba7	-0.0767129
225	0x3d356c11	0.044292513
226	0x3dcd7ee4	0.10033968
227	0xbd98a49e	-0.07453273
228	0xbd24d946	-0.04024627
229	0xbd1fa314	-0.038973883
230	0xbc1e79c4	-0.009672586
231	0x3d9692f0	0.07352245
232	0xbcf436de	-0.029811319
233	0x3cdefd86	0.027220499
234	0x3d6c5393	0.05769689
235	0x3d99806f	0.074952
236	0x3dbea969	0.09309656
237	0xbca7178c	-0.02039697
238	0xbdb4acee	-0.08822046
239	0x3d8e9646	0.06962256
240	0x3dae3604	0.085063964
241	0x3c7fb340	0.015606701
242	0xbd9ddc64	-0.07708052
243	0xbcf1a084	-0.029495485
244	0xbdd0a630	-0.10187948
245	0x3c306416	0.01076605
246	0xbd5feb03	-0.054667484
247	0xbdb617ab	-0.08891233
248	0xbd0f54d1	-0.034992997
249	0xbccafdb6	-0.024779182
250	0x3d8943bc	0.067023724
251	0x3b1bb025	0.0023756113
252	0xbcff0074	-0.031128146
253	0x3db2296b	0.08699306
254	0x3d8fc135	0.07019273
255	0x3d847ae2	0.064687505

conv.4.bias f4 [64]
0	0x3d9eafda	0.07748385
1	0xbd0d481f	-0.03449261
2	0xbc7ad7e0	-0.015310258
3	0xbd882356	-0.06647365
4	0x3d754881	0.0598836
5	0x3d9ec582	0.077525154
6	0x3d64e29c	0.055880174
7	0x3dc76896	0.09736745
8	0x3d995c3e	0.07488297
9	0x3d95ef3a	0.073210195
10	0xbb3f6a08	-0.0029207487
11	0xbdbc8a31	-0.092060454
12	0x3d1427bd	0.03617071
13	0x3b9ac713	0.0047234385
14	0x3d707a88	0.058710605
15	0xbd91cb30	-0.07118833
16	0xbd54c67f	-0.051947113
17	0xb9dfd730	-0.00042694202
18	0x3d43f153	0.047837567
19	0xbca51fbf	-0.02015674
20	0xbdadbde3	-0.08483484
21	0x3c0faa78	0.00876867
22	0x3d2d9689	0.04237989
23	0x3d5156d8	0.05110821
24	0x3d176bad	0.036967922
25	0x3d14c8be	0.036324255
26	0x3daa771a	0.08323498
27	0xbc6668cd	-0.014063072
28	0xbc228228	-0.009918727
29	0x3da82b33	0.082113646
30	0xbd53daee	-0.05172246
31	0x3d686c32	0.056743808
32	0xbcefd2b5	-0.029275278
33	0x3d18467c	0.037176594
34	0xbda454ca	-0.08023985
35	0x3dc196fa	0.094526246
36	0x3dbb0e09	0.09133536
37	0xbd7b49c9	-0.061349664
38	0x3daf23e0	0.085517645
39	0x3dc2353c	0.0948281
40	0x3cf52c97	0.029928489
41	0xbd033331	-0.03203124
42	0x3db1efe2	0.08688332
43	0x3c10bf36	0.008834651
44	0x3d7945c3	0.060857546
45	0xbd1a5fb9	-0.037688944
46	0xbd12eeb5	-0.03587218
47	0x3d8919a4	0.06694344
48	0xbc9d305a	-0.019188095
49	0xbba3a87b	-0.0049944497
50	0x3cbb9d73	0.022902226
51	0xbb52d5b1	-0.0032170827
52	0x3c83d1ed	0.016091311
53	0xbd7ff3e0	-0.062488437
54	0xbcee1e32	-0.029067133
55	0x3d33f36c	0.043933317
56	0x3d5669c7	0.05234697
57	0x3c6690ee	0.01407264
58	0xbdcd0abe	-0.100118145
59	0xbc2ce8da	-0.010553563
60	0x3da0c070	0.078492045
61	0x3d0845c4	0.03326966
62	0xbdbfdf5d	-0.09368775
63	0x3dc482f5	0.095952906

conv.5.weight f4 [64]
0	0x3f7eef21	0.9958363
1	0x3f7ccbdb	0.9874856
2	0x3f806eac	1.0033774
3	0x3f811881	1.0085603
4	0x3f7d99fd	0.9906309
5	0x3f8188dc	1.0119891
6	0x3f7cdd36	0.9877504
7	0x3f7debdf	0.99188036
8	0x3f81661c	1.0109286
9	0x3f814693	1.0099663
10	0x3f7f24eb	0.9966571
11	0x3f800d43	1.0004047
12	0x3f811908	1.0085764
13	0x3f7e3d13	0.9931194
14	0x3f81337e	1.0093839
15	0x3f80ca2c	1.0061698
16	0x3f80dc35	1.0067202
17	0x3f8102ad	1.0078942
18	0x3f7d1dd8	0.9887366
19	0x3f7e67dc	0.99377227
20	0x3f7c4430	0.98541546
21	0x3f7e0c45	0.9923747
22	0x3f811a4d	1.0086151
23	0x3f7d68e9	0.98988205
24	0x3f8123da	1.0089066
25	0x3f7fac2d	0.99872094
26	0x3f80d84d	1.006601
27	0x3f811872	1.0085585
28	0x3f7d6a24	0.9899008
29	0x3f811dc2	1.0087206
30	0x3f7d68aa	0.9898783
31	0x3f7d0d1f	0.98848146
32	0x3f7e941c	0.99444747
33	0x3f7dad46	0.9909252
34	0x3f80b974	1.0056596
35	0x3f807315	1.003512
36	0x3f7f9458	0.9983573
37	0x3f80e72e	1.007055
38	0x3f805392	1.0025504
39	0x3f7c4009	0.9853521
40	0x3f7c5622	0.9856893
41	0x3f7cde50	0.9877672
42	0x3f7df9e2	0.99209416
43	0x3f80997b	1.0046839
44	0x3f813fc4	1.0097585
45	0x3f812e6d	1.0092293
46	0x3f80c8a4	1.0061231
47	0x3f7d0d36	0.98848283
48	0x3f80fa77	1.0076436
49	0x3f7e5454	0.99347425
50	0x3f812edd	1.0092427
51	0x3f7c7e16	0.9862989
52	0x3f7d366e	0.9891118
53	0x3f8158c8	1.0105219
54	0x3f7d9cff	0.9906768
55	0x3f7cf3d4	0.9880955
56	0x3f804bf3	1.0023178
57	0x3f817374	1.0113358
58	0x3f7ddf38	0.9916873
59	0x3f7e48e8	0.99329996
60	0x3f80e517	1.0069913
61	0x3f7dd3bc	0.99151206
62	0x3f800347	1.0001
63	0x3f7f89e8	0.99819803

conv.5.bias f4 [64]
0	0xbbafd394	-0.0053657982
1	0xbc5f1b5c	-0.013617363
2	0x3b4327f4	0.0029778453
3	0x3c0a8268	0.008453943
4	0xbc266f6f	-0.010158404
5	0x3c1f9d9c	0.009742167
6	0xbc47f90e	-0.012205375
7	0xbc15df40	-0.009147465
8	0x3c1c7355	0.009548982
9	0x3c1399d0	0.00900884
10	0xbb81457a	-0.00394505
11	0x39eaa164	0.00044752203
12	0x3c0083f9	0.007843965
13	0xbbf7e990	-0.0075656846
14	0x3bb393b5	0.0054802545
15	0x3bf3ee43	0.0074441745
16	0x3bf1cd95	0.0073792436
17	0x3c153e94	0.009109158
18	0xbc2043ba	-0.009781772
19	0xbb8034e9	-0.0039125574
20	0xbc6ecbb1	-0.014574931
21	0xbc26482c	-0.010149043
22	0x3b9863a7	0.0046505514
23	0xbc45d997	-0.012075803
24	0x3c1a16fb	0.009404893
25	0xbb526fff	-0.0032110212
26	0x3bd6f758	0.0065602474
27	0x3c036d1f	0.008021622
28	0xbc0edb02	-0.008719208
29	0x3bf54c5c	0.0074859094
30	0xbc24cb97	-0.010058305
31	0xbc314dc2	-0.010821762
32	0xbbc94db8	-0.006143298
33	0xbc07843e	-0.008271275
34	0x3b4a7e61	0.0030898082
35	0x3b28e448	0.0025770832
36	0xbabbc086	-0.0014324344
37	0x3bd84bf3	0.0066008507
38	0x3b9a8774	0.0047158543
39	0xbc63f261	-0.013912768
40	0xbc71757a	-0.014737481
41	0xbc4b4743	-0.012407127
42	0xbc14a4fb	-0.0090725375
43	0x3ba8d77e	0.005152642
44	0x3c1e54e0	0.00966379
45	0x3c0903d7	0.008362732
46	0x3be539ed	0.0069954307
47	0xbbfeee2e	-0.007779858
48	0x3c048c2d	0.008090061
49	0xbbd566ec	-0.0065125134
50	0x3c13ac61	0.009013266
51	0xbc50c579	-0.012742394
52	0xbc3792c1	-0.011204422
53	0x3c2e5d3d	0.010642347
54	0xbc1bedc6	-0.009517139
55	0xbc435382	-0.011921765
56	0x3b800d64	0.0039078463
57	0x3c1b3fc1	0.009475649
58	0xbc121b3c	-0.008917626
59	0xbb880246	-0.0041506616
60	0x3be8ff33	0.0071105002
61	0xbbf87a9c	-0.0075829756
62	0xbaf4e0c6	-0.001868271
63	0xb9be6d85	-0.00036321222

conv.5.running_mean f4 [64]
0	0x3f390595	0.7227414
1	0x3e0695f6	0.13143143
2	0x3e6eee6b	0.23333137
3	0xbd591d40	-0.05300641
4	0x3f409a32	0.75235283
5	0x3dad3ed8	0.08459252
6	0x3f5479e8	0.82998514
7	0x3ec6b478	0.38809562
8	0x3e40b26e	0.18818066
9	0xbd9293ec	-0.0715712
10	0x3f6e61e4	0.9311812
11	0xbea08398	-0.31350398
12	0x3e4376cb	0.19088285
13	0x3e4f76a0	0.20260096
14	0xbe8be32c	-0.27321756
15	0xbe408215	-0.18799622
16	0xbf0cb4bd	-0.54963285
17	0xbe982446	-0.29715174
18	0xbe13808f	-0.1440451
19	0xbeb95d94	-0.36204207
20	0xbf166e21	-0.58761793
21	0xbef12d42	-0.4710484
22	0xbddbd0f3	-0.10733213
23	0xbe8fd63a	-0.2809313
24	0x3e74a6bb	0.23891728
25	0x3e23a2ec	0.15980119
26	0xbe0d4b9c	-0.13798374
27	0xbd1a5f5f	-0.03768861
28	0xbe9cdce8	-0.30637288
29	0x3df02e7d	0.11727617
30	0x38db9b88	0.00010471704
31	0xbe333916	-0.17502245
32	0xbf7bd50a	-0.98371947
33	0xbf2e6850	-0.6812792
34	0x3d576cae	0.05259388
35	0x3f1356be	0.57554233
36	0x3e1f594d	0.1556141
37	0x3e4097df	0.18807934
38	0x3dd4b752	0.10386528
39	0x3e5db31c	0.21650356
40	0xbdec954e	-0.11551915
41	0xbf09cf96	-0.53832376
42	0xbe5a710f	-0.21332191
43	0xbc837be5	-0.016050288
44	0x3eded966	0.43525237
45	0xbee31183	-0.44349298
46	0x3e8a45fe	0.27006525
47	0xbda41836	-0.0801243
48	0xbe0bb8b8	-0.13644683
49	0xbdaaa703	-0.08332636
50	0xbecd73b1	-0.40127328
51	0xbe8f920f	-0.2804112
52	0xbe6de52c	-0.23231953
53	0xbdf2e04d	-0.11859188
54	0x3ec7d1e8	0.39027333
55	0xbe7e2bec	-0.24821442
56	0x3e85878a	0.2607997
57	0xbd02a34a	-0.031894006
58	0xbf056e1f	-0.52121156
59	0xbed0aa0d	-0.40754738
60	0x3f1c62b7	0.61088127
61	0x3ed770c4	0.4207822
62	0xbedfa0af	-0.4367728
63	0x3db58216	0.088627025

conv.5.running_var f4 [64]
0	0x3e3fe300	0.18738937
1	0x3e1ed9ae	0.15512726
2	0x3e47347f	0.1945362
3	0x3e2e0521	0.16994144
4	0x3e1f7db7	0.155753
5	0x3e500a25	0.2031637
6	0x3e3d7665	0.18502195
7	0x3e443e3d	0.19164367
8	0x3e467f16	0.19384417
9	0x3e5c85e6	0.21535453
10	0x3e3fac5c	0.18718094
11	0x3e19f2f6	0.15034088
12	0x3e3f773c	0.18697828
13	0x3e500b0b	0.20316713
14	0x3e2ecca5	0.17070253
15	0x3e46aa4f	0.19400905
16	0x3e36753e	0.17818162
17	0x3e49ade5	0.19695242
18	0x3e3ccceb	0.18437545
19	0x3e4a1bde	0.19737193
20	0x3e2e90a8	0.1704737
21	0x3e39fb5b	0.18162291
22	0x3e3388ba	0.17532626
23	0x3e415496	0.18879923
24	0x3e3933d1	0.18086173
25	0x3e1748ce	0.14773867
26	0x3e27754f	0.16353343
27	0x3e121bec	0.14268464
28	0x3e46a6b4	0.1939953
29	0x3e35054c	0.17677802
30	0x3e3c13d7	0.18366943
31	0x3e34a165	0.17639692
32	0x3e32c0bd	0.17456336
33	0x3e2c8a79	0.16849698
34	0x3e354931	0.17703702
35	0x3e4261ec	0.18982667
36	0x3e36953e	0.17830369
37	0x3e30dd9a	0.17272034
38	0x3e43d8bc	0.19125646
39	0x3e464483	0.19362073
40	0x3e345642	0.1761103
41	0x3e58b83d	0.21164031
42	0x3e47c3ad	0.19508238
43	0x3e2b7009	0.16741957
44	0x3e253906	0.16135034
45	0x3e47e011	0.19519068
46	0x3e2c8092	0.1684592
47	0x3e37547b	0.1790332
48	0x3e35853a	0.17726603
49	0x3e3c1965	0.18369062
50	0x3e459593	0.1929534
51	0x3e2787db	0.16360418
52	0x3e318e16	0.17339358
53	0x3e36905c	0.17828506
54	0x3e2c3592	0.1681731
55	0x3e4a2bed	0.19743319
56	0x3e36982d	0.17831488
57	0x3e1d8f7c	0.15386766
58	0x3e2a0c5b	0.16606276
59	0x3e407730	0.18795466
60	0x3e35f91f	0.17770813
61	0x3e354f01	0.17705919
62	0x3e4b91a3	0.19879775
63	0x3e43a110	0.19104409

lstm.weight_ih_l0 f4 [256, 64]
0	0x3d138b72	0.036021657
1	0xbcfe04d8	-0.031008169
2	0x3d3e776a	0.0465006
3	0x3d834f3a	0.06411596
4	0xbd2194be	-0.039448492
5	0xbd8e7d0b	-0.06957444
6	0x3dcc8fc1	0.099883564
7	0x3becea41	0.0072300737
8	0x3d2b299e	0.041787736
9	0xbdf3c2ee	-0.11902414
10	0xbbfe439d	-0.007759525
11	0x3d8445a6	0.06458597
12	0x3caee279	0.021348225
13	0xbcaf2352	-0.021379147
14	0x3dd0c183	0.101931594
15	0x3d2eb180	0.042649746
16	0xbd9468d7	-0.07246559
17	0x3d66a15a	0.05630622
18	0xbdd73974	-0.10509005
19	0xbcb57f0d	-0.02215531
20	0xbd209bf7	-0.03921124
21	0xbc94cfc1	-0.018165471
22	0xbcf12073	-0.029434418
23	0x3db6a965	0.08919028
24	0x3dc697e1	0.09696937
25	0x3cf73b7c	0.030179732
26	0x3c225956	0.009908995
27	0x3dcc0a64	0.09962919
28	0x3dd24382	0.10266782
29	0xbd4bb7f4	-0.04973598
30	0x3db3272a	0.08747704
31	0xbda33669	-0.07969362
32	0xbcccbd2a	-0.024992544
33	0xbd2f847f	-0.042850967
34	0xbd2a4539	-0.041569922
35	0xbdab7e24	-0.08373669
36	0x3d8482b9	0.06470246
37	0x3db235ef	0.08701693
38	0xbcf84877	-0.030307991
39	0x3c348959	0.011019074
40	0x3da86501	0.0822239
41	0xbe038e97	-0.12847362
42	0xbd97e010	-0.074157834
43	0xbda7146a	-0.081581905
44	0xbdb75879	-0.08952422
45	0xbc9b88fa	-0.018986214
46	0x3d14737d	0.03624295
47	0xbd1a1851	-0.037620846
48	0x3d2cf6d4	0.04222758
49	0x3d95acc6	0.073083445
50	0x3db765c5	0.08954958
51	0xbdc14e90	-0.09438813
52	0xbdd38eed	-0.10329995
53	0x3d63ed90	0.05564648
54	0xbdde19f7	-0.10844796
55	0xbd49a6fe	-0.04923152
56	0xbb9ec538	-0.0048452877
57	0xbd2e1960	-0.04250467
58	0x3c9f5679	0.019450413
59	0x3dbc048a	0.09180553
60	0x3bf783bb	0.0075535453
61	0x3d919211	0.07107938
62	0xbcbb08dc	-0.022831373
63	0x3dd40d6a	0.10354121
64	0xbd894c08	-0.06703955
65	0x3da75707	0.08170896
66	0x3dfc029f	0.123051874
67	0x3d5cd184	0.053910747
68	0xbd610be0	-0.054942966
69	0x3dc29406	0.095008895
70	0xbde8a780	-0.11360073
71	0x3e01a3dc	0.12660164
72	0x3d3bb404	0.045825973
73	0xbd2baf28	-0.04191509
74	0xbded34a1	-0.11582304
75	0x3d175e0a	0.036954917
76	0x3cb4b19a	0.022057343
77	0x3dd6cf47	0.10488754
78	0x3e013f73	0.1262186
79	0xbc2a9fd8	-0.010414086
80	0x3df0ff15	0.11767403
81	0x3cd0da5d	0.025494749
82	0xbb04b408	-0.0020248909
83	0x3dc5e358	0.09662503
84	0xbdc34be4	-0.09535959
85	0x3d174847	0.036934163
86	0xbdc16e69	-0.09444887
87	0x3d6adbb9	0.05733845
88	0xbdeb25a1	-0.114817865
89	0xbd850cea	-0.06496604
90	0xbcd33e90	-0.025786668
91	0x3de73867	0.11290055
92	0x3db5c607	0.08875661
93	0x3c91dd0a	0.017805595
94	0x3dba3930	0.09092939
95	0x3d18baca	0.03728751
96	0xbdaca86c	-0.084305614
97	0xbca8b822	-0.020595614
98	0xbd304f67	-0.043044474
99	0x3dfa112d	0.12210307
100	0xbc803814	-0.01565174
101	0xbdb0580a	-0.08610542
102	0xbc056d99	-0.008143806
103	0x3df8a376	0.12140553
104	0x3d98a937	0.0745415
105	0xbdbb92f5	-0.09158889
106	0xbd059d51	-0.03262073
107	0x3da4e0b2	0.0805067
108	0xbd9e826c	-0.0773972
109	0xbd1ba3f3	-0.03799815
110	0x3c8a00e6	0.016846132
111	0xbc8587db	-0.016300132
112	0x3d01d9f1	0.031701986
113	0xbdb07849	-0.086166926
114	0x3dd9f503	0.106424354
115	0x3de036e5	0.1094797
116	0xbd2829d0	-0.0410555
117	0x3daf8d7a	0.085719064
118	0x3cbb9956	0.022900265
119	0x3b72e39f	0.0037061942
120	0x3d96b9e9	0.07359678
121	0x3d16c81d	0.036811937
122	0xbdcf8e7e	-0.101346
123	0x3b4dd8c6	0.0031409725
124	0xbd0d7578	-0.034535855
125	0x3803f004	3.1456366e-05
126	0x3d925536	0.07145159
127	0x3d99d047	0.07510429
128	0x3ddc1c47	0.10747581
129	0x3d545bfe	0.051845543
130	0xbd0123c1	-0.03152824
131	0x3dbaa7d2	0.091140404
132	0xbd8c8b16	-0.06862466
133	0xbd0ea92d	-0.034829307
134	0xbd1e4e5d	-0.03864895
135	0x3de2502f	0.1105045
136	0xbdfd4502	-0.12366678
137	0x3d5c8bbd	0.053844202
138	0xbd8adc25	-0.067802705
139	0x3d872a3d	0.06599853
140	0x3cf8b57f	0.030359982
141	0x3d29a3b0	0.04141587
142	0xbdf9f164	-0.12204245
143	0xbc5782b9	-0.013153725
144	0xbd99df28	-0.07513267
145	0xbd3cd276	-0.04609915
146	0x3db5675f	0.08857607
147	0xbdbc0e70	-0.09182441
148	0x3d94ced5	0.072660126
149	0xbd23748e	-0.039906077
150	0xbd3cdcc8	-0.04610899
151	0x3d23d347	0.03999641
152	0xbd2a9607	-0.041646983
153	0x3df49845	0.119431056
154	0x3de36f5f	0.11105227
155	0xbca059d4	-0.019574083
156	0x3d66bf61	0.056334857
157	0x3df01729	0.117231674
158	0xbd28318a	-0.04106287
159	0x3df09af5	0.11748306
160	0x3d8602a3	0.06543472
161	0x3decbb7f	0.115591995
162	0x3c41ada6	0.011821186
163	0xbbf45b77	-0.0074571925
164	0xbdc39519	-0.095499225
165	0xbdba101b	-0.09085103
166	0x3de6ff7e	0.112792
167	0x3d0c52ec	0.034258768
168	0xbc096163	-0.008385035
169	0x3c912664	0.017718501
170	0x3cc2562b	0.023722729
171	0x3cee6fad	0.029105986
172	0x3d12b6fe	0.035819046
173	0x3c8f9ff6	0.01753233
174	0x3d526ae7	0.05137148
175	0x3dba702c	0.09103426
176	0x3db782b8	0.089604795
177	0x3d7b7968	0.06139508
178	0xbcb2e779	-0.02183889
179	0x3d2c926b	0.042131823
180	0xbd959348	-0.07303482
181	0x3dc0f053	0.09420838
182	0x3be9e6d7	0.007138114
183	0xbd477bbb	-0.048701983
184	0xbcd0a1a1	-0.025467696
185	0x3d98c087	0.07458597
186	0x3dc7a5db	0.09748431
187	0x3d4057f4	0.04695888
188	0xbdb0d217	-0.086338215
189	0xbdf100a9	-0.11767704
190	0x3d4ac90f	0.04950815
191	0xbd4786ba	-0.04871247
192	0x3d730fa2	0.05934108
193	0xbbca0a6a	-0.0061657922
194	0x3c9290d3	0.017891323
195	0x3dbdb0f9	0.092622705
196	0xbbccedd7	-0.0062539387
197	0xbc90a739	-0.017657863
198	0xbe0472f0	-0.1293447
199	0x3bde12c9	0.0067771417
200	0xbdc16dc7	-0.094447665
201	0xbdfaabec	-0.12239823
202	0x3ca1068a	0.019656438
203	0xbdb69d6e	-0.08916746
204	0x3bf2fd7a	0.0074154707
205	0x3dd7b168	0.105318844
206	0x3d8a090f	0.06740009
207	0x3d446f49	0.047957692
208	0x3c81f93e	0.015865918
209	0x3db4a919	0.08821315
210	0xbdfbf00b	-0.12301644
211	0x3bb417d8	0.0054960065
212	0x3d75a7d0	0.05997449
213	0x3b206c7f	0.0024478731
214	0x3d6f8618	0.05847749
215	0x3d8d0f58	0.06887692
216	0x3ce32db7	0.02773176
217	0x3ddb6513	0.10712638
218	0xbd3de449	-0.046360288
219	0xbdefc31f	-0.11707138
220	0x3d61100e	0.05494695
221	0xbdf1cd10	-0.11806691
222	0xbd38d0d0	-0.045121014
223	0xbc38ec79	-0.011286848
224	0x3dca801a	0.09887715
225	0x3cc877a1	0.024471106
226	0xbdb1f79a	-0.086898044
227	0xbd0411a0	-0.03224337
228	0xbd1e03bf	-0.03857779
229	0xbdb6a45e	-0.08918069
230	0xbddbe8e1	-0.107377775
231	0xbd5b355b	-0.05351768
232	0xbd8c2996	-0.068438694
233	0x3c03a5d7	0.008035145
234	0xbc7d5554	-0.015462238
235	0xbce5fffd	-0.028076166
236	0xbd8f865a	-0.070080474
237	0x3c8c060d	0.017092729
238	0xbbee407b	-0.0072708703
239	0xbd44144e	-0.047870927
240	0x3dc7232e	0.09723507
241	0x3d494900	0.049141884
242	0xbcb05c74	-0.02152846
243	0xbd98eb98	-0.07466811
244	0x3dc86eec	0.09786782
245	0xbcf95cf5	-0.030439833
246	0x3cd7a95c	0.026325874
247	0x3dafa1d4	0.08575788
248	0x3d8f61d3	0.0700108
249	0x3cc27e39	0.023741828
250	0x3c8bec0f	0.017080335
251	0x3daef52f	0.08542859
252	0x3c2e82b2	0.010651277
253	0x3d1fbe4d	0.038999844
254	0xbe0768dc	-0.13223594
255	0xbdb7f77c	-0.08982751

lstm.weight_hh_l0 f4 [256, 64]
0	0xbdbf5548	-0.09342438
1	0x3dcbfbc6	0.09960131
2	0xbb5021ba	-0.0031758384
3	0x3cf80abc	0.030278556
4	0xbd315378	-0.043292493
5	0x3dbe9bed	0.09307084
6	0x3db69add	0.089162566
7	0xbda6460c	-0.08118829
8	0xbc9e15c9	-0.019297497
9	0x3bf2af4a	0.00740615
10	0x3d237916	0.0399104
11	0x3d15b1b8	0.03654644
12	0x3b87004f	0.00411991
13	0xbc64bb17	-0.013960621
14	0xbd515f1b	-0.05111609
15	0xbd174017	-0.036926355
16	0x3cb164f3	0.021654582
17	0xbd7e3635	-0.062063415
18	0xbdd3b1c0	-0.103366375
19	0xbd8f61d6	-0.070010826
20	0x3c32f760	0.010923237
21	0xbdbb3242	-0.09140445
22	0xbd818e45	-0.06325964
23	0xbd9d80b1	-0.076905616
24	0xbdb6f037	-0.08932536
25	0x3c5687a0	0.013093859
26	0xbd3df492	-0.04637582
27	0x3d4bd4be	0.049763434
28	0x3da7e539	0.081980176
29	0x3d93b630	0.07212484
30	0xbd21822d	-0.039430786
31	0xbd356b09	-0.04429153
32	0xbd7ba095	-0.06143244
33	0xbc0e5f90	-0.008689776
34	0x3cf90fb3	0.030402994
35	0x3d815c2e	0.0631641
36	0x3d04727b	0.03233574
37	0xbd8ffb56	-0.070303604
38	0xbdd248a6	-0.10267763
39	0x3c585bca	0.013205478
40	0xbdfa4085	-0.122193374
41	0xbdec522c	-0.115391105
42	0xbd88f74b	-0.066877924
43	0x3de21fbb	0.11041208
44	0xbdfad561	-0.1224773
45	0x3d25b4bf	0.040455576
46	0xbd15bd13	-0.03655727
47	0xbd3fd05e	-0.046829574
48	0xbd0caabd	-0.034342516
49	0x3de49259	0.11160726
50	0xba857ea6	-0.0010184839
51	0x3dc6e31d	0.09711287
52	0xbc94f38b	-0.018182537
53	0x3dff83bb	0.124762975
54	0x3bfee022	0.0077781836
55	0xbd0b4887	-0.034004714
56	0xbd60a424	-0.054844037
57	0xbcefff79	-0.029296624
58	0x3deb9798	0.115035236
59	0x3d97faa7	0.07420855
60	0xbd4e4d14	-0.050366476
61	0x3d544902	0.05182744
62	0x3dd65139	0.10464711
63	0x3d30307c	0.04301499
64	0xbdabd27d	-0.08389757
65	0x3deb5f69	0.114928074
66	0xbd12e810	-0.035865843
67	0x3db47064	0.08810499
68	0x3db2ea78	0.087361276
69	0x3de602f1	0.1123103
70	0x3bc5d06c	0.0060368087
71	0x3da235c1	0.07920409
72	0x3db89a5f	0.09013819
73	0x3d03e112	0.032197066
74	0x3df776f9	0.12083239
75	0xbd4c7bd1	-0.049922768
76	0xbc9ab665	-0.0188858
77	0xbd8931a2	-0.0669892
78	0xbd396c90	-0.04526955
79	0x3d89d7f9	0.06730647
80	0x3de47f91	0.11157144
81	0x3de5b49f	0.11216091
82	0x3d88631e	0.0665953
83	0x3dcfcfeb	0.10147079
84	0xb85fee5e	-5.338934e-05
85	0x3ddb21f6	0.10699837
86	0xbd2e8c5a	-0.04261432
87	0x3c3150e8	0.010822512
88	0xbda1cbf3	-0.07900228
89	0xbcacbeb9	-0.021087037
90	0x3d4d62d9	0.050143097
91	0xbdd3a580	-0.10334301
92	0x3d4a10a5	0.04933228
93	0x3cf9c754	0.030490555
94	0xbd05e83e	-0.032692187
95	0xbcfee0e5	-0.031113097
96	0x3d090414	0.033451155
97	0xbdcb599d	-0.09929202
98	0x3cb92a85	0.022603283
99	0x3da5f3eb	0.08103164
100	0x3b76aa4c	0.0037638126
101	0xbde1303a	-0.109955266
102	0x3d70a9ba	0.058755614
103	0x3d08e0b8	0.033417434
104	0x3e087b78	0.1332835
105	0x3d778689	0.060431037
106	0xbd89c985	-0.0672789
107	0x3debc73c	0.1151261
108	0x3de631e9	0.11239988
109	0xbdd70f1a	-0.10500927
110	0xbd627e8e	-0.055296473
111	0x3da48deb	0.08034881
112	0x3d060f85	0.032729644
113	0x3ddbce80	0.10732746
114	0x3c82664f	0.015917925
115	0xbd383ff3	-0.04498286
116	0x3de21de9	0.11040861
117	0xbc785383	-0.0151566295
118	0x3d034762	0.032050498
119	0x3d1fb6a3	0.038992535
120	0x3d93352f	0.07187878
121	0x3da0e5f3	0.07856359
122	0xbd0fde74	-0.035124257
123	0x3dfa9a41	0.12236453
124	0xbaaa10bc	-0.0012974958
125	0xbc100154	-0.008789379
126	0xbcee9f20	-0.029128611
127	0xbb23b338	-0.002497865
128	0xbd3ae13f	-0.045624968
129	0x3da3724b	0.07980784
130	0x3ccce89c	0.02501326
131	0x3d5e9f7c	0.054351315
132	0xbdab79a7	-0.08372813
133	0xbc03fb23	-0.008055481
134	0xbc779c7e	-0.015112994
135	0x3ab70c78	0.0013965508
136	0x3d6687a5	0.056281704
137	0xbdb01919	-0.08598537
138	0x3da466c9	0.08027417
139	0x3cc006d9	0.023440765
140	0xbdd83dad	-0.10558639
141	0x3dd65857	0.10466068
142	0xbc41aa91	-0.011820451
143	0x3d8618bb	0.06547686
144	0x3c5a8841	0.0133381495
145	0xbc92de6f	-0.01792833
146	0x3da8ab4e	0.08235799
147	0x3c0ef36b	0.008725028
148	0xbdca7a02	-0.098865524
149	0xbdab9c0f	-0.08379375
150	0x3bd501ad	0.006500444
151	0xbdbd6cf7	-0.09249299
152	0x3def3c59	0.11681432
153	0xbdbe4408	-0.0929032
154	0x3d72bae9	0.059260283
155	0x3dba28a7	0.09089785
156	0xbdfa4e6e	-0.122219905
157	0xbd57fcc2	-0.052731283
158	0x3cd8e619	0.026476907
159	0xbcd6b543	-0.02620948
160	0x3db6fe6c	0.08935246
161	0xbd6bfd14	-0.0576144
162	0xbd5fb2f6	-0.05461403
163	0xbd16bf64	-0.036803618
164	0x3c284112	0.01026942
165	0x3d7138b7	0.058891978
166	0xbd8a5e50	-0.0675627
167	0x3db3ea8f	0.08784973
168	0xbd451488	-0.048115283
169	0x3d1d6913	0.038430285
170	0xbd8cc2ca	-0.068730906
171	0xbe02d901	-0.12778093
172	0x3dda030c	0.106451124
173	0xbd11513a	-0.035477854
174	0xbd5b0545	-0.053471822
175	0x3d987663	0.074444555
176	0xbc469d65	-0.012122487
177	0xbcb0d334	-0.021585084
178	0x3daa5e64	0.08318785
179	0x3dae6da9	0.0851701
180	0x3c267474	0.0101596005
181	0xbd546b00	-0.051859856
182	0x3dc5d1ad	0.09659133
183	0xbdf14a1c	-0.11781713
184	0xbde59a9c	-0.1121113
185	0xbd37329f	-0.04472601
186	0x3cac9890	0.021068841
187	0x3db39090	0.087678075
188	0xbd33ce95	-0.043898184
189	0x3c557807	0.013029105
190	0x3a9ac6c9	0.001180851
191	0xbdd0fdf8	-0.10204691
192	0xbda7d8bf	-0.08195638
193	0x3dd16a0c	0.10225305
194	0x3d98b3bc	0.074561566
195	0x3df0b3c2	0.11753036
196	0xbcb87807	-0.022518171
197	0xbdc561d1	-0.096377976
198	0xbccda123	-0.02510125
199	0x3b8318ca	0.004000758
200	0x3cc4de56	0.0240318
201	0xbccf4e94	-0.025306024
202	0x3c54657e	0.012963651
203	0x3cd2dab8	0.025739059
204	0x3a9af501	0.0011822284
205	0xbd51a773	-0.051185083
206	0xbde0199b	-0.10942384
207	0x3db40191	0.08789361
208	0x3cd4a60a	0.02595808
209	0xbda9e089	-0.0829478
210	0xbd064eba	-0.032789923
211	0xbc964583	-0.018343693
212	0xbdafffb8	-0.08593696
213	0x3db16d10	0.0866338
214	0xbd976f03	-0.07394221
215	0x3c7de5cf	0.015496685
216	0x3ddf09a0	0.10890508
217	0x3d3b78f2	0.04576964
218	0x3d47fe40	0.048826456
219	0x3bd83970	0.006598644
220	0xbdb871da	-0.090060905
221	0xbd25210d	-0.040314723
222	0xbc029a3f	-0.007971345
223	0x3d950cb9	0.07277817
224	0xbda36a5d	-0.079792716
225	0x3d8b0be2	0.06789376
226	0x3d752de7	0.05985823
227	0x3db3028b	0.087407194
228	0x3cf33d0c	0.029692195
229	0xbd7974d3	-0.060902428
230	0xbd2e2b6a	-0.04252187
231	0xbdbb34ec	-0.091409534
232	0xbdb99d54	-0.09063211
233	0xbbea3124	-0.0071469713
234	0x3d922e7f	0.07137775
235	0xbc1de479	-0.009636992
236	0x3d85eb5c	0.06539032
237	0x3d24c7c6	0.04022958
238	0xbd3e758b	-0.046498816
239	0x3c194084	0.009353761
240	0xbce6ae68	-0.028159335
241	0xbddedc26	-0.10881834
242	0xbcb1efcf	-0.021720795
243	0x3cdbdb25	0.026837895
244	0x3d3e7127	0.04649463
245	0xbda57022	-0.08078028
246	0xbd9cc3de	-0.07654546
247	0xbd00b025	-0.031417985
248	0xbc40c17b	-0.011764879
249	0x3db2350c	0.08701524
250	0xbd6e3361	-0.058154467
251	0xbccee1ca	-0.025254149
252	0xbdffb444	-0.12485555
253	0x3d923675	0.07139293
254	0x3cb42302	0.02198935
255	0xbce639ed	-0.028103793

lstm.bias_ih_l0 f4 [256]
0	0x3d2d793a	0.04235194
1	0xbd91f459	-0.07126684
2	0xbd6fac25	-0.05851378
3	0xbd29ce62	-0.041456588
4	0xbd3f172b	-0.046652954
5	0x3d99e97f	0.07515239
6	0xbcb9dda6	-0.022688698
7	0xbb8d1aaf	-0.0043061594
8	0xbb18ae0d	-0.0023297102
9	0xbdf07a66	-0.11742096
10	0xbd35c7f6	-0.04438015
11	0xbe000dba	-0.12505236
12	0xbca34272	-0.019929145
13	0xbd57e331	-0.0527069
14	0xbd626859	-0.055275295
15	0xbba295e5	-0.0049617165
16	0xbcfe77f5	-0.03106306
17	0xbd3f19a6	-0.04665532
18	0x3c9a3b14	0.018826999
19	0xb99cc03e	-0.0002989787
20	0xbccc192e	-0.02491435
21	0xbd93cfae	-0.07217346
22	0x3cb33a08	0.021878257
23	0x3cb6cc60	0.02231425
24	0x3d68f7e1	0.05687702
25	0x3bde044d	0.006775415
26	0x3da9044f	0.08252775
27	0x3d8fa1e5	0.07013301
28	0xbdd84c26	-0.10561399
29	0x3d142860	0.036171317
30	0x3d4157c0	0.047202826
31	0x3d0f0380	0.034915447
32	0xbd70aac1	-0.058756594
33	0xbd9ab10c	-0.075533
34	0xbd7656df	-0.06014144
35	0xbd4f8269	-0.05066148
36	0x3dd6eb52	0.104941025
37	0xbd5fe878	-0.05466506
38	0xbdb573ea	-0.088599995
39	0x3d9c3e53	0.07629075
40	0x3d873078	0.066010416
41	0x3da9ddc8	0.082942545
42	0xbcd56980	-0.026051283
43	0xbdb50394	-0.08838573
44	0xbdb91873	-0.090378664
45	0xbe0300a7	-0.12793218
46	0xbcc37641	-0.023860099
47	0xbb5e83fd	-0.0033953183
48	0x3d9c3164	0.07626608
49	0xbd3f4b0d	-0.046702433
50	0x3cb062ee	0.021531548
51	0xbcbcc32b	-0.023042282
52	0x3d767cde	0.060177676
53	0xbd7d4d13	-0.06184108
54	0xbd587662	-0.052847274
55	0x3d13db6c	0.03609793
56	0x3def7d36	0.11693804
57	0x3d975526	0.07389288
58	0x3cc161d9	0.023606228
59	0x3dd99d69	0.10625727
60	0x3d998b8d	0.0749732
61	0x3d821633	0.063518904
62	0xbdc84696	-0.09779088
63	0x3d54cc3d	0.05195259
64	0xbd897ac5	-0.067128696
65	0x3dd63713	0.10459723
66	0xbd8a77be	-0.0676112
67	0xbd130af3	-0.035899114
68	0x3d1e5f04	0.038664833
69	0x3dc105a9	0.09424908
70	0xbdfa9078	-0.122345865
71	0xbd21c6e2	-0.03949631
72	0xbc9a192b	-0.01881083
73	0xbda2883d	-0.07936142
74	0x3d102ea8	0.035200745
75	0x3db08a0d	0.08620081
76	0x3d462031	0.048370544
77	0xbcaf620d	-0.021409059
78	0xbd839957	-0.06425732
79	0x3d6c479a	0.057685472
80	0x3da45416	0.080238506
81	0xbdc53e6b	-0.09631046
82	0xbcf15bb4	-0.029462673
83	0x3d656c7b	0.05601166
84	0xbdad1153	-0.0845057
85	0x3da67d96	0.08129422
86	0xbb050550	-0.0020297356
87	0xbdb2a989	-0.087237425
88	0xbd16789b	-0.036736112
89	0x3d989dd7	0.074519806
90	0xbd6a66c4	-0.05722691
91	0x3dba2f05	0.090909995
92	0x3da56675	0.08076183
93	0xbd711a3a	-0.058862902
94	0xbcc860a9	-0.024460154
95	0xbc02b391	-0.007977382
96	0x3dc95b13	0.09831824
97	0x3d46f5ca	0.048574246
98	0xbdfc1679	-0.12308974
99	0x3dcfd431	0.10147894
100	0xbd8e2136	-0.06939928
101	0xbcaee4e3	-0.021349376
102	0x3dceb61a	0.10093327
103	0x3d940078	0.07226652
104	0x3db83a1e	0.0899546
105	0x3c5891ef	0.013218387
106	0x3bb88261	0.0056307768
107	0x3db56512	0.08857168
108	0x3db6407f	0.088990204
109	0xbdcbfe1e	-0.099605784
110	0xbcf67460	-0.030084789
111	0x3c87d8d6	0.016582888
112	0xb9f59bfe	-0.00046846265
113	0xbdc3cff7	-0.095611505
114	0x3dca5b83	0.09880736
115	0xbcf7265b	-0.030169657
116	0x3df2a99b	0.11848756
117	0xbd42eb4f	-0.04758769
118	0xbda06fbd	-0.078338124
119	0x3d7baa3a	0.061441638
120	0xbddee6ff	-0.10883903
121	0x3dcd2b1e	0.100179896
122	0x3dc5cdcf	0.096583955
123	0x3df6382b	0.12022432
124	0x3dd9c6f5	0.10633651
125	0xbe016598	-0.12636411
126	0x3d8db65a	0.069195464
127	0xbd7a86cc	-0.06116371
128	0xbdb82e33	-0.08993187
129	0xbd0fe516	-0.035130583
130	0xbda714b6	-0.08158247
131	0x3c5403c9	0.012940356
132	0x3d9d68dc	0.07686016
133	0xbe03856d	-0.12843867
134	0xbd123775	-0.03569742
135	0x3de89589	0.113566466
136	0x3b8a8353	0.004227081
137	0xbdfe744f	-0.12424528
138	0x3d9977a4	0.07493523
139	0x3d9f0431	0.07764471
140	0xbde26854	-0.11055055
141	0xbcdaccff	-0.026709078
142	0x3cbc107d	0.022957081
143	0x3d806604	0.06269458
144	0xbdc56ef1	-0.09640301
145	0xbded9503	-0.11600687
146	0x3da2797d	0.07933328
147	0xbd329174	-0.043595746
148	0x3dc00209	0.09375388
149	0xbdcc0844	-0.09962514
150	0x3e033ace	0.12815401
151	0xbe04f217	-0.12982975
152	0x3ddc289f	0.10749935
153	0xbd3542b7	-0.044253077
154	0x3d047a70	0.032343328
155	0xbba06cdf	-0.004895791
156	0x3d9d6611	0.07685483
157	0x3decc503	0.115610145
158	0xbdcc1982	-0.09965803
159	0x3d0a91b0	0.033830345
160	0xbcb61283	-0.022225624
161	0xbb8e793f	-0.0043479498
162	0x3dc01752	0.09379448
163	0x3da95838	0.082687795
164	0x3d29b43c	0.04143165
165	0xbdab9109	-0.08377273
166	0xbcf17b27	-0.029477669
167	0xbd605dc8	-0.054776937
168	0x3d86c2cd	0.06580124
169	0x3ac2b853	0.0014855958
170	0xbc47f7cf	-0.012205078
171	0x3dbef148	0.093233645
172	0x3d850868	0.06495744
173	0xbd2fb918	-0.04290113
174	0x3d161ec6	0.03665044
175	0x3d7c71cb	0.06163196
176	0xbc0e598c	-0.008688342
177	0xbdf17ccb	-0.117913805
178	0x3b8c31f9	0.004278418
179	0xbd2f39e0	-0.042779803
180	0xbd7c32ad	-0.061571766
181	0xbb0a8bb0	-0.002114039
182	0xbdd04ac7	-0.10170513
183	0xbde5b9e2	-0.11217095
184	0x3d2cb80d	0.042167712
185	0xbd1702d2	-0.036867924
186	0xbcc25fc6	-0.023727309
187	0x3d1ac6ca	0.037787236
188	0x3b7c9d50	0.0038545914
189	0xbd930e7f	-0.07180499
190	0x3b3e3016	0.002902036
191	0x3d511da3	0.051053654
192	0xba39e633	-0.00070914923
193	0xbcd7eed5	-0.026359001
194	0x3d0b8aae	0.034067802
195	0xbca72d74	-0.020407416
196	0xbdd3d537	-0.10343402
197	0xbd8895cb	-0.06669196
198	0x3d90ff4a	0.070799425
199	0xbdd8ec78	-0.10591978
200	0xbcd61ee0	-0.02613777
201	0xbc863846	-0.016384255
202	0xbd915451	-0.0709616
203	0x3cf01a4b	0.029309412
204	0xbcc72b74	-0.024312712
205	0x3c909949	0.017651217
206	0x3d6f1996	0.05837401
207	0xbdfb6a2c	-0.1227611
208	0xbdfd217a	-0.12359901
209	0x3d17e3ef	0.03708261
210	0x3d233364	0.03984393
211	0x3d020fed	0.03175347
212	0xbd1d20b7	-0.038361277
213	0xbe096d44	-0.13420588
214	0xbd4fd479	-0.05073974
215	0x3d87eb21	0.06636644
216	0xbd5fff32	-0.054686733
217	0xbc0c281f	-0.0085544875
218	0x3db55c53	0.088555
219	0x3d877949	0.0661493
220	0x3df09a62	0.11748196
221	0xbb95178e	-0.004549927
222	0xbde3c370	-0.11121261
223	0xbd45397e	-0.048150532
224	0xbd5bec09	-0.053691898
225	0x3c9cd803	0.019145971
226	0xbda84c8e	-0.08217727
227	0x3dd16415	0.10224167
228	0x3dca2284	0.098698646
229	0xbc9de35f	-0.019273458
230	0x3d8d7eb7	0.069089346
231	0x3cfbda32	0.030743692
232	0x3c3624b6	0.011117151
233	0x3db6541d	0.08902762
234	0x3c847d2e	0.016172972
235	0xbd3b73d0	-0.045764744
236	0x3df7fac4	0.121083766
237	0x3d8a0c4a	0.06740625
238	0x3d95accc	0.07308349
239	0xbca744c6	-0.020418536
240	0x3cf573a8	0.029962376
241	0x3c9e538a	0.019326944
242	0xbdd090e4	-0.10183886
243	0x3dfc7abf	0.123280995
244	0xbe00b309	-0.12568296
245	0xbdb17a12	-0.08665861
246	0x3de8fc76	0.11376278
247	0xbc12bdca	-0.008956382
248	0xbdf43f70	-0.11926162
249	0x3e050f30	0.12994075
250	0x3de63faa	0.11242612
251	0x3d314b4c	0.0432847
252	0xbd20b112	-0.039231367
253	0x3d5c345d	0.053760875
254	0x3d269297	0.040667143
255	0xbdb05d8b	-0.08611592
