checkpoints/xvad_epoch_4.pth (torch, 340597 bytes, 23 tensors)

conv.0.weight f4 [32, 80, 3]
0	0xbdb3002f	-0.087402694
1	0x3bf9e1b4	0.007625783
2	0xbb611c0c	-0.0034348993
3	0xbd13321e	-0.035936467
4	0xbc316deb	-0.010829429
5	0xbb1730f5	-0.0023069952
6	0xbc90df65	-0.017684648
7	0x3d9f6fef	0.077850215
8	0xbd76ec1d	-0.06028377
9	0xbd49ce75	-0.04926916
10	0x3d1e61a5	0.03866734
11	0x3c8110a3	0.015755003
12	0x3d567165	0.052354235
13	0x3d1b1fa1	0.03787196
14	0xbcac74e1	-0.021051826
15	0xbd923493	-0.07138934
16	0x3c109cc0	0.008826435
17	0x3cdfb747	0.027309073
18	0x3b624486	0.0034525706
19	0x3d0b7928	0.03405109
20	0xbc709e6f	-0.014686211
21	0xbcfdf82e	-0.03100213
22	0xbcbd7a53	-0.023129618
23	0x3cd0cda0	0.025488675
24	0x3cd01ccc	0.025404356
25	0x3c85a902	0.01631594
26	0x3cb58b69	0.022161203
27	0xbd3ddd8f	-0.046353873
28	0xbbb56dae	-0.0055367565
29	0xbd40f33f	-0.047106978
30	0xbc577c80	-0.013152242
31	0xbb114a44	-0.002216951
32	0xbd0204fb	-0.03174303
33	0xbca0b190	-0.019615918
34	0xbd3fe373	-0.04684777
35	0x3d7410fb	0.059586506
36	0x3d89af0d	0.067228414
37	0x3d68b1b0	0.05681008
38	0x3d5716dd	0.05251204
39	0x3cc05b78	0.023481116
40	0x3d4e30ed	0.050339628
41	0xbd52113b	-0.051285964
42	0x3d971348	0.073767245
43	0x3d208d02	0.039196976
44	0xbcab8491	-0.020937236
45	0x3c459f8b	0.012061964
46	0x3d124aa4	0.035715714
47	0xbd4fd0e4	-0.050736323
48	0x3d506f19	0.0508872
49	0xbd569df3	-0.052396726
50	0x3cd27029	0.025688248
51	0xbd2fff92	-0.04296834
52	0xbb2a4bf8	-0.0025985222
53	0xbcd821cc	-0.026383303
54	0xbb2df772	-0.0026545194
55	0x3d5b4de7	0.05354109
56	0xbd02f3fa	-0.031970955
57	0x3c7dae0a	0.015483389
58	0x3d8259fd	0.0636482
59	0xbcd55a23	-0.026043957
60	0xbceafd1a	-0.028685141
61	0x3d482864	0.048866645
62	0x3d8d67f5	0.06904594
63	0x3b954344	0.004555138
64	0xbd74f293	-0.05980165
65	0xbc4f1902	-0.01264024
66	0xbd8891f1	-0.06668461
67	0x3ae395c2	0.0017363357
68	0x3be3fea1	0.0069578444
69	0xbd39dd7e	-0.045377247
70	0xbcf5ee69	-0.03002091
71	0x3d4d4de1	0.0501231
72	0xbcdd4131	-0.027008625
73	0xbd162002	-0.03665162
74	0x3d07320f	0.033006724
75	0xbcf81f05	-0.030288229
76	0xbd71f9ff	-0.059076305
77	0xbd0d917d	-0.034562577
78	0xbc5c2e52	-0.013438778
79	0x3c86b77f	0.01644492
80	0x3bc6686b	0.006054928
81	0x3d29d44c	0.041462228
82	0x3d8c2a54	0.06844011
83	0x3cf4996a	0.02985831
84	0x3d489a4c	0.048975274
85	0x3d9f0f86	0.07766633
86	0xbcbb7843	-0.022884494
87	0xbd6fafa3	-0.05851711
88	0x3b6d83c0	0.003624186
89	0xbd46341e	-0.048389547
90	0x3b9c7872	0.0047751004
91	0xbd3d10c5	-0.04615857
92	0x3d15af7d	0.03654431
93	0x3b98eea6	0.004667121
94	0x3cd43b97	0.02590732
95	0x3cc9294e	0.024555828
96	0xbb68e56f	-0.0035537144
97	0xbd4a6cdd	-0.049420226
98	0x3cf70583	0.030153995
99	0x3d79de6b	0.06100313
100	0x3d5668f2	0.052346177
101	0x3d23042e	0.039798908
102	0xbd5f5ff1	-0.054534856
103	0x3c4793d8	0.012181245
104	0xbcc3956d	-0.023874963
105	0xbd3520b0	-0.044220626
106	0x3bd32349	0.0064434153
107	0x3b75eaff	0.0037524102
108	0xbda04a1b	-0.078266345
109	0xbda8eeec	-0.08248696
110	0x3d5b0429	0.053470764
111	0xbbade010	-0.0053062513
112	0xbd24f6b4	-0.040274337
113	0xbc4a5222	-0.012348684
114	0xbca84d25	-0.020544598
115	0x3ba3b290	0.0049956515
116	0xbc47209f	-0.012153774
117	0x3d071068	0.03297463
118	0xbd711644	-0.058859125
119	0x3d6be9b9	0.057595942
120	0x3c3a8daf	0.011386319
121	0xbb0e7bba	-0.0021741227
122	0xbd074e2b	-0.03303353
123	0xbd773826	-0.06035628
124	0xbd966c60	-0.0734489
125	0x3c9f5e2e	0.019454088
126	0x3c5e5aed	0.013571483
127	0xbc986ae1	-0.018605651
128	0x3d497b8e	0.049190097
129	0x3c9a0c1a	0.018804599
130	0xbc67631d	-0.014122752
131	0xbd2dc641	-0.042425398
132	0xbd111b92	-0.035426684
133	0xbc81ee7a	-0.015860785
134	0x3d219929	0.039452706
135	0xbd0316dd	-0.032004226
136	0x3c36f181	0.011165977
137	0xbd2088a7	-0.03919282
138	0xbd058e9d	-0.03260671
139	0xbcab1ab3	-0.020886755
140	0xbc442a06	-0.01197291
141	0x369bd718	4.6444e-06
142	0xbd5c6af4	-0.053812936
143	0xbd016fe6	-0.031600855
144	0x3c9c8c55	0.019109884
145	0x3c03c9c8	0.008043714
146	0x3d645c54	0.055752113
147	0x3cfc4956	0.030796688
148	0xbd5fc380	-0.054629803
149	0x3cf1ed96	0.029532235
150	0x3a24b708	0.00062833773
151	0x3d0cc71a	0.034369566
152	0xbc9d064d	-0.019168044
153	0x3d08817f	0.033326622
154	0xbd2ccbf3	-0.04218669
155	0x3d833c0b	0.06407937
156	0xbd1045fc	-0.035222992
157	0x3ca09003	0.01959992
158	0xbbe1bab2	-0.006888711
159	0x3cee9e6c	0.029128276
160	0xbcee96ba	-0.029124606
161	0x3d075504	0.03304006
162	0xbd94b861	-0.0726173
163	0xbcebb82d	-0.028774345
164	0xbd66924f	-0.056291874
165	0x3d7e28bd	0.06205057
166	0xbcc194c4	-0.023630507
167	0x3cb71956	0.022350948
168	0xbda46af4	-0.08028212
169	0x3d71bce5	0.059018034
170	0x3cfd7249	0.030938284
171	0x3cbf07f7	0.023319228
172	0x3cfb3f08	0.030669704
173	0x3cc3786c	0.023861133
174	0x3d38e7ea	0.045143045
175	0x39419fca	0.0001846544
176	0x3d212363	0.039340388
177	0xbd6def4f	-0.05808955
178	0x3d267a95	0.040644247
179	0x3d2b0f55	0.04176267
180	0xbc74b2c0	-0.014935195
181	0x3d45fc2d	0.048336197
182	0x3d439521	0.047749642
183	0x3c44ebbd	0.012019095
184	0xbc421e9f	-0.011848121
185	0x3d1ea3d3	0.038730454
186	0xbce0f533	-0.02746067
187	0x3a283a27	0.0006417357
188	0x3d5bbdbd	0.053647745
189	0x3d20d616	0.03926667
190	0xbab174d4	-0.0013538846
191	0xbd9ab82a	-0.07554658
192	0x3cff8b27	0.031194283
193	0x3b0e68bb	0.0021729905
194	0xbd1f9726	-0.038962506
195	0x3be9efa6	0.007139164
196	0x3d254935	0.04035302
197	0xbcb90e1b	-0.022589734
198	0xbd43e852	-0.04782898
199	0xbc6997ee	-0.014257414
200	0x3cc3b214	0.023888625
201	0xbd0e3fac	-0.03472869
202	0xbd9eb952	-0.07750191
203	0xbd398ad4	-0.045298412
204	0x3d6441e9	0.05572692
205	0xbd528f1c	-0.05140601
206	0x3d41ad8f	0.04728466
207	0x3d7a2d01	0.061078075
208	0x3d3b1897	0.045677748
209	0xbd92a3f8	-0.07160181
210	0xbcb01fb3	-0.02149949
211	0xbd9d0309	-0.076665945
212	0x3b425436	0.0029652244
213	0x3c328506	0.010895973
214	0x3b99e23d	0.004696159
215	0xbd285bb7	-0.04110309
216	0xbd30c0e3	-0.0431527
217	0x3ccabeca	0.024749178
218	0xbcaa5ff6	-0.02079771
219	0xb94932f2	-0.00019187832
220	0xbd63633b	-0.055514555
221	0xbc2b7862	-0.010465713
222	0xbce1e5c9	-0.02757539
223	0xbc5a0498	-0.013306759
224	0xbc38e387	-0.0112847155
225	0xbcc60061	-0.024170103
226	0x3d50d008	0.050979644
227	0xbd0e1574	-0.034688428
228	0x3a160bd5	0.0005723809
229	0xbce599ed	-0.0280275
230	0x3d5889f8	0.052865952
231	0xbd8d49c8	-0.06898838
232	0x3bcd2f08	0.00626171
233	0xbd95f7e1	-0.0732267
234	0x3d2fac4f	0.042888936
235	0xbbdd3206	-0.006750348
236	0x3ca46fbf	0.020072816
237	0xbcb093ec	-0.02155491
238	0xbd0f49a3	-0.034982335
239	0xbcbec62a	-0.023287851
240	0x3d05393d	0.03252529
241	0x3cc83b62	0.024442378
242	0xbd09b768	-0.033622175
243	0x3d23419b	0.039857488
244	0x3c08c675	0.008348097
245	0x3d937a71	0.07201088
246	0xbd755e90	-0.059904635
247	0xbd5abfc9	-0.053405557
248	0x3d0052a8	0.031328827
249	0xbcab5568	-0.020914748
250	0x3d336de3	0.043805968
251	0xbd441271	-0.04786915
252	0xbcf630b5	-0.030052522
253	0x3c9846f1	0.018588515
254	0x3d34a1ad	0.0440995
255	0xbb757200	-0.0037451982

conv.0.bias f4 [32]
0	0x3d440cb3	0.047863673
1	0x3d828aca	0.06374128
2	0x3cf72282	0.030167822
3	0x3d2d51f9	0.042314503
4	0x3d5f5d3f	0.054532286
5	0x3d835f39	0.06414647
6	0xbd4169b9	-0.047219966
7	0xbd045e3b	-0.032316428
8	0xbd6b0d0f	-0.0573855
9	0xbd8056ef	-0.06266581
10	0x3d7b5fb0	0.06137055
11	0x3d77e873	0.060524415
12	0xbd5385dc	-0.05164133
13	0x3d7663cc	0.060153767
14	0x3c303eaf	0.010757132
15	0xbc4aa6cd	-0.01236887
16	0xbd0bb853	-0.034111332
17	0xbd500c0a	-0.05079273
18	0x3d105322	0.03523553
19	0xbd7a86fb	-0.061163884
20	0xbc4cb1ab	-0.012493531
21	0xbcaac4cc	-0.020845793
22	0xbd0c41d2	-0.03424246
23	0x3d82fbb4	0.06395665
24	0xbd7d0e6f	-0.061781343
25	0x3d06f6f1	0.032950345
26	0xbd5224b0	-0.05130452
27	0x3cf22b2f	0.029561607
28	0xbb7dd769	-0.003873313
29	0x3d267ebe	0.040648215
30	0xbc7086a1	-0.0146805355
31	0xbc8e0bcf	-0.017339615

conv.1.weight f4 [32]
0	0x3f80880c	1.0041518
1	0x3f801563	1.0006527
2	0x3f7e17d6	0.9925512
3	0x3f80668e	1.0031297
4	0x3f82e4e1	1.0226098
5	0x3f7fd2a9	0.99930817
6	0x3f7fa463	0.9986021
7	0x3f7f7faa	0.99804175
8	0x3f80328b	1.0015424
9	0x3f80c98d	1.0061508
10	0x3f8195cc	1.0123839
11	0x3f806351	1.0030309
12	0x3f82dbb4	1.0223298
13	0x3f7e4064	0.99317
14	0x3f7c4471	0.98541933
15	0x3f826e1e	1.0189855
16	0x3f7eeeb1	0.99582964
17	0x3f80aab2	1.0052092
18	0x3f7d3454	0.9890797
19	0x3f8154fb	1.0104059
20	0x3f8112ee	1.0083902
21	0x3f7f56bc	0.9974172
22	0x3f80b771	1.0055982
23	0x3f7abc4f	0.97943586
24	0x3f803024	1.0014691
25	0x3f81c535	1.0138308
26	0x3f7a11e0	0.97683525
27	0x3f7bbbc4	0.9833338
28	0x3f7eafa9	0.99486786
29	0x3f80ede3	1.0072597
30	0x3f7b1fb6	0.9809526
31	0x3f80a9e8	1.0051851

conv.1.bias f4 [32]
0	0xbb824591	-0.003975578
1	0xbbd7bbc9	-0.006583665
2	0x3a56bd88	0.00081916945
3	0xbac30e4d	-0.0014881581
4	0x3bee10ff	0.0072652097
5	0xbc887ba8	-0.016660526
6	0x3bfd711c	0.007734431
7	0x3ac00191	0.0014648904
8	0xb9ae7a48	-0.00033278973
9	0xbc3ed95c	-0.011648502
10	0x3bbcbebe	0.005760043
11	0x3c447d36	0.011992743
12	0x3cd4182f	0.025890438
13	0xbbc5be18	-0.006034624
14	0xbcac6bed	-0.021047557
15	0x3c1a665b	0.0094238175
16	0xbc14c123	-0.0090792505
17	0xbafbb7b1	-0.0019204525
18	0xbbc74546	-0.006081256
19	0x3c480cae	0.012210054
20	0x3b817770	0.0039510056
21	0xbca8863f	-0.020571826
22	0x3b426f30	0.0029668324
23	0xbbdbba4f	-0.0067055593
24	0xbc83b305	-0.016076574
25	0xbbbb0b29	-0.0057081175
26	0xbbe3cead	-0.006952128
27	0x3b86c73a	0.004113105
28	0x3b8d63f4	0.004314894
29	0xbae4447a	-0.0017415427
30	0xbcb7378d	-0.022365356
31	0x3c5284f9	0.012849086

conv.1.running_mean f4 [32]
0	0x3d4b1c58	0.049587578
1	0x3d7b5b2d	0.06136625
2	0x3ceef52d	0.029169643
3	0x3d303541	0.043019537
4	0x3d516984	0.05112602
5	0x3d81241c	0.063057154
6	0xbd3dcf61	-0.04634035
7	0xbd09521a	-0.033525564
8	0xbd706bd3	-0.05869658
9	0xbd7e0657	-0.062017765
10	0x3d7700a9	0.060303364
11	0x3d842524	0.064523965
12	0xbd5c88af	-0.05384129
13	0x3d7f282f	0.06229418
14	0x3c2ee436	0.010674527
15	0xbc1b96c6	-0.009496396
16	0xbd04dc47	-0.032436635
17	0xbd4b5306	-0.049639724
18	0x3d195537	0.037434783
19	0xbd7d67b9	-0.061866496
20	0xbc373a02	-0.011183264
21	0xbcbf2c9b	-0.0233367
22	0xbd075bc7	-0.03304651
23	0x3d893fc0	0.067016125
24	0xbd79b543	-0.06096388
25	0x3d0393dd	0.032123435
26	0xbd5418d1	-0.05178148
27	0x3cecb2f9	0.028893935
28	0xbb1ccec9	-0.0023926964
29	0x3d286500	0.041111946
30	0xbc4ac455	-0.012375911
31	0xbc8e18e9	-0.017345862

conv.1.running_var f4 [32]
0	0x3ebe2901	0.37140658
1	0x3eb40329	0.3515866
2	0x3ebde4d7	0.37088653
3	0x3eb882e4	0.36037362
4	0x3eb2870e	0.34868664
5	0x3eb9f9a6	0.3632328
6	0x3eb9cf60	0.36291027
7	0x3ece5b28	0.40303922
8	0x3ec692ae	0.38783783
9	0x3eb2894f	0.34870383
10	0x3ebcbfe3	0.36865148
11	0x3eba50c8	0.36389756
12	0x3eb83734	0.35979617
13	0x3eb72fe9	0.3577874
14	0x3ec3fb8f	0.3827786
15	0x3ec18e68	0.3780396
16	0x3eaf4541	0.34232524
17	0x3ea93f6b	0.33056197
18	0x3eae4051	0.34033445
19	0x3eb72d7c	0.3577689
20	0x3ea59eae	0.32347625
21	0x3ebbc81f	0.36676118
22	0x3eb2e837	0.3494279
23	0x3ecb0de5	0.39659038
24	0x3ebb01db	0.36524853
25	0x3eb157e4	0.34637368
26	0x3ea8fdf7	0.3300626
27	0x3eacb30c	0.33730352
28	0x3ebaa3fc	0.36453235
29	0x3eb736c6	0.35783976
30	0x3eb9cbfb	0.36288437
31	0x3eb89e6f	0.36058375

conv.4.weight f4 [64, 32, 3]
0	0xbc91c25d	-0.017792875
1	0xbd874c07	-0.06606298
2	0x3dc1ef70	0.09469497
3	0xbd11a387	-0.035556342
4	0x3db4897a	0.08815284
5	0x3d90f2a5	0.07077531
6	0xbd234d6c	-0.039868757
7	0xbda12cc3	-0.07869866
8	0x3d804f49	0.062651224
9	0x3d4a0065	0.049316783
10	0x3d6d3533	0.057912063
11	0x3d85d56d	0.06534848
12	0x3dba3011	0.09091199
13	0x3d7696cd	0.06020241
14	0x3db6cf1d	0.089262225
15	0xbd93515d	-0.07193253
16	0xbd4a16d0	-0.049338162
17	0xbb9a98df	-0.0047179307
18	0xbdb8c646	-0.09022193
19	0xbca37d8c	-0.019957326
20	0x3d81a168	0.06329614
21	0xbced52f9	-0.028970229
22	0xbdae2549	-0.08503205
23	0xbc3f0769	-0.011659482
24	0xbd9ef39c	-0.077613086
25	0x3d86a232	0.06573905
26	0xbc9f5c65	-0.019453237
27	0x3c3aea3c	0.011408385
28	0x3c61745e	0.013760654
29	0xbb9d3723	-0.0047978326
30	0x3cb134ca	0.021631617
31	0x3dccd229	0.10001022
32	0xbd60d360	-0.054889083
33	0x3d39b830	0.04534167
34	0x3d88eeef	0.06686198
35	0x3c724985	0.014788036
36	0xbdd78f3a	-0.10525365
37	0xbd84a6c3	-0.0647712
38	0x3d1d0e20	0.03834355
39	0xbd16e916	-0.03684338
40	0x3ba10271	0.004913621
41	0xbcfc6418	-0.030809447
42	0x3d740178	0.059571713
43	0x3d9ac61b	0.07557317
44	0x3da37a16	0.079822704
45	0x3cc58abb	0.024114003
46	0x3d9571d2	0.072971
47	0x3d11297f	0.035439964
48	0xbc72c59f	-0.014817624
49	0x3d593e31	0.053037826
50	0xbcad8aab	-0.021184286
51	0x3dc59226	0.09647016
52	0xbda43adc	-0.08019039
53	0xbd6ac1eb	-0.05731384
54	0x3d439838	0.04775259
55	0xbce5d2e2	-0.028054658
56	0x3d2662cf	0.040621575
57	0xbda88578	-0.08228582
58	0xbbcecba7	-0.0063108983
59	0x3d3554ec	0.04427044
60	0x3dc44363	0.095831655
61	0xbdb4b6c5	-0.08823923
62	0x3da8e43d	0.08246658
63	0x3c74b6c7	0.014936156
64	0xbdb8d01e	-0.0902407
65	0x3dd7e488	0.10541636
66	0x3db04a7a	0.08607955
67	0xbccc0842	-0.024906281
68	0xbd965c22	-0.07341792
69	0x3d80ac74	0.06282893
70	0xbd959f67	-0.07305794
71	0xbd0dea0b	-0.03464703
72	0xbcdc7f2f	-0.026916115
73	0xbae8bc61	-0.0017756337
74	0x3d29c044	0.041443124
75	0xbd2f05a2	-0.04272998
76	0x3da4b442	0.08042194
77	0x3da36cbc	0.07979724
78	0xbc142253	-0.009041387
79	0x3da041f6	0.07825081
80	0x3d3ee1b1	0.046601955
81	0xbd28a420	-0.041172147
82	0xbdaf16b9	-0.08549256
83	0x3dc86b08	0.097860396
84	0x3d3c1df2	0.045926996
85	0x3c9c901a	0.019111682
86	0x3bd5a118	0.006519448
87	0x3d93a78e	0.07209693
88	0x3d32b1c5	0.043626565
89	0xbd13f71c	-0.036124334
90	0x3d9708fa	0.07374759
91	0x3d92af64	0.07162359
92	0xbd2a73df	-0.04161441
93	0xbc70aaae	-0.014689131
94	0x3c9d096b	0.01916953
95	0xbcfd56f8	-0.030925259
96	0xbd209fc3	-0.03921486
97	0x3d99734f	0.074926965
98	0xba1e3942	-0.0006035754
99	0xbbe5544d	-0.006998575
100	0xbc6cfa46	-0.014463967
101	0x3d5bcf73	0.053664636
102	0xbb52efc1	-0.0032186361
103	0x3d79cc7f	0.06098604
104	0xbc0b5790	-0.008504763
105	0x3ca79c30	0.020460218
106	0x3ddf2ad6	0.10896842
107	0x3c94252e	0.018084135
108	0x3d3da9e3	0.046304595
109	0x3d62b3f3	0.055347394
110	0x3db988e5	0.09059314
111	0x3dd0026e	0.101567134
112	0xbd07530b	-0.03303818
113	0x3d2eefdb	0.042709213
114	0xbd587d73	-0.052854013
115	0xbd8c71a0	-0.0685761
116	0xbd448767	-0.047980692
117	0x3d7cc718	0.061713308
118	0xbd838569	-0.0642193
119	0x3cd62b1b	0.026143601
120	0x3d7713a8	0.06032148
121	0x3d78cbdf	0.0607413
122	0xbd84a586	-0.064768836
123	0x3d4aced0	0.049513638
124	0x3d6b0b9e	0.057384126
125	0xbd082b4b	-0.033244412
126	0x3d5b65f7	0.053564038
127	0xbd23d2f4	-0.039996102
128	0x3d422ea9	0.04740778
129	0xbd73a430	-0.059482753
130	0xbdae0f6f	-0.084990375
131	0x3c91e026	0.017807078
132	0x3c2b3919	0.010450625
133	0x3c610643	0.013734403
134	0x3d48e747	0.04904869
135	0x3d63b08a	0.055588283
136	0xbd84c793	-0.06483378
137	0x3da8f461	0.082497366
138	0xbd60d98e	-0.054894976
139	0x3debabce	0.115073785
140	0x3dc7d99e	0.09758304
141	0xbcc5046a	-0.024049956
142	0xbd73a126	-0.059479855
143	0xbd0c106c	-0.03419535
144	0x3d166d85	0.03672554
145	0x3d05cdaa	0.03266684
146	0x3da4d329	0.08048088
147	0x3b0080a6	0.001960793
148	0xbdda2bff	-0.10652923
149	0x3ceddc60	0.029035747
150	0x3c591026	0.013248479
151	0x3c18443b	0.009293611
152	0xbdc657b9	-0.096847005
153	0x3da7ec9d	0.08199427
154	0x3d21c832	0.03949756
155	0xbce261e7	-0.027634574
156	0xbca963b4	-0.020677425
157	0xbdac5fd7	-0.084167175
158	0xbd27d46f	-0.040974077
159	0xbdb2b00e	-0.08724986
160	0x3d482d28	0.04887119
161	0xbcf05e9a	-0.029341985
162	0x3b9a4298	0.0047076456
163	0xbba2da57	-0.004969876
164	0xbd425a75	-0.047449548
165	0xbd309073	-0.043106508
166	0xbbab45c0	-0.0052268207
167	0x3d83ddfc	0.064388245
168	0xbcc8a876	-0.024494391
169	0xbdec9de0	-0.1155355
170	0xbd86161c	-0.06547186
171	0xbda7ebc7	-0.08199268
172	0xbd314c29	-0.043285523
173	0x3db9dd87	0.09075456
174	0x3d59ec3e	0.053203814
175	0x3d707714	0.05870731
176	0x3d1e18ba	0.0385978
177	0xbd479865	-0.04872932
178	0xbdc127fc	-0.094314545
179	0x3d8ea752	0.069655076
180	0xbcf2da4b	-0.029645106
181	0x3bf71bac	0.0075411405
182	0xbdb9f539	-0.09079976
183	0x3d341c4b	0.043972295
184	0x3ccd549a	0.025064755
185	0xbd9da2ea	-0.07697089
186	0x3d7e7e3d	0.06213211
187	0xbdc18b1f	-0.09450363
188	0x3d822f42	0.0635667
189	0xbd5db135	-0.054124076
190	0xbd13efca	-0.036117353
191	0x3b1b2a75	0.002367643
192	0xb9ab56bb	-0.0003268028
193	0xbc9148bc	-0.017734878
194	0xbd5f12b3	-0.054461192
195	0x3d59fccc	0.0532196
196	0xbd8cb3d8	-0.0687024
197	0x3dbbd10a	0.091707304
198	0xbcf375fd	-0.029719347
199	0x3d7da820	0.061927915
200	0x3d2ef8d2	0.042717762
201	0x3dabf9d4	0.0839726
202	0x3dee4a2c	0.11635241
203	0xbc88fea3	-0.016722983
204	0x3dae48fb	0.08510014
205	0xbd70bac0	-0.05877185
206	0x3d3b32f4	0.04570289
207	0xbcfccdcf	-0.030859856
208	0x3d8af40b	0.06784829
209	0xbd731a02	-0.059350975
210	0x3d87be6b	0.06628116
211	0x3dc7f951	0.0976435
212	0xbc2d1321	-0.010563643
213	0x3b18ff67	0.002334559
214	0xbdb31d03	-0.08745768
215	0xbcc1a19d	-0.023636634
216	0xbc4d2aab	-0.01252238
217	0x3d8b8084	0.06811622
218	0xbc5fd962	-0.013662668
219	0xbdb0d52c	-0.08634409
220	0xbdd19d5b	-0.10235091
221	0x3d529044	0.051407114
222	0x3dd9db61	0.10637546
223	0xbd12f8f0	-0.035881937
224	0xbda129c5	-0.07869295
225	0x3d3afcfc	0.04565142
226	0x3dc549da	0.09633227
227	0xbdb507b5	-0.088393606
228	0xbd304441	-0.043033842
229	0xbcf67081	-0.030082943
230	0xbc2d8cd0	-0.010592654
231	0x3d8254a6	0.06363802
232	0xbd03306c	-0.0320286
233	0x3ce94fd0	0.02848044
234	0x3d82249d	0.0635464
235	0x3d8eb563	0.069681905
236	0x3dca750d	0.09885607
237	0xbcf5cfa4	-0.030006237
238	0xbdba894a	-0.09108217
239	0x3d7646f6	0.060126267
240	0x3d9d7fbb	0.07690378
241	0x3cb8cf5e	0.022559818
242	0xbd7f0ef9	-0.06227014
243	0xbce26ead	-0.027640665
244	0xbdd056e5	-0.10172824
245	0x3c8a76de	0.016902383
246	0xbd5933de	-0.05302798
247	0xbdc87af5	-0.09789077
248	0xbcd119cc	-0.025524996
249	0xbcc63804	-0.024196632
250	0x3d941da0	0.07232213
251	0xbb0b436d	-0.0021249906
252	0xbd02f3c1	-0.031970743
253	0x3dc760de	0.09735273
254	0x3d97e1d6	0.07416122
255	0x3d9ce6e8	0.07661229

conv.4.bias f4 [64]
0	0x3d9eb64e	0.077496156
1	0xbd0d50b7	-0.034500804
2	0xbc7ae1d0	-0.015312627
3	0xbd881a2b	-0.06645616
4	0x3d754a93	0.059885573
5	0x3d9ec920	0.07753205
6	0x3d64e47e	0.05588197
7	0x3dc76609	0.097362585
8	0x3d9952b8	0.074864805
9	0x3d95f65b	0.07322379
10	0xbb408384	-0.0029375264
11	0xbdbc93ab	-0.09207853
12	0x3d143113	0.036179613
13	0x3b9ac7b0	0.0047235116
14	0x3d708277	0.05871817
15	0xbd91cc0e	-0.071189985
16	0xbd54be40	-0.05193925
17	0xb9db1589	-0.0004178698
18	0x3d43f161	0.04783762
19	0xbca51ad9	-0.020154404
20	0xbdadbf58	-0.084837615
21	0x3c0fdf1d	0.008781222
22	0x3d2d9bfa	0.04238508
23	0x3d5151d2	0.05110342
24	0x3d17721a	0.03697405
25	0x3d14cd47	0.03632858
26	0x3daa82aa	0.083257034
27	0xbc667693	-0.014066356
28	0xbc22a7c6	-0.009927696
29	0x3da82a30	0.082111716
30	0xbd53d4d4	-0.05171664
31	0x3d686647	0.056738164
32	0xbcefc847	-0.029270304
33	0x3d184241	0.03717256
34	0xbda45142	-0.08023311
35	0x3dc19d47	0.094538264
36	0x3dbb0f10	0.09133732
37	0xbd7b4328	-0.061343342
38	0x3daf27d8	0.085525215
39	0x3dc23617	0.09482973
40	0x3cf523f2	0.029924367
41	0xbd03326a	-0.0320305
42	0x3db1e898	0.08686942
43	0x3c109bd6	0.008826217
44	0x3d795af3	0.06087775
45	0xbd1a63b6	-0.037692748
46	0xbd12ee88	-0.035872012
47	0x3d89185d	0.066941
48	0xbc9d238f	-0.019181995
49	0xbba3982e	-0.0049925065
50	0x3cbbb094	0.022911347
51	0xbb529365	-0.003213131
52	0x3c83d42f	0.016092388
53	0xbd7ff65a	-0.0624908
54	0xbcee05fa	-0.029055584
55	0x3d33f75e	0.04393708
56	0x3d5671f2	0.05235476
57	0x3c66a4a2	0.014077337
58	0xbdcd0638	-0.10010952
59	0xbc2cee5c	-0.010554876
60	0x3da0be27	0.07848769
61	0x3d084f96	0.033279024
62	0xbdbfc8c6	-0.09364466
63	0x3dc4813f	0.09594964

conv.5.weight f4 [64]
0	0x3f7f7e99	0.9980255
1	0x3f7da3f7	0.99078315
2	0x3f801241	1.0005571
3	0x3f80e6b4	1.0070405
4	0x3f7b6ef3	0.9821617
5	0x3f8207cf	1.0158633
6	0x3f7ca1ba	0.98684275
7	0x3f7c8741	0.9864388
8	0x3f818f4b	1.0121855
9	0x3f81024a	1.0078824
10	0x3f7cfd02	0.9882356
11	0x3f7fb79b	0.99889535
12	0x3f812e46	1.0092247
13	0x3f7e3808	0.99304247
14	0x3f8078d2	1.0036871
15	0x3f803da9	1.0018817
16	0x3f7f6d1d	0.9977587
17	0x3f80b3d6	1.0054882
18	0x3f7bd374	0.98369527
19	0x3f7d52c6	0.9895443
20	0x3f7bb747	0.98326534
21	0x3f7e91d1	0.9944125
22	0x3f818df0	1.0121441
23	0x3f7ce6d0	0.9878969
24	0x3f80b546	1.005532
25	0x3f80a19e	1.0049322
26	0x3f80c8bc	1.0061259
27	0x3f8089ad	1.0042015
28	0x3f7b4c61	0.9816342
29	0x3f80b64d	1.0055634
30	0x3f7d81e5	0.9902633
31	0x3f7d5ae0	0.9896679
32	0x3f7d6e89	0.9899679
33	0x3f7e848c	0.99421
34	0x3f808e1e	1.0043371
35	0x3f7efcbd	0.996044
36	0x3f7dae95	0.99094516
37	0x3f80f515	1.0074793
38	0x3f7e1e3d	0.9926489
39	0x3f7af2f2	0.98026955
40	0x3f7babdc	0.9830911
41	0x3f7c5d00	0.98579407
42	0x3f7cb2ef	0.9871053
43	0x3f80e57a	1.0070031
44	0x3f8162f8	1.0108328
45	0x3f80da2f	1.0066584
46	0x3f80a212	1.004946
47	0x3f7c66ac	0.98594165
48	0x3f815bed	1.0106179
49	0x3f7e4a97	0.99332565
50	0x3f80f745	1.0075461
51	0x3f7c64ac	0.98591113
52	0x3f7bb082	0.98316205
53	0x3f8111f8	1.0083609
54	0x3f7d9fda	0.9907204
55	0x3f7d3163	0.98903483
56	0x3f7e2792	0.9927913
57	0x3f8148ad	1.0100304
58	0x3f7d42ff	0.9893035
59	0x3f7f61a9	0.9975839
60	0x3f80bfa2	1.0058482
61	0x3f7d36d0	0.9891176
62	0x3f8036fa	1.0016778
63	0x3f7f93ae	0.99834716

conv.5.bias f4 [64]
0	0xbbf6fae2	-0.007537232
1	0xbc49947d	-0.012303469
2	0x3a37db09	0.0007013535
3	0x3bce2766	0.0062913178
4	0xbc83919e	-0.016060647
5	0x3c6c8cb6	0.014437845
6	0xbc4bd91a	-0.012441898
7	0xbc836ce8	-0.016043141
8	0x3c10af1f	0.008830815
9	0x3ba06b0e	0.0048955744
10	0xbc0c2680	-0.008554101
11	0x3b089548	0.0020840932
12	0x3c34cc78	0.011035077
13	0xbc057dcc	-0.008147668
14	0x3890fca0	6.91351e-05
15	0x3b46cb0e	0.0030333432
16	0x3a7ec8fe	0.0009719281
17	0x3c2b86e3	0.010469171
18	0xbc6e5468	-0.014546491
19	0xbbd7da2d	-0.006587288
20	0xbc9ba330	-0.018998712
21	0xbc1087ff	-0.0088214865
22	0x3c17ce97	0.009265563
23	0xbc8a0243	-0.016846782
24	0x3c0586aa	0.008149782
25	0x3a91f0e2	0.0011134411
26	0x3b4ecd35	0.0031555418
27	0x3ba54a19	0.0050442335
28	0xbca49d99	-0.02009468
29	0x3b955032	0.004556679
30	0xbc319bab	-0.010840337
31	0xbc6cf441	-0.014462532
32	0xbc19779d	-0.009366897
33	0xbbf1688f	-0.0073672007
34	0xba2f91ad	-0.00066974276
35	0xbbbd2e2d	-0.005773327
36	0xbc34f5ac	-0.011044901
37	0x3bc19814	0.0059080217
38	0xbbb0495f	-0.0053798403
39	0xbc7a746f	-0.015286549
40	0xbcab5d94	-0.020918645
41	0xbc6bd9aa	-0.014395157
42	0xbc6f893c	-0.014620122
43	0x3bbe00db	0.005798442
44	0x3ba8ae4d	0.0051477314
45	0x3bb483d9	0.0055088815
46	0x3c09dd07	0.008414513
47	0xbc4c9726	-0.0124872085
48	0x3c8786e8	0.01654382
49	0xbc11f848	-0.0089092925
50	0x3c0f161f	0.008733301
51	0xbc73b797	-0.014875314
52	0xbc83051f	-0.015993653
53	0x3c1b31ad	0.009472293
54	0xbc2fb514	-0.010724325
55	0xbc4b89e9	-0.012423017
56	0xbb8e11e2	-0.004335628
57	0x3c13368b	0.008985172
58	0xbc570b37	-0.013125232
59	0x3a4b42e8	0.0007753805
60	0x3bcc7453	0.006239453
61	0xbc0e3aa3	-0.008680972
62	0xbad54dca	-0.0016273793
63	0xbac5c048	-0.0015087212

conv.5.running_mean f4 [64]
0	0x3f48a169	0.7837129
1	0x3db2e340	0.08734751
2	0x3e8b968b	0.27263293
3	0xbd3b6c0d	-0.045757342
4	0x3f3b4b1c	0.7316148
5	0x3d2476ae	0.040152244
6	0x3f5cf827	0.8631615
7	0x3ec32546	0.38114375
8	0x3e82d660	0.2555418
9	0xbdf0b9c2	-0.117541805
10	0x3f6dc433	0.928775
11	0xbe8a963b	-0.27067742
12	0x3e95db15	0.2926871
13	0x3da55892	0.08073534
14	0xbe9c2db9	-0.30503634
15	0xbe41cc4b	-0.18925588
16	0xbf327576	-0.6971048
17	0xbedf7ab0	-0.4364829
18	0xbe012dee	-0.12615177
19	0xbed4d68d	-0.4156994
20	0xbf21818a	-0.63088286
21	0xbefd9f70	-0.49535704
22	0xbe2d4201	-0.1691971
23	0xbe9eacf7	-0.30991337
24	0x3e86e1b8	0.26344085
25	0x3dbaa225	0.09112958
26	0xbe24627b	-0.16053192
27	0xbdd66bc9	-0.10469777
28	0xbea74e7e	-0.32677072
29	0x3de5bcec	0.112176746
30	0xbb50fe1e	-0.0031889747
31	0xbe8e2df9	-0.2776945
32	0xbf90d986	-1.1316383
33	0xbf38b2d6	-0.7214788
34	0x3d95eb0a	0.07320221
35	0x3f2bdc3b	0.6713292
36	0x3e273aed	0.16331072
37	0x3e240a68	0.16019595
38	0x3dc6164d	0.09672222
39	0x3e255b46	0.161481
40	0xbe12146d	-0.14265604
41	0xbee71237	-0.45131084
42	0xbe88e60f	-0.2673802
43	0xbc69cfc5	-0.0142707275
44	0x3f00a606	0.5025333
45	0xbf03389e	-0.51258266
46	0x3e941609	0.2892306
47	0xbe3e5c1f	-0.18589829
48	0xbe010e13	-0.12603025
49	0xbcbef821	-0.023311676
50	0xbee6a550	-0.45047998
51	0xbe976e88	-0.29576516
52	0xbdda5b52	-0.10661949
53	0xbe34d99e	-0.1766114
54	0x3eea9839	0.45819262
55	0xbe4809e5	-0.19535024
56	0x3ecbb923	0.39789686
57	0xbd7153bb	-0.058917742
58	0xbf09f87c	-0.5389478
59	0xbed7de2a	-0.42161685
60	0x3f3dc441	0.74127585
61	0x3ec53217	0.38514778
62	0xbec08455	-0.3760096
63	0x3db2bb52	0.08727135

conv.5.running_var f4 [64]
0	0x3e2a0845	0.16604717
1	0x3e0c4573	0.13698368
2	0x3e2d4f35	0.16924746
3	0x3e1a7bf9	0.15086354
4	0x3e05cf3f	0.1306734
5	0x3e43f38d	0.19135876
6	0x3e236e5a	0.15960065
7	0x3e2d0a86	0.16898546
8	0x3e29c843	0.165803
9	0x3e4874c9	0.195758
10	0x3e278dfa	0.16362754
11	0x3e0160f9	0.12634648
12	0x3e28e73f	0.16494463
13	0x3e324697	0.1740974
14	0x3e12b729	0.14327683
15	0x3e2ae70b	0.16689698
16	0x3e1fd896	0.15609965
17	0x3e2cb0e6	0.16864356
18	0x3e201dbe	0.15636346
19	0x3e2ced87	0.16887484
20	0x3e1279fc	0.14304346
21	0x3e1f7164	0.15570599
22	0x3e14c11e	0.14526793
23	0x3e320061	0.17382957
24	0x3e233113	0.15936689
25	0x3e03eacb	0.12882535
26	0x3e10dba0	0.1414628
27	0x3de8e1c9	0.1137119
28	0x3e357f39	0.17724313
29	0x3e1b776a	0.15182272
30	0x3e20aa9a	0.1569008
31	0x3e1bc4fc	0.15211862
32	0x3e1a2903	0.15054707
33	0x3e1e35da	0.1545023
34	0x3e1e9899	0.15487899
35	0x3e26592b	0.16244952
36	0x3e1eb544	0.15498835
37	0x3e17a72f	0.14809869
38	0x3e3068a4	0.17227417
39	0x3e2e2f97	0.17010342
40	0x3e1b0289	0.15137686
41	0x3e3b5186	0.18292817
42	0x3e32310d	0.17401524
43	0x3e0e9f04	0.13927847
44	0x3e0e1363	0.13874583
45	0x3e2f18ec	0.1709935
46	0x3e10e5e4	0.14150196
47	0x3e1ef100	0.15521622
48	0x3e207d4a	0.15672794
49	0x3e22aeb6	0.1588696
50	0x3e2af311	0.16694285
51	0x3e145c05	0.14488228
52	0x3e124b97	0.14286648
53	0x3e1ee3d9	0.15516604
54	0x3e1548d0	0.14578557
55	0x3e2b0927	0.1670271
56	0x3e1f527a	0.15558806
57	0x3e05b012	0.13055447
58	0x3e0fbb24	0.14036232
59	0x3e27608d	0.16345425
60	0x3e1bad84	0.1520291
61	0x3e1ad3e8	0.15119898
62	0x3e3775f0	0.17916083
63	0x3e2e9a1f	0.1705098

lstm.weight_ih_l0 f4 [256, 64]
0	0x3d236352	0.03988964
1	0xbcebe799	-0.028796958
2	0x3d477035	0.048690993
3	0x3d813557	0.06309002
4	0xbd1cd708	-0.038291007
5	0xbd8d1927	-0.06889563
6	0x3dc909c8	0.09816319
7	0x3bdab8a1	0.0066748415
8	0x3d1a9b13	0.037745547
9	0xbdfb00c1	-0.12256003
10	0xbc05691b	-0.008142735
11	0x3d787fb1	0.06066865
12	0x3cc473b2	0.02398095
13	0xbc9c3645	-0.019068846
14	0x3dcb9d8d	0.0994216
15	0x3d331278	0.043718785
16	0xbd968f14	-0.07351509
17	0x3d747b82	0.0596881
18	0xbdd63517	-0.10459345
19	0xbcd93af4	-0.026517369
20	0xbd3444f1	-0.04401106
21	0xbc514ee3	-0.012775156
22	0xbd12c42e	-0.035831623
23	0x3db0adb3	0.086268805
24	0x3dbde448	0.09272057
25	0x3cfd3409	0.030908601
26	0x3c6c0b05	0.014406924
27	0x3dce5b03	0.10075953
28	0x3dd4294f	0.103594415
29	0xbd54f272	-0.051989026
30	0x3db0117b	0.08597084
31	0xbda8bbe3	-0.082389615
32	0xbcd7b621	-0.026331963
33	0xbd2fb4d1	-0.04289705
34	0xbd35e165	-0.044404406
35	0xbdb2cb0c	-0.08730134
36	0x3d7cc513	0.061711382
37	0x3dacf930	0.08445966
38	0xbce5e389	-0.028062599
39	0x3c3911bc	0.011295732
40	0x3da56f4e	0.0807787
41	0xbe048695	-0.12941964
42	0xbd968763	-0.07350042
43	0xbdb64992	-0.08900751
44	0xbdbed99a	-0.09318848
45	0xbcccd571	-0.02500412
46	0x3d0ab9eb	0.03386871
47	0xbd324867	-0.04352608
48	0x3d23377e	0.039847843
49	0x3d91195a	0.070849136
50	0x3dbe52ed	0.092931606
51	0xbdc5bf37	-0.09655612
52	0xbdca29bc	-0.098712415
53	0x3d63d228	0.055620342
54	0xbdd76ec3	-0.10519173
55	0xbd5f472b	-0.05451123
56	0xbbc0b059	-0.0058803973
57	0xbd389ebc	-0.045073256
58	0x3c6641b7	0.014053754
59	0x3dbe76b4	0.092999846
60	0x3bdc7fd9	0.006729108
61	0x3d8ffaa4	0.07030228
62	0xbcd2ff1b	-0.02575641
63	0x3dd0b2c1	0.101903446
64	0xbd8410cb	-0.064485155
65	0x3dac040b	0.08399209
66	0x3dfd5f4a	0.123716906
67	0x3d50af75	0.05094858
68	0xbd59a5be	-0.05313658
69	0x3dca055f	0.09864306
70	0xbde7de76	-0.11321728
71	0x3dfa3b58	0.1221835
72	0x3d349c78	0.044094533
73	0xbd35eb40	-0.044413805
74	0xbdef20f7	-0.116762094
75	0x3ce42278	0.027848467
76	0x3c927819	0.017879533
77	0x3de0cf02	0.109769836
78	0x3dfaa1d6	0.12237899
79	0xbc4fa6eb	-0.012674074
80	0x3dea3ced	0.11437402
81	0x3cac9e55	0.021071592
82	0xbb093661	-0.0020936953
83	0x3dc0cf35	0.094145216
84	0xbdce1457	-0.10062473
85	0x3d07f9f8	0.033197373
86	0xbdc958ae	-0.098313674
87	0x3d7a5003	0.06111146
88	0xbdf6596c	-0.120287746
89	0xbd766f89	-0.060164962
90	0xbcc75b5d	-0.024335558
91	0x3ddc4426	0.10755186
92	0x3db0834c	0.08618793
93	0x3c6c437b	0.0144203855
94	0x3db1db69	0.08684427
95	0x3cf225dd	0.02955907
96	0xbdb5f975	-0.08885471
97	0xbc9c87ba	-0.019107688
98	0xbd3725da	-0.044713832
99	0x3df3aa56	0.118977234
100	0xbc8d27cf	-0.017230896
101	0xbdb85812	-0.09001173
102	0xbc653827	-0.013990439
103	0x3df16ff2	0.1178893
104	0x3d99c415	0.07508103
105	0xbdbf443b	-0.09339186
106	0xbd01862e	-0.031622104
107	0x3d9bd6b3	0.0760931
108	0xbd9a090b	-0.07521256
109	0xbd428465	-0.047489543
110	0x3c551e70	0.013007745
111	0xbc97e794	-0.018543042
112	0x3ce91464	0.028452106
113	0xbdbeed6b	-0.09322628
114	0x3dd86f78	0.10568136
115	0x3ddfff4c	0.10937366
116	0xbd2c8579	-0.042119477
117	0x3db74a24	0.08949688
118	0x3cc221b6	0.023697715
119	0xbb0f6d18	-0.0021885093
120	0x3d7fdbf7	0.062465634
121	0x3d0bba5e	0.03411328
122	0xbdd3a25a	-0.103337005
123	0xba5bb3ad	-0.0008380961
124	0xbd0f16f7	-0.03493401
125	0xbbbc8113	-0.0057526915
126	0x3d92a5bb	0.07160517
127	0x3d95ecb2	0.07320537
128	0x3dc093bf	0.0940318
129	0x3d3a93f1	0.045551244
130	0xbd181116	-0.03712567
131	0x3d9f3691	0.077740796
132	0xbd97cae4	-0.07411745
133	0xbd10c4c6	-0.035343908
134	0xbd43fd84	-0.047849193
135	0x3dd1b19f	0.10238957
136	0xbe097cd3	-0.13426523
137	0x3d378ba5	0.04481091
138	0xbdaaa4da	-0.08332224
139	0x3d763545	0.060109396
140	0x3c983555	0.018580118
141	0x3d0e28be	0.034706824
142	0xbe06b2c8	-0.13154137
143	0xbc9e4a10	-0.019322425
144	0xbd8ddb52	-0.06926598
145	0xbd6839a0	-0.05669558
146	0x3da05f10	0.07830632
147	0xbdb8321c	-0.089939326
148	0x3d872fd6	0.06600921
149	0xbd503d01	-0.050839428
150	0xbd61fe6a	-0.05517427
151	0x3d09ae77	0.03361365
152	0xbd5b1e4d	-0.053495694
153	0x3dfcc31e	0.12341903
154	0x3ddb5773	0.10710039
155	0xbd04e2ba	-0.032442786
156	0x3d49a142	0.049226053
157	0x3ddb5f93	0.10711589
158	0xbd30cb82	-0.04316283
159	0x3de6070a	0.11231811
160	0x3d753bff	0.05987167
161	0x3deb074a	0.11476
162	0x3bd2fb52	0.006438651
163	0xbc5e0394	-0.013550658
164	0xbddbf2f1	-0.10739697
165	0xbdcc34d6	-0.09971015
166	0x3dd6ef42	0.104948536
167	0x3cc17aa3	0.023618048
168	0xbc27105c	-0.0101967715
169	0x3c576abd	0.013148007
170	0x3c93085b	0.01794832
171	0x3cb48306	0.022035133
172	0x3d0bf8f5	0.03417297
173	0x3bd3633d	0.006451039
174	0x3d34b7b0	0.04412049
175	0x3daff422	0.085914865
176	0x3da6467e	0.08118914
177	0x3d5b7555	0.053578693
178	0xbcd61767	-0.026134206
179	0x3d1213de	0.035663478
180	0xbda486b4	-0.08033505
181	0x3db9a8f0	0.090654254
182	0x3b76cc36	0.003765834
183	0xbd80bd08	-0.06286055
184	0xbd2bfbc9	-0.041988168
185	0x3da22b13	0.07918372
186	0x3db688d7	0.08912819
187	0x3cf5baac	0.029996239
188	0xbdbcaae8	-0.09212285
189	0xbe018288	-0.1264745
190	0x3d381dfa	0.044950463
191	0xbd6cb069	-0.057785425
192	0x3d71810b	0.058960956
193	0xbc10dc97	-0.008841655
194	0x3c5faa5c	0.013651457
195	0x3dbfbe9e	0.09362529
196	0xbc2dc97e	-0.0106071215
197	0xbc86b247	-0.016442431
198	0xbe07383c	-0.13205045
199	0x3bbc8754	0.005753437
200	0xbdbc00ef	-0.091798656
201	0xbe0041cc	-0.125251
202	0x3c9df9cb	0.01928415
203	0xbdb9f874	-0.09080592
204	0x3b05bfd5	0.002040853
205	0x3dd77a46	0.10521369
206	0x3d8013bd	0.06253765
207	0x3d68042e	0.05664461
208	0x3cb1b100	0.021690845
209	0x3da89499	0.08231468
210	0xbdf148f9	-0.117814966
211	0x3c3fd778	0.011709087
212	0x3d59d864	0.05318488
213	0x3c311612	0.010808485
214	0x3d794f8f	0.06086689
215	0x3d86f4c7	0.06589656
216	0x3ce6c619	0.028170632
217	0x3dd6e236	0.10492365
218	0xbd56c043	-0.05242945
219	0xbdfb04ed	-0.12256799
220	0x3d69cbe3	0.057079207
221	0xbdefe5d9	-0.11713762
222	0xbd2d995d	-0.042382587
223	0xbbea54e4	-0.007151233
224	0x3dd199a9	0.102343865
225	0x3cf3dd8c	0.029768728
226	0xbdb4116c	-0.087923855
227	0xbd126477	-0.035740342
228	0xbd1e6366	-0.038669012
229	0xbdbc4799	-0.09193344
230	0xbde7c527	-0.11316901
231	0xbd52fb94	-0.051509455
232	0xbd847cb5	-0.064690985
233	0x3c7ee577	0.015557638
234	0xbc19c67a	-0.009385699
235	0xbd111595	-0.035420973
236	0xbd927a4e	-0.07152234
237	0x3c8fc808	0.017551437
238	0xbb5fbf11	-0.0034140984
239	0xbd1eca54	-0.038767174
240	0x3dc84f6f	0.09780776
241	0x3d387c66	0.04504051
242	0xbcb383ca	-0.021913428
243	0xbd934c75	-0.071923174
244	0x3dca12c6	0.09866862
245	0xbd0a5de1	-0.033780936
246	0x3cbec725	0.023288319
247	0x3db18d2e	0.08669506
248	0x3d8dbc6f	0.069207065
249	0x3c831432	0.01600084
250	0x3c9998ed	0.018749679
251	0x3dae8e82	0.08523275
252	0x3c43bf27	0.01194743
253	0x3d294f21	0.04133523
254	0xbe0ab716	-0.13546404
255	0xbdb84c73	-0.089989565

lstm.weight_hh_l0 f4 [256, 64]
0	0xbdbebb8f	-0.09313118
1	0x3dc85121	0.09781099
2	0xbb22af35	-0.002482367
3	0x3cf9ac2d	0.030477608
4	0xbd1dd749	-0.03853539
5	0x3dbee159	0.093203254
6	0x3db6f415	0.08933274
7	0xbda55047	-0.08071952
8	0xbcbd39af	-0.023098795
9	0x3c40a3ef	0.011757835
10	0x3d22097a	0.03955982
11	0x3d08659a	0.03330002
12	0x3ba277ae	0.0049581146
13	0xbc57ef78	-0.013179652
14	0xbd515ada	-0.051112033
15	0xbd1c0ca0	-0.038097978
16	0x3cb720f5	0.022354582
17	0xbd866632	-0.06562461
18	0xbdd385f8	-0.10328287
19	0xbd8f406b	-0.069947086
20	0x3bc1b644	0.0059116203
21	0xbdbc7647	-0.09202247
22	0xbd848f2e	-0.06472622
23	0xbd99e5a6	-0.07514505
24	0xbdabb1a2	-0.0838349
25	0x3c594493	0.013260978
26	0xbd3effde	-0.046630733
27	0x3d3f2021	0.0466615
28	0x3dadac38	0.08480114
29	0x3d9c5b80	0.0763464
30	0xbd1abc9d	-0.037777532
31	0xbd33e880	-0.0439229
32	0xbd782d61	-0.06059015
33	0xbc22233c	-0.009896096
34	0x3d09ccb3	0.033642482
35	0x3d82b60d	0.0638238
36	0x3d0eacba	0.034832694
37	0xbd8e5cb3	-0.06951275
38	0xbdd40cf2	-0.103540316
39	0x3c7c89a1	0.015413673
40	0xbdfa964c	-0.12235698
41	0xbdeab94b	-0.11461123
42	0xbd8c9b4d	-0.06865559
43	0x3ddef971	0.10887421
44	0xbdff034d	-0.124518014
45	0x3d324fe9	0.04353324
46	0xbd1b4e1f	-0.0379163
47	0xbd3a8cab	-0.045544308
48	0xbd1007cf	-0.035163697
49	0x3de8c4b9	0.11365647
50	0xb9da77fe	-0.000416696
51	0x3dc65347	0.09683853
52	0xbc97373f	-0.01845896
53	0x3dfcd583	0.12345412
54	0x3ba8eec4	0.005155416
55	0xbd0cf682	-0.034414776
56	0xbd68b225	-0.056810517
57	0xbcd92e53	-0.026511347
58	0x3df59ba6	0.11992578
59	0x3d96eb82	0.07369138
60	0xbd690c5d	-0.056896556
61	0x3d5590fa	0.052140214
62	0x3dce05e3	0.100597166
63	0x3d1fff7e	0.039062016
64	0xbdb7eb17	-0.08980387
65	0x3de40493	0.11133685
66	0xbd08f002	-0.033432014
67	0x3db95903	0.09050181
68	0x3dbd01a9	0.09228832
69	0x3dea2f34	0.114347845
70	0xba0e460e	-0.0005427309
71	0x3da470b8	0.08029312
72	0x3db162ac	0.08661398
73	0x3d132eaf	0.035933193
74	0x3debc269	0.1151169
75	0xbd45a02a	-0.048248447
76	0xbc8237a1	-0.015895667
77	0xbd85d47f	-0.06534671
78	0xbd3c98d3	-0.046044182
79	0x3d911c78	0.07085508
80	0x3ddd4ec5	0.1080604
81	0x3ddab501	0.10679055
82	0x3d814870	0.063126445
83	0x3dd16682	0.1022463
84	0x3b35dc52	0.002774973
85	0x3dd3f43b	0.10349318
86	0xbd3ad72f	-0.04561537
87	0x3c64d7af	0.013967439
88	0xbd942cdb	-0.07235118
89	0xbc8cd4bc	-0.017191283
90	0x3d2c7895	0.042107183
91	0xbdd03509	-0.10166366
92	0x3d38cf67	0.04511967
93	0x3cf2cc91	0.02963856
94	0xbcf751a5	-0.030190298
95	0xbcf74859	-0.030185865
96	0x3d17a6e3	0.03702439
97	0xbdcbf23a	-0.099583104
98	0x3ca0a16c	0.019608222
99	0x3da7dd44	0.081965
100	0x3c1cb8d1	0.009565548
101	0xbddba0bf	-0.10724019
102	0x3d65d96f	0.056115564
103	0x3ce83f89	0.028350608
104	0x3e08e147	0.13367186
105	0x3d7f0188	0.06225732
106	0xbd943769	-0.07237131
107	0x3de8304c	0.11337337
108	0x3ddde1c1	0.10834075
109	0xbdd265ad	-0.10273299
110	0xbd6f3e9a	-0.05840931
111	0x3d9b5845	0.075851955
112	0x3ce662ab	0.02812322
113	0x3de1eb6e	0.11031233
114	0x3c974bbe	0.018468734
115	0xbd3520ef	-0.04422086
116	0x3de98bad	0.11403594
117	0xbc5cc872	-0.013475524
118	0x3d07275f	0.03299653
119	0x3d2d42e8	0.042300135
120	0x3d9b1def	0.07574069
121	0x3da6edab	0.081508
122	0xbd121e9f	-0.035673734
123	0x3df4853e	0.119394764
124	0x3a6ac451	0.0008955645
125	0xbc36101f	-0.011112242
126	0xbd1f7f2b	-0.038939636
127	0x3a98fa11	0.0011671205
128	0xbd47245b	-0.048618656
129	0x3d8d002d	0.06884799
130	0x3cfa3d04	0.030546673
131	0x3d7fe797	0.06247672
132	0xbd93a9e1	-0.07210136
133	0x3a839de9	0.0010041568
134	0xbcd9010a	-0.026489753
135	0x3c003efc	0.007827517
136	0x3d4ca82b	0.049965065
137	0xbd9b92d1	-0.075963624
138	0x3d96cced	0.07363305
139	0x3d03b3c3	0.032153856
140	0xbdc75f59	-0.09734983
141	0x3de2f97e	0.11082743
142	0xbc8e2441	-0.017351272
143	0x3d8353da	0.06412478
144	0x3c60443c	0.013688143
145	0xbceb23c8	-0.028703585
146	0x3d940575	0.07227603
147	0x3c7bf02d	0.015377087
148	0xbdb9e6dd	-0.09077237
149	0xbdc40ffa	-0.0957336
150	0xbac0f31f	-0.0014720893
151	0xbda9832c	-0.08276972
152	0x3e023dbc	0.12718862
153	0xbda9a8d9	-0.08284158
154	0x3d3238a7	0.04351106
155	0x3dd0c584	0.10193923
156	0xbe05655b	-0.13026945
157	0xbd3a5927	-0.04549518
158	0x3d1157ef	0.03548425
159	0xbcce1d76	-0.025160532
160	0x3dd4d220	0.10391641
161	0xbd8173e9	-0.06320936
162	0xbd758674	-0.059942678
163	0xbcec8558	-0.028872177
164	0x3c93f721	0.018062176
165	0x3d8c1a7e	0.068409905
166	0xbd9ef24f	-0.077610604
167	0x3d9ea5ab	0.077464424
168	0xbd4ff7c1	-0.050773386
169	0x3d3fad83	0.046796333
170	0xbd9f8353	-0.0778872
171	0xbe02c015	-0.12768586
172	0x3dc336f3	0.09531965
173	0xbd24a74c	-0.04019861
174	0xbd7ab9f9	-0.061212514
175	0x3d8835d3	0.06650891
176	0xbcb41e54	-0.021987118
177	0xbc6e0dc8	-0.014529653
178	0x3d9f027d	0.077641465
179	0x3db9c66f	0.09071051
180	0x3c50af7a	0.012737149
181	0xbd2bba9c	-0.04192601
182	0x3dd2f1ad	0.10300002
183	0xbddc513f	-0.10757684
184	0xbdd850b4	-0.10562268
185	0xbd20e211	-0.039278094
186	0x3ccb338c	0.024804853
187	0x3da18479	0.07886595
188	0xbd06ca92	-0.03290803
189	0x3c87a2a0	0.016557038
190	0xbc4e2a92	-0.012583392
191	0xbdbc87c0	-0.0920558
192	0xbda206df	-0.07911467
193	0x3dcfe5a3	0.101512216
194	0x3d9d77d5	0.07688872
195	0x3df34698	0.11878699
196	0xbc8a4b4f	-0.016881613
197	0xbdbf4448	-0.093391955
198	0xbccfa67a	-0.025347937
199	0x3af7264c	0.0018856018
200	0x3c872da7	0.01650126
201	0xbc8c8aba	-0.017155994
202	0x3bc04350	0.0058673993
203	0x3cf102ed	0.02942034
204	0x3ba0339c	0.004888965
205	0xbd48ae7d	-0.04899453
206	0xbddef293	-0.10886111
207	0x3db0c065	0.08630446
208	0x3cedb191	0.029015334
209	0xbdaf7441	-0.085670955
210	0xbd13f526	-0.036122464
211	0xbc596171	-0.013267861
212	0xbdac14b9	-0.0840239
213	0x3daced75	0.08443729
214	0xbda19393	-0.07889476
215	0x3c8f3b79	0.017484413
216	0x3deb2b14	0.11482826
217	0x3d430e20	0.047620893
218	0x3d3a55f3	0.045492124
219	0x3c167f45	0.009185617
220	0xbdba8b41	-0.09108592
221	0xbd16ff68	-0.036864668
222	0xbb571a96	-0.0032822243
223	0x3d99093c	0.074724644
224	0xbd96b953	-0.073595665
225	0x3d8dcaac	0.06923422
226	0x3d5ab4ca	0.05339507
227	0x3db95dee	0.09051119
228	0x3d031c9f	0.032009717
229	0xbd7ced5a	-0.061749794
230	0xbd3d9c81	-0.046291832
231	0xbdc6867b	-0.09693619
232	0xbdbd956f	-0.09257018
233	0xbbb1c2e0	-0.0054248422
234	0x3d8820e9	0.06646902
235	0xbbd3c36b	-0.0064625046
236	0x3d7c5e70	0.0616135
237	0x3d1f2e6a	0.038862623
238	0xbd4543e1	-0.048160437
239	0x3b05f96f	0.0020442863
240	0xbd07558c	-0.03304057
241	0xbdde2282	-0.108464256
242	0xbcd0fb30	-0.0255104
243	0x3cf79cb6	0.030226093
244	0x3d3dc9db	0.046335083
245	0xbda04143	-0.07824948
246	0xbd9efb9f	-0.07762837
247	0xbceb5fa2	-0.028732125
248	0xbbfde431	-0.00774815
249	0x3db40c79	0.087914415
250	0xbd63f7df	-0.05565631
251	0xbcf4bf15	-0.029876271
252	0xbe0426fb	-0.12905495
253	0x3d90ea7a	0.07075973
254	0x3c897c97	0.016783042
255	0xbcd61ca2	-0.0261367

lstm.bias_ih_l0 f4 [256]
0	0x3d2aa9be	0.041665785
1	0xbd96e3e9	-0.07367689
2	0xbd88efac	-0.06686339
3	0xbd2a1ace	-0.04152947
4	0xbd3ee9c5	-0.04660966
5	0x3d9b3e35	0.075802244
6	0xbcdfe0fb	-0.027328959
7	0xbc314f69	-0.0108221555
8	0xbc432301	-0.011910201
9	0xbdf4fc69	-0.11962206
10	0xbd3a8b2f	-0.045542892
11	0xbe02a8fa	-0.12759772
12	0xbcc817cb	-0.024425408
13	0xbd6db998	-0.058038324
14	0xbd64aef1	-0.0558309
15	0xbc27d931	-0.010244654
16	0xbd0d6154	-0.034516647
17	0xbd5f2a52	-0.05448372
18	0x3c9a4a20	0.018834174
19	0xbb6cc66b	-0.0036129009
20	0xbcfbf751	-0.030757578
21	0xbd9736c2	-0.07383491
22	0x3c90a8d8	0.017658636
23	0x3caed101	0.021339895
24	0x3d620e64	0.055189505
25	0x3bbfc521	0.005852357
26	0x3dae8e48	0.08523232
27	0x3d843eda	0.064573005
28	0xbde35960	-0.11101031
29	0x3d238568	0.039922148
30	0x3d3e742d	0.046497513
31	0x3cfaf7a1	0.030635657
32	0xbd727ae1	-0.059199218
33	0xbd9b45a2	-0.07581641
34	0xbd69f2a1	-0.057116155
35	0xbd58844f	-0.052860554
36	0x3dd0c748	0.1019426
37	0xbd6bba27	-0.057550576
38	0xbdb39edf	-0.08770537
39	0x3d898002	0.06713869
40	0x3d8630cb	0.06552275
41	0x3da6a0d7	0.081361465
42	0xbd01cada	-0.031687595
43	0xbdcb8bc7	-0.0993877
44	0xbdbd784b	-0.0925146
45	0xbe07354b	-0.13203923
46	0xbcec95e6	-0.02888007
47	0xbbe284e7	-0.006912816
48	0x3d94e734	0.07270661
49	0xbd40f73c	-0.04711078
50	0x3c7723e9	0.015084245
51	0xbce9d54c	-0.02854409
52	0x3d64c9d1	0.05585653
53	0xbd80f59b	-0.062968455
54	0xbd5e2d89	-0.054242644
55	0x3d0ba7c0	0.034095526
56	0x3de5400a	0.11193855
57	0x3d928e98	0.07156104
58	0x3c7b6745	0.015344446
59	0x3dd3a2a5	0.10333756
60	0x3d8f6389	0.07001407
61	0x3d771bd7	0.060329285
62	0xbdcb83a7	-0.0993722
63	0x3d379840	0.04482293
64	0xbd8d2b79	-0.068930574
65	0x3dd03cef	0.10167872
66	0xbd8e3607	-0.06943899
67	0xbd1e705d	-0.038681377
68	0x3d1ff376	0.03905054
69	0x3dc288b0	0.09498727
70	0xbe019add	-0.12656732
71	0xbd3aba3c	-0.045587763
72	0xbcdc14fc	-0.026865475
73	0xbda99a67	-0.08281403
74	0x3d06f048	0.032943994
75	0x3dafbeba	0.085813
76	0x3d35228b	0.044222396
77	0xbce1091a	-0.02747016
78	0xbd870090	-0.06591904
79	0x3d5803e5	0.05273809
80	0x3dafdced	0.0858706
81	0xbdcbfa03	-0.09959795
82	0xbcfdb4a8	-0.030969933
83	0x3d644be2	0.05573643
84	0xbdb40db2	-0.08791675
85	0x3da29e42	0.079403415
86	0xbb824980	-0.003976047
87	0xbdb689d3	-0.08913007
88	0xbd2e3472	-0.042530484
89	0x3d911ee7	0.07085972
90	0xbd6826ba	-0.056677558
91	0x3db0c824	0.08631924
92	0x3d9a57da	0.075362876
93	0xbd7108c9	-0.05884627
94	0xbcc2f83f	-0.023800014
95	0xbc3d1fe2	-0.011543246
96	0x3dc41c14	0.09575668
97	0x3d411bf5	0.047145803
98	0xbe04c577	-0.12965952
99	0x3dc95f75	0.0983266
100	0xbd94d5c2	-0.072673336
101	0xbcbdedd4	-0.023184694
102	0x3dd0d686	0.10197167
103	0x3d837b41	0.06419993
104	0x3db6af1e	0.0892012
105	0x3c3a4577	0.011369101
106	0xb9d58525	-0.00040725726
107	0x3dae8a6f	0.08522498
108	0x3db19565	0.08671073
109	0xbdd4aedb	-0.103849135
110	0xbd1a80e7	-0.037720587
111	0x3c58f384	0.013241652
112	0xbb468e2e	-0.0030297148
113	0xbdc98666	-0.098400876
114	0x3dc860db	0.09784099
115	0xbd0de40f	-0.03464132
116	0x3de95609	0.11393363
117	0xbd4c7878	-0.049919575
118	0xbda68449	-0.081307
119	0x3d6e440f	0.058170374
120	0xbde304f0	-0.11084926
121	0x3dc4ffd1	0.096191056
122	0x3dbbfd60	0.09179187
123	0x3dec10bf	0.115266316
124	0x3dd0dac6	0.10197978
125	0xbe0283b9	-0.1274556
126	0x3d775bda	0.06039033
127	0xbd8c11f2	-0.0683936
128	0xbdba8ea8	-0.09109241
129	0xbd0db2ea	-0.034594454
130	0xbd9ecf50	-0.077543855
131	0x3c314f23	0.01082209
132	0x3d9cc465	0.07654647
133	0xbe024ff1	-0.12725808
134	0xbd1bdfee	-0.038055353
135	0x3dec7e8f	0.11547577
136	0x3aec10dc	0.0018010396
137	0xbdfe03ad	-0.12403045
138	0x3d97339e	0.07382892
139	0x3d9ff13c	0.07809684
140	0xbddfda2c	-0.10930285
141	0xbcb5f681	-0.022212269
142	0x3cb7c733	0.022433853
143	0x3d801bb7	0.06255286
144	0xbdbfbfb6	-0.09362738
145	0xbdeb906f	-0.11502158
146	0x3da6327d	0.081150986
147	0xbd334b63	-0.043773066
148	0x3dc5ae7d	0.096524216
149	0xbdccdb7b	-0.100028
150	0x3e02aa27	0.1276022
151	0xbe043e68	-0.12914431
152	0x3ddb7388	0.10715395
153	0xbd31ed9f	-0.043439504
154	0x3ce7ebbb	0.028310647
155	0x3adb837d	0.0016747561
156	0x3d990c57	0.07473057
157	0x3dea9fd1	0.11456264
158	0xbdcea3f4	-0.10089865
159	0x3d081e46	0.033231996
160	0xbcaaabef	-0.020833937
161	0xbbf91d43	-0.007602365
162	0x3dc01e9d	0.09380839
163	0x3daed5e0	0.08536887
164	0x3d2bf73d	0.04198383
165	0xbdab78ba	-0.08372636
166	0xbce959db	-0.02848523
167	0xbd5c0490	-0.05371529
168	0x3d83df57	0.06439083
169	0x3b68cfee	0.0035524326
170	0xbc501b64	-0.012701843
171	0x3dbc6b46	0.09200148
172	0x3d86761b	0.065654956
173	0xbd2b9fde	-0.041900508
174	0x3d111cf1	0.03542799
175	0x3d7e2434	0.062046245
176	0xbc254151	-0.010086373
177	0xbdeeea98	-0.11665839
178	0x3ade8f94	0.0016980045
179	0xbd2c9f04	-0.042143837
180	0xbd6c3bac	-0.057674095
181	0xbb2caa2e	-0.0026346552
182	0xbdcc41c6	-0.09973483
183	0xbde290b8	-0.11062759
184	0x3d258296	0.04040774
185	0xbd101495	-0.03517588
186	0xbcb7b90e	-0.022427108
187	0x3d12bd67	0.03582516
188	0x3ba5f927	0.0050651017
189	0xbd8e6c52	-0.06954254
190	0x3c0e6ed3	0.008693415
191	0x3d4fa44a	0.050693788
192	0xbaa5ca77	-0.001264884
193	0xbcf5dcf6	-0.030012589
194	0x3cd50edf	0.026008068
195	0xbca800ca	-0.020508189
196	0xbdd2c838	-0.10292095
197	0xbd89e7c9	-0.06733663
198	0x3d89a4af	0.06720864
199	0xbde4f88c	-0.11180219
200	0xbd0c43e2	-0.034244426
201	0xbc9a66df	-0.01884788
202	0xbd941649	-0.07230813
203	0x3cdfd3cf	0.027322678
204	0xbcf36b86	-0.029714357
205	0x3c4bcc65	0.012438868
206	0x3d726d0d	0.05918603
207	0xbe042000	-0.12902832
208	0xbe01947a	-0.12654296
209	0x3cf04ebc	0.029334418
210	0x3d1358a6	0.035973214
211	0x3ce6e9ff	0.02818775
212	0xbd334ad3	-0.04377253
213	0xbe0b4a19	-0.13602485
214	0xbd6051f8	-0.05476567
215	0x3d840a32	0.06447257
216	0xbd6bd308	-0.057574302
217	0xbc17e95e	-0.009271948
218	0x3db8dc99	0.09026451
219	0x3d7d03e2	0.06177128
220	0x3de6c7a0	0.11268544
221	0x3a11351d	0.00055392255
222	0xbde5974d	-0.11210499
223	0xbd51749c	-0.051136598
224	0xbd5f4acf	-0.054514702
225	0x3c9f0a57	0.01941411
226	0xbd9dc79e	-0.077040896
227	0x3dc7383b	0.09727522
228	0x3dc4ceee	0.09609781
229	0xbcb2f7f8	-0.021846756
230	0x3d8a9b2c	0.06767878
231	0x3caf7248	0.021416798
232	0x3c2ca399	0.010537052
233	0x3db326c5	0.08747629
234	0x3c1cf4cb	0.009579848
235	0xbd695658	-0.05696711
236	0x3def51cd	0.11685524
237	0x3d7607d5	0.060066063
238	0x3d8d2315	0.06891457
239	0xbcbb82b6	-0.022889476
240	0x3cd256fa	0.02567624
241	0x3c98ca87	0.01865126
242	0xbddd95b1	-0.10819567
243	0x3df094c4	0.11747125
244	0xbe0148f1	-0.12625481
245	0xbdb20036	-0.086914465
246	0x3de57147	0.112032466
247	0xbc39e1fe	-0.011345385
248	0xbe0009d5	-0.1250375
249	0x3e02246b	0.12709205
250	0x3dd7f8ce	0.105455026
251	0x3d26c254	0.04071267
252	0xbd30cdc3	-0.04316498
253	0x3d539e09	0.051664386
254	0x3d22f009	0.039779697
255	0xbdc211d7	-0.09476059
