checkpoints/xvad_epoch_2.pth (torch, 340597 bytes, 23 tensors)

conv.0.weight f4 [32, 80, 3]
0	0xbda04644	-0.07825902
1	0x3be74596	0.007057856
2	0xbc1bc07d	-0.009506342
3	0xbd17c83f	-0.037056204
4	0xbc8bd265	-0.017068097
5	0xbc3ce22b	-0.011528532
6	0xbbc50226	-0.006012219
7	0x3d889284	0.06668571
8	0xbd7ec150	-0.062196076
9	0xbd44ab6e	-0.04801505
10	0x3d247372	0.04014916
11	0x3cbcbb15	0.023038426
12	0x3d33e8d6	0.04392322
13	0x3d0d9c4c	0.034572884
14	0xbcd90f6e	-0.026496615
15	0xbd832251	-0.0640303
16	0x3ac3a6a2	0.001492698
17	0x3d1788be	0.036995642
18	0x3b2c7c52	0.0026319218
19	0x3cff37cc	0.031154536
20	0xbc4d5518	-0.012532495
21	0xbd21697d	-0.039407242
22	0xbcc2a5ec	-0.023760758
23	0x3cc625fd	0.024188036
24	0x3cccf6fc	0.025020115
25	0x3c9b8c9a	0.018987942
26	0x3cc396dd	0.023875648
27	0xbd48556f	-0.0489096
28	0xbbc5e951	-0.0060397764
29	0xbd3420c2	-0.043976553
30	0xbcdf3135	-0.027245143
31	0xbac63440	-0.0015121773
32	0xbcc19539	-0.023630725
33	0xbc9dc41e	-0.019258555
34	0xbd49ae21	-0.049238328
35	0x3d4d1596	0.050069414
36	0x3d726dc3	0.05918671
37	0x3d852de4	0.065028936
38	0x3d301f20	0.042998433
39	0x3cdbab7d	0.02681517
40	0x3d603994	0.05474241
41	0xbd584c52	-0.05280716
42	0x3d971aae	0.073781356
43	0x3d3d98da	0.04628835
44	0xbcb20aaa	-0.0217336
45	0x3c38de1f	0.011283427
46	0x3d33cb07	0.043894794
47	0xbd41049b	-0.047123533
48	0x3d2d606b	0.04232828
49	0xbd482697	-0.048864927
50	0x3cd62217	0.026139302
51	0xbd31547d	-0.043293465
52	0xbb3a3d34	-0.0028417828
53	0xbcc0f46d	-0.023554051
54	0x3bace67f	0.0052765007
55	0x3d5c77b8	0.05382511
56	0xbce9c474	-0.028536059
57	0x3c32d47a	0.010914916
58	0x3d825b1b	0.06365033
59	0xbce800b3	-0.028320646
60	0xbceb316a	-0.028710086
61	0x3d36ee8d	0.044661094
62	0x3d7d6378	0.06186244
63	0x3c126da1	0.00893727
64	0xbd51fdd2	-0.051267453
65	0xbcb5eadc	-0.022206716
66	0xbd7ef16c	-0.062241957
67	0x3b701a0e	0.0036636624
68	0x3a6861e5	0.0008864685
69	0xbd47fc8a	-0.048824824
70	0xbd08818d	-0.033326674
71	0x3d4635c1	0.048391107
72	0xbd0c9f77	-0.034331765
73	0xbd3c28fa	-0.045937516
74	0x3d0dbf51	0.03460628
75	0xbd0d2be6	-0.034465693
76	0xbd8479ac	-0.064685196
77	0xbd03e5f8	-0.032201737
78	0xbc3ac484	-0.011399392
79	0x3bb529f8	0.0055286847
80	0x3b22c294	0.0024835216
81	0x3d26d9bf	0.040735003
82	0x3d8a5c2c	0.06755862
83	0x3cfa1bf3	0.030530905
84	0x3d344aee	0.04401677
85	0x3d8b3f8f	0.06799232
86	0xbcb633e1	-0.022241535
87	0xbd86ed7b	-0.065882646
88	0x3b3e731b	0.0029060307
89	0xbd2a2bc9	-0.041545663
90	0x3b8e0fa0	0.0043353587
91	0xbd4a2a88	-0.049356967
92	0x3d282f63	0.041060816
93	0x3b80f098	0.003934931
94	0x3ce68488	0.028139368
95	0x3c8de409	0.01732065
96	0xbb8a6da6	-0.004224497
97	0xbd3e5066	-0.046463393
98	0x3d25bbd6	0.040462337
99	0x3d686825	0.056739945
100	0x3d627504	0.055287376
101	0x3cf4a124	0.029861994
102	0xbd6486b3	-0.05579252
103	0x3c65ec1f	0.014033346
104	0xbcb231aa	-0.021752197
105	0xbd2917cf	-0.04128247
106	0x3c181a36	0.009283593
107	0xbb004c72	-0.0019576815
108	0xbd878917	-0.06617945
109	0xbd8d6bfa	-0.069053605
110	0x3d473cd7	0.048642006
111	0xbbe6e831	-0.0070467223
112	0xbd2b0fc8	-0.041763097
113	0xbc7b3102	-0.015331509
114	0xbcd13236	-0.025536638
115	0x3bec4401	0.007210255
116	0xbc4fa83a	-0.012674386
117	0x3d153b19	0.036433313
118	0xbd856374	-0.0651311
119	0x3d48b7b0	0.049003303
120	0x3c8598d5	0.016308228
121	0xbca0bd23	-0.019621437
122	0xbcd5cfbe	-0.026100036
123	0xbd70187d	-0.058617104
124	0xbd8d01a3	-0.06885078
125	0x3cd3439a	0.02578907
126	0x3c891ec5	0.016738305
127	0xbcae48ec	-0.021275006
128	0x3d422f58	0.04740843
129	0x3c8b60ad	0.017013872
130	0xbc44fbca	-0.012022922
131	0xbd3f9fb7	-0.046783175
132	0xbd062385	-0.032748718
133	0xbc808830	-0.01568994
134	0x3d1b674b	0.037940305
135	0xbd091ba7	-0.033473637
136	0x3a1537cf	0.0005692215
137	0xbd2a8e6e	-0.041639738
138	0xbd2f26f6	-0.042761765
139	0xbc712881	-0.01471913
140	0xbc509f5c	-0.012733307
141	0x3bc10582	0.005890549
142	0xbd4a3aba	-0.049372412
143	0xbcc3cda5	-0.02390177
144	0x3cb5167a	0.022105444
145	0x3a549b81	0.000811033
146	0x3d7d1ed2	0.06179697
147	0x3d0d1d68	0.034451872
148	0xbd48ac7a	-0.04899261
149	0x3cfcdc87	0.030866874
150	0x3c086921	0.008325846
151	0x3d23c766	0.039985083
152	0xbccbc1db	-0.02487271
153	0x3d29d413	0.041462015
154	0xbd335741	-0.043784384
155	0x3d876763	0.06611516
156	0xbcec6450	-0.028856426
157	0x3c7249a8	0.014788069
158	0xbc1a565c	-0.009420004
159	0x3cbb83df	0.02289003
160	0xbcd3ff6d	-0.025878632
161	0x3d170fc6	0.036880277
162	0xbd8d5733	-0.069013976
163	0xbcd330d6	-0.025780123
164	0xbd64b6fd	-0.055838574
165	0x3d86355f	0.065531485
166	0xbcefb227	-0.029259754
167	0x3d0d7ba1	0.03454173
168	0xbd9ab6cb	-0.07554396
169	0x3d856ff7	0.06515496
170	0x3cd8c430	0.026460737
171	0x3cdd0e3d	0.026984328
172	0x3d0a121a	0.03370867
173	0x3cbecd60	0.02329129
174	0x3d4fc39a	0.05072365
175	0xbba973ea	-0.0051712887
176	0x3d0b84fc	0.03406237
177	0xbd7cc19c	-0.061708078
178	0x3d04bc2c	0.032406017
179	0x3d28c7e8	0.04120627
180	0xbc51d8df	-0.012808054
181	0x3d3a09f6	0.045419656
182	0x3d76d266	0.060259245
183	0x3c4c498d	0.012468708
184	0xbbf7e20b	-0.007564788
185	0x3cfcc8c2	0.030857448
186	0xbcc40a31	-0.02393064
187	0xbb93b06a	-0.004507114
188	0x3d50ab5a	0.050944664
189	0x3d1d2692	0.03836686
190	0x3b44bf34	0.0030021193
191	0xbd8e0675	-0.06934825
192	0x3d0b1893	0.033958983
193	0xbba6aae7	-0.005086291
194	0xbd2864b5	-0.041111667
195	0x3c30b075	0.010784258
196	0x3d18c497	0.037296858
197	0xbcc69b16	-0.024243873
198	0xbd35a103	-0.044343006
199	0xbcaa1c29	-0.020765381
200	0x3ccdf636	0.025141817
201	0xbd268068	-0.0406498
202	0xbd8e7d25	-0.06957463
203	0xbd37e12c	-0.044892475
204	0x3d3bbbbf	0.045833346
205	0xbd4d8198	-0.05017242
206	0x3d4bbcd1	0.049740616
207	0x3d8e1508	0.06937605
208	0x3d25e6d4	0.040503338
209	0xbd961eaa	-0.073300675
210	0xbc90c350	-0.017671257
211	0xbd935494	-0.07193866
212	0x3c62d080	0.013843656
213	0x3c265a7a	0.010153407
214	0x3bb32f11	0.0054682572
215	0xbd12d6bd	-0.03584932
216	0xbd3aeee1	-0.04563797
217	0x3cacb117	0.021080537
218	0xbc8067aa	-0.01567443
219	0x3a7da4cb	0.000967574
220	0xbd7da362	-0.061923392
221	0xbc4740b2	-0.012161421
222	0xbd07bff5	-0.03314205
223	0xbc729928	-0.014807023
224	0xbc26556f	-0.010152205
225	0xbcd192cb	-0.025582692
226	0x3d5ef66d	0.05443423
227	0xbd17d71d	-0.037070382
228	0x3c606f97	0.01369848
229	0xbcb9fb7c	-0.022702925
230	0x3d8056f5	0.06266586
231	0xbd8a269d	-0.06745646
232	0x3c325cd3	0.010886389
233	0xbd95e2d3	-0.07318654
234	0x3d342c57	0.0439876
235	0xbc2fee36	-0.010737946
236	0x3cbcd24f	0.023049502
237	0xbca4cdf4	-0.020117737
238	0xbd1699e7	-0.036767866
239	0xbce55cd2	-0.027998362
240	0x3ce714b1	0.028208109
241	0x3ca7a7ba	0.02046572
242	0xbd189360	-0.037249923
243	0x3cf278b0	0.029598564
244	0x3c2515c2	0.010075988
245	0x3d7bdd92	0.061490603
246	0xbd5910da	-0.052994587
247	0xbd681b92	-0.056666918
248	0x3d173415	0.036914904
249	0xbc999aac	-0.018750511
250	0x3d4e0aa8	0.05030313
251	0xbd33e4be	-0.043919317
252	0xbd1c54ad	-0.03816669
253	0x3c85a77f	0.01631522
254	0x3d32e5eb	0.043676298
255	0xbb19bf84	-0.00234601

conv.0.bias f4 [32]
0	0x3d44144d	0.047870923
1	0x3d828be3	0.063743375
2	0x3cf6f78d	0.030147338
3	0x3d2d449a	0.04230175
4	0x3d5f3ac4	0.054499403
5	0x3d83661e	0.06415962
6	0xbd415a67	-0.047205355
7	0xbd0460ac	-0.032318756
8	0xbd6aef06	-0.057356857
9	0xbd805a79	-0.06267256
10	0x3d7b72ff	0.061388966
11	0x3d77e889	0.060524497
12	0xbd537b75	-0.05163141
13	0x3d764373	0.06012292
14	0x3c2fdc4d	0.010733676
15	0xbc4ac47d	-0.012375948
16	0xbd0ba994	-0.03409727
17	0xbd5012a3	-0.050799023
18	0x3d106875	0.035255868
19	0xbd7a6267	-0.061129
20	0xbc4cc589	-0.012498268
21	0xbcaae784	-0.020862348
22	0xbd0c3d24	-0.034237996
23	0x3d82f768	0.06394845
24	0xbd7d20ee	-0.061798982
25	0x3d06fd5b	0.032956462
26	0xbd524722	-0.05133737
27	0x3cf1eea7	0.029532744
28	0xbb7e7b4c	-0.0038830815
29	0x3d26840b	0.04065327
30	0xbc702191	-0.01465644
31	0xbc8e7001	-0.017387392

conv.1.weight f4 [32]
0	0x3f805162	1.0024836
1	0x3f7fd9ac	0.99941516
2	0x3f80d7a8	1.0065813
3	0x3f7f4c73	0.9972603
4	0x3f81099d	1.0081059
5	0x3f7fdf13	0.9994976
6	0x3f7fdae7	0.99943393
7	0x3f80bef4	1.0058274
8	0x3f806c60	1.0033073
9	0x3f812f82	1.0092623
10	0x3f8148e9	1.0100375
11	0x3f7eb884	0.995003
12	0x3f82ac0a	1.0208752
13	0x3f7f6b50	0.9977312
14	0x3f7d7b54	0.9901631
15	0x3f8093ab	1.0045065
16	0x3f7e6a1e	0.9938067
17	0x3f8049c9	1.0022517
18	0x3f7e95ee	0.99447525
19	0x3f80cb19	1.006198
20	0x3f80c88c	1.0061202
21	0x3f7f45a7	0.99715656
22	0x3f7e860f	0.9942331
23	0x3f7ca50e	0.98689353
24	0x3f80a0a4	1.0049024
25	0x3f81a96c	1.0129828
26	0x3f7c9f55	0.9868062
27	0x3f7d2ada	0.9889351
28	0x3f7dee45	0.99191695
29	0x3f809909	1.0046703
30	0x3f7d61c4	0.98977304
31	0x3f7f229d	0.9966219

conv.1.bias f4 [32]
0	0xbbcd9f5e	-0.0062751016
1	0xbbaa100d	-0.0051899017
2	0x3c0d4a43	0.008623662
3	0xbba445a3	-0.005013184
4	0xbadcfd25	-0.0016860111
5	0xbbecddf3	-0.007228607
6	0x3a1dd8ea	0.00060213974
7	0x3bd389a2	0.006455616
8	0xbb10473f	-0.0022015122
9	0xbabcb9ac	-0.0014398596
10	0x3aebc8ec	0.0017988957
11	0xba88a2cb	-0.0010424493
12	0x3ca6ab8f	0.020345477
13	0xb9098686	-0.00013115452
14	0xbc66086e	-0.014040096
15	0xba63c800	-0.0008689165
16	0xbc32f3b6	-0.010922363
17	0xb86a01a3	-5.5791472e-05
18	0xbbadcc0b	-0.005303865
19	0x3c408436	0.011750272
20	0x3b5b748c	0.0033486215
21	0xbcc8793d	-0.024471873
22	0xbba99ed6	-0.0051764054
23	0xbb0725ee	-0.0020621973
24	0xbb5f0f45	-0.00340362
25	0xbb0a8516	-0.0021136454
26	0xbb0eac58	-0.0021770205
27	0xbaf50646	-0.0018693886
28	0x3b2c4f50	0.002629239
29	0x3a00412f	0.00048925256
30	0xbc31cd86	-0.010852223
31	0xb874e652	-5.8388636e-05

conv.1.running_mean f4 [32]
0	0x3d4b2176	0.049592458
1	0x3d782bff	0.060588833
2	0x3d0b02cf	0.033938225
3	0x3d2f4496	0.042790018
4	0x3d656c86	0.0560117
5	0x3d77acdc	0.060467586
6	0xbd43a7f0	-0.04776758
7	0xbd09d0f6	-0.033646546
8	0xbd675024	-0.056472912
9	0xbd800a02	-0.06251909
10	0x3d87d1a4	0.06631783
11	0x3d7bb476	0.061451398
12	0xbd4b2a29	-0.049600754
13	0x3d7ba404	0.061435714
14	0x3c1b1329	0.009465017
15	0xbc76eb7c	-0.015070792
16	0xbd115526	-0.035481595
17	0xbd4757c5	-0.048667688
18	0x3d139db1	0.036039058
19	0xbd6fc801	-0.058540348
20	0xbc163523	-0.009167942
21	0xbc9d533c	-0.019204728
22	0xbd090b91	-0.033458296
23	0x3d7feca0	0.062481523
24	0xbd84e960	-0.06489825
25	0x3d10f77d	0.035392273
26	0xbd49d7da	-0.049278118
27	0x3cf452c3	0.02982462
28	0xbb1661e2	-0.0022946526
29	0x3d1c67f9	0.038185094
30	0xbc747393	-0.014920133
31	0xbca28769	-0.01983996

conv.1.running_var f4 [32]
0	0x3eba7336	0.36416024
1	0x3eae9e5a	0.34105188
2	0x3eb6fbdc	0.35739028
3	0x3eb26121	0.34839728
4	0x3eadc84a	0.3394187
5	0x3eb3d063	0.35119924
6	0x3eb471af	0.35242984
7	0x3ec8298d	0.390942
8	0x3ec045fd	0.37553397
9	0x3eaac87e	0.33356088
10	0x3eb3a91f	0.35089967
11	0x3eb42b17	0.35189125
12	0x3eb3d390	0.35122347
13	0x3eb187e3	0.34673986
14	0x3ebe76b4	0.37199938
15	0x3ebcb171	0.36854127
16	0x3ea913cb	0.33022913
17	0x3ea311f9	0.3184965
18	0x3eaa38e2	0.33246523
19	0x3eaf315a	0.3421734
20	0x3ea3009a	0.31836396
21	0x3eb6c2a1	0.35695365
22	0x3eac6878	0.33673453
23	0x3ec75fe2	0.3894034
24	0x3eb6938e	0.3565945
25	0x3ea9dbe9	0.3317559
26	0x3ea3f0aa	0.3201955
27	0x3ea6bae5	0.32564464
28	0x3eb6caa0	0.35701466
29	0x3eb12074	0.34595072
30	0x3eb3cbed	0.3511652
31	0x3eafb807	0.3432009

conv.4.weight f4 [64, 32, 3]
0	0xbc248289	-0.010040888
1	0xbd85859e	-0.06519626
2	0x3dc4380d	0.09581003
3	0xbd0ba283	-0.03409053
4	0x3db5fb49	0.088858195
5	0x3da1fca1	0.07909513
6	0xbd2b3fd5	-0.04180892
7	0xbd8b5453	-0.06803193
8	0x3da833c1	0.08212996
9	0x3d3c2da6	0.04594197
10	0x3d76665a	0.060156204
11	0x3d719332	0.058978267
12	0x3daa3a8d	0.08311949
13	0x3d447eec	0.047972605
14	0x3d9bea2a	0.076130226
15	0xbd841516	-0.06449334
16	0xbd4a0489	-0.04932073
17	0xbb9ae1be	-0.0047266176
18	0xbd9c0959	-0.076189704
19	0xbc983f0a	-0.018584747
20	0x3d9f9a2e	0.07793079
21	0xbd0b03a7	-0.03393903
22	0xbda88c3d	-0.08229873
23	0xbc8301bc	-0.015992038
24	0xbd8ca18b	-0.068667494
25	0x3d8779fb	0.06615063
26	0xbd04af93	-0.032394003
27	0x3c075586	0.0082601365
28	0x3cc550f8	0.02408646
29	0x3a1cdb3e	0.00059835974
30	0x3c842a09	0.016133325
31	0x3dc68742	0.09693767
32	0xbd51b960	-0.051202178
33	0x3d5e62ab	0.054293316
34	0x3da59e16	0.08086793
35	0x3c428300	0.011872053
36	0xbdd27847	-0.10276847
37	0xbd4a74c5	-0.049427766
38	0x3d1e4097	0.038635816
39	0xbd345024	-0.04402174
40	0x3b8c01a7	0.004272658
41	0xbd25b152	-0.04045231
42	0x3d53349f	0.051563855
43	0x3d8260f4	0.063661486
44	0x3d945e0a	0.07244499
45	0x3cf07dfd	0.02935695
46	0x3daa0d16	0.08303277
47	0x3d306185	0.043061752
48	0xbd078a2b	-0.03309075
49	0x3d38b5be	0.045095198
50	0xbcde10df	-0.027107654
51	0x3dc3c0f1	0.09558285
52	0xbdb4f5d4	-0.088359505
53	0xbd541a74	-0.05178304
54	0x3d24bd9f	0.0402199
55	0xbcc6e762	-0.024280254
56	0x3d1a025f	0.037599918
57	0xbdacc6fd	-0.084363915
58	0xbbb1cac4	-0.005425783
59	0x3d54b596	0.051930986
60	0x3db032d1	0.086034425
61	0xbda6b9b3	-0.08140888
62	0x3d991146	0.07473998
63	0x3baf791e	0.0053550145
64	0xbdc0ab1c	-0.094076365
65	0x3dc463a0	0.095893145
66	0x3da246f5	0.0792369
67	0xbcd2d91c	-0.025738291
68	0xbd8a67a3	-0.067580484
69	0x3d765638	0.06014082
70	0xbd8fdb76	-0.07024281
71	0xbd086a51	-0.033304516
72	0xbced7dc0	-0.028990626
73	0x3ba03117	0.0048886645
74	0x3d28dce7	0.041226294
75	0xbd47f074	-0.0488133
76	0x3dab0eaa	0.08352406
77	0x3da52295	0.080632366
78	0xbca8b122	-0.020592276
79	0x3d9bfb8d	0.07616339
80	0x3d1b2578	0.03787753
81	0xbd5e1361	-0.0542177
82	0xbdbfd9de	-0.09367727
83	0x3db8074e	0.08985768
84	0x3d561e38	0.052274913
85	0x3cdb2032	0.02674875
86	0x3ca50606	0.020144474
87	0x3d997264	0.074925214
88	0x3d3806e0	0.04492843
89	0xbd53ff06	-0.05175688
90	0x3d939d5f	0.072077505
91	0x3dab8f8d	0.083769895
92	0xbcebcd79	-0.0287845
93	0xbc65f822	-0.01403621
94	0x3cd5cd2e	0.026098814
95	0xbcf66591	-0.030077728
96	0xbcf91fad	-0.030410612
97	0x3da80110	0.08203328
98	0x3c276c7d	0.010218737
99	0xbc10904d	-0.0088234665
100	0xbcbdffcc	-0.023193263
101	0x3d86147f	0.06546878
102	0x3b70f65c	0.0036767935
103	0x3d99ab1d	0.075033404
104	0x3bc3dee3	0.005977498
105	0x3c52ecd1	0.012873844
106	0x3dd255b6	0.10270254
107	0x3c4f63bd	0.012658057
108	0x3d1ad8fb	0.037804585
109	0x3d49d4de	0.04927527
110	0x3da749d9	0.08168382
111	0x3dd96477	0.10614865
112	0xbd1f3514	-0.03886898
113	0x3d3233bd	0.043506373
114	0xbd496234	-0.04916592
115	0xbd7ac9d6	-0.061227642
116	0xbd338251	-0.04382545
117	0x3d82d971	0.0638913
118	0xbda2bf52	-0.07946648
119	0x3c92d145	0.017922053
120	0x3d89233d	0.06696174
121	0x3d7153d0	0.05891782
122	0xbd6443a9	-0.05572859
123	0x3d8228cf	0.0635544
124	0x3d8b7077	0.0680856
125	0xbcef1ca2	-0.029188458
126	0x3d2fb19b	0.042893987
127	0xbd4ac855	-0.049507458
128	0x3d65c3bf	0.05609488
129	0xbd4d8c3d	-0.05018257
130	0xbda6b2ac	-0.08139548
131	0x3cc9e650	0.024645954
132	0x3c98e51c	0.018663935
133	0x3c7f5a66	0.0155855175
134	0x3d4eb910	0.050469458
135	0x3d35a8e2	0.044350512
136	0xbd99b8af	-0.07505929
137	0x3da5c97d	0.080950715
138	0xbd82124e	-0.063511476
139	0x3dcbec17	0.0995714
140	0x3daf0aa0	0.085469484
141	0xbc97cef4	-0.0185313
142	0xbd3df8a3	-0.046379697
143	0xbccbd79a	-0.02488308
144	0x3d07a6b3	0.03311796
145	0x3d06d9c1	0.03292251
146	0x3d8f559e	0.06998752
147	0x39c766d6	0.00038032857
148	0xbdd350eb	-0.10318168
149	0x3cd7e8e6	0.026356172
150	0x3c72d015	0.014820118
151	0x3c461405	0.012089734
152	0xbdbfc22e	-0.09363209
153	0x3d99202f	0.07476842
154	0x3d260090	0.04052788
155	0xbcf6c5a8	-0.030123547
156	0xbcca3a7c	-0.02468609
157	0xbda880e7	-0.08227711
158	0xbd599c4f	-0.053127583
159	0xbd9b6db8	-0.075892866
160	0x3d35beee	0.044371538
161	0xbd1352ed	-0.035967756
162	0xb98d4d2e	-0.0002695112
163	0xbbbad048	-0.0057010986
164	0xbd445692	-0.047934122
165	0xbd5a0bb9	-0.053233836
166	0xbc5fc472	-0.013657676
167	0x3d75f127	0.060044434
168	0xbc71063b	-0.014710958
169	0xbdd6ad6c	-0.10482296
170	0xbd72da15	-0.05929001
171	0xbd91412e	-0.0709251
172	0xbd2c5c53	-0.042080235
173	0x3db9fe56	0.09081714
174	0x3d339e2e	0.043852024
175	0x3d606774	0.05478616
176	0x3d10cbef	0.035350736
177	0xbd62a5c7	-0.05533388
178	0xbddc8b06	-0.10768704
179	0x3d96fe1e	0.07372688
180	0xbcdf4a7d	-0.027257198
181	0x3ce6fc24	0.028196402
182	0xbda89b4a	-0.08232744
183	0x3d4e1d67	0.05032101
184	0x3ca38179	0.019959198
185	0xbda898ab	-0.08232244
186	0x3d992c43	0.074791454
187	0xbdc5a6bd	-0.096509434
188	0x3d7ecb76	0.062205754
189	0xbd5d93d5	-0.05409606
190	0xbd32daa5	-0.043665547
191	0x3b94a983	0.004536809
192	0xbc24bfaf	-0.010055467
193	0xbcc12e10	-0.023581535
194	0xbd42bcb6	-0.04754325
195	0x3d8c495c	0.0684993
196	0xbd89953d	-0.06717918
197	0x3dbf770f	0.093488805
198	0xbcd461fa	-0.025925625
199	0x3d8d7c5c	0.06908485
200	0x3d6366e5	0.05551805
201	0x3da867a2	0.082228914
202	0x3dd7d7db	0.10539218
203	0xbc72bbaa	-0.01481525
204	0x3da15e52	0.07879318
205	0xbd84ca5f	-0.06483912
206	0x3d17c482	0.03705264
207	0xbcd2a28c	-0.025712274
208	0x3d87ebbe	0.06636761
209	0xbd81a438	-0.0633015
210	0x3d8dc7dc	0.06922886
211	0x3dd7522f	0.10513722
212	0xbae11252	-0.0017171598
213	0x3b9862f7	0.0046504694
214	0xbdaf6a7a	-0.08565231
215	0xbcbae84e	-0.02281585
216	0xbc33cce8	-0.010974146
217	0x3d8714ce	0.06595765
218	0xbc3c6aa3	-0.011500034
219	0xbdc249c8	-0.09486729
220	0xbdc6e7cc	-0.097121805
221	0x3d424a92	0.047434397
222	0x3db410e4	0.08792284
223	0xbd2b3f24	-0.041808262
224	0xbda439a0	-0.080188036
225	0x3d46cefc	0.04853724
226	0x3dcec01d	0.100952365
227	0xbd97b571	-0.07407654
228	0xbd16c814	-0.036811903
229	0xbd25f35c	-0.04051529
230	0xbc280d7a	-0.010257119
231	0x3d8a7901	0.06761361
232	0xbceec498	-0.029146478
233	0x3cf18a15	0.029484788
234	0x3d815540	0.06315088
235	0x3d9c527b	0.076329194
236	0x3dbd015b	0.09228774
237	0xbcc7c45e	-0.024385627
238	0xbdb1817d	-0.08667276
239	0x3d8b73c2	0.068091884
240	0x3da5fe95	0.08105198
241	0x3c88e7f4	0.016712166
242	0xbd9d513d	-0.076815106
243	0xbce7cec9	-0.028296845
244	0xbdd4b104	-0.103853256
245	0x3c32fbe9	0.010924318
246	0xbd60e88d	-0.054909278
247	0xbdb2bf73	-0.08727922
248	0xbcfa9ae4	-0.030591436
249	0xbccd308f	-0.025047569
250	0x3d88f0eb	0.066865765
251	0x3a38cc11	0.0007049451
252	0xbcff8be6	-0.031194638
253	0x3dc2015c	0.094729155
254	0x3d9ab997	0.0755493
255	0x3d90e91f	0.07075714

conv.4.bias f4 [64]
0	0x3d9eb1e3	0.07748773
1	0xbd0d520a	-0.034502067
2	0xbc7ad126	-0.015308654
3	0xbd882185	-0.06647018
4	0x3d7547bd	0.059882868
5	0x3d9ec651	0.077526696
6	0x3d64e07b	0.055878144
7	0x3dc76772	0.097365275
8	0x3d99550c	0.074869245
9	0x3d95f871	0.07322777
10	0xbb3f8dcf	-0.0029228812
11	0xbdbc91f4	-0.09207526
12	0x3d142d13	0.0361758
13	0x3b9a908b	0.004716938
14	0x3d707de6	0.058713816
15	0xbd91cc43	-0.07119038
16	0xbd54c064	-0.05194129
17	0xb9db0e1e	-0.00041781453
18	0x3d43f572	0.047841497
19	0xbca51dfc	-0.0201559
20	0xbdadbd1e	-0.08483337
21	0x3c0fd980	0.008779883
22	0x3d2d986d	0.042381693
23	0x3d515438	0.051105708
24	0x3d1774d6	0.036976658
25	0x3d14c5c3	0.036321413
26	0x3daa77e8	0.083236516
27	0xbc666220	-0.014061481
28	0xbc228b6e	-0.009920938
29	0x3da829e8	0.08211118
30	0xbd53da8d	-0.0517221
31	0x3d68680d	0.056739856
32	0xbcefcce6	-0.029272508
33	0x3d184246	0.03717258
34	0xbda45734	-0.08024445
35	0x3dc19af5	0.09453384
36	0x3dbb11ea	0.09134276
37	0xbd7b466f	-0.061346468
38	0x3daf25a3	0.085521005
39	0x3dc2350c	0.09482774
40	0x3cf52ca5	0.029928515
41	0xbd0333e7	-0.03203192
42	0x3db1ebe0	0.08687568
43	0x3c10b82b	0.008832972
44	0x3d794ae6	0.060862444
45	0xbd1a5911	-0.037682597
46	0xbd12e997	-0.0358673
47	0x3d891af0	0.06694591
48	0xbc9d2736	-0.019183736
49	0xbba3a6bd	-0.004994242
50	0x3cbbac0f	0.022909192
51	0xbb52cf59	-0.0032167046
52	0x3c83cf48	0.01609005
53	0xbd7ff8ac	-0.06249301
54	0xbcee1189	-0.029061096
55	0x3d33f796	0.04393729
56	0x3d566c9a	0.052349664
57	0x3c6686c3	0.014070216
58	0xbdcd0795	-0.10011212
59	0xbc2cf17c	-0.010555621
60	0x3da0bf32	0.078489676
61	0x3d0849a3	0.03327335
62	0xbdbfd3bc	-0.09366557
63	0x3dc47dce	0.09594308

conv.5.weight f4 [64]
0	0x3f7e85c5	0.99422866
1	0x3f7cdd97	0.9877562
2	0x3f7f7a14	0.9979565
3	0x3f811d09	1.0086986
4	0x3f7bfd9d	0.9843386
5	0x3f8146aa	1.009969
6	0x3f7ce2a4	0.98783326
7	0x3f7df0d3	0.99195594
8	0x3f814682	1.0099642
9	0x3f813114	1.0093102
10	0x3f7e643f	0.99371713
11	0x3f7fd536	0.9993471
12	0x3f80ff6e	1.0077951
13	0x3f7dee50	0.9919176
14	0x3f8116a1	1.0085031
15	0x3f80c0e0	1.0058861
16	0x3f8040b1	1.0019742
17	0x3f80cac0	1.0061874
18	0x3f7c82eb	0.98637265
19	0x3f7dd14a	0.99147475
20	0x3f7b4e57	0.9816641
21	0x3f7e1774	0.99254537
22	0x3f81567e	1.010452
23	0x3f7d484d	0.9893845
24	0x3f80a28c	1.0049605
25	0x3f8002d4	1.0000863
26	0x3f80f67b	1.007522
27	0x3f80daa3	1.0066723
28	0x3f7d6ca8	0.9899392
29	0x3f811750	1.008524
30	0x3f7d5e82	0.9897233
31	0x3f7c7729	0.98619324
32	0x3f7f04ee	0.996169
33	0x3f7e18eb	0.9925677
34	0x3f80c5ec	1.0060401
35	0x3f80335c	1.0015674
36	0x3f7e86b1	0.9942427
37	0x3f8124dd	1.0089375
38	0x3f7f10de	0.9963511
39	0x3f7c2241	0.9848977
40	0x3f7b6506	0.98201025
41	0x3f7d0086	0.98828924
42	0x3f7de04f	0.9917039
43	0x3f808e69	1.004346
44	0x3f8113db	1.0084184
45	0x3f811c94	1.0086846
46	0x3f80b4b3	1.0055145
47	0x3f7c4540	0.9854317
48	0x3f81063c	1.0080028
49	0x3f7e7ce0	0.99409294
50	0x3f8123d7	1.0089062
51	0x3f7c4876	0.98548067
52	0x3f7c8611	0.9864207
53	0x3f815d32	1.0106566
54	0x3f7d96a5	0.9905799
55	0x3f7cca9c	0.9874666
56	0x3f7f8edb	0.99827355
57	0x3f8183ba	1.0118325
58	0x3f7d12f7	0.98857063
59	0x3f7f55bb	0.9974019
60	0x3f80d840	1.0065994
61	0x3f7d3283	0.989052
62	0x3f803f95	1.0019404
63	0x3f7f4501	0.99714667

conv.5.bias f4 [64]
0	0xbc05d0a0	-0.008167416
1	0xbc746296	-0.014916083
2	0xba88bc56	-0.0010432105
3	0x3c15bc8b	0.00913919
4	0xbc6ce7e2	-0.014459582
5	0x3beaba16	0.0071632965
6	0xbc4cf235	-0.0125089185
7	0xbc129592	-0.008946793
8	0x3c17bc04	0.009261135
9	0x3bfe6d41	0.007764489
10	0xbbc0b4fb	-0.0058809496
11	0x3a1e363e	0.00060353044
12	0x3c038aa1	0.008028657
13	0xbc10c7d6	-0.008836707
14	0x3b9a60c4	0.0047112424
15	0x3bdb5e54	0.0066945944
16	0x3b6abac8	0.0035816897
17	0x3c239de3	0.009986374
18	0xbc321fa9	-0.010871806
19	0xbbbb178c	-0.005709594
20	0xbc92b8ac	-0.017910324
21	0xbc226264	-0.009911153
22	0x3bd1c0a6	0.0064011393
23	0xbc33555e	-0.010945646
24	0x3bf9756f	0.007612876
25	0xbb8910b0	-0.0041828975
26	0x3bb13d39	0.0054089096
27	0x3bf70473	0.007538372
28	0xbc33264b	-0.010934423
29	0x3bdde3ff	0.006771564
30	0xbc2bd294	-0.010487217
31	0xbc578c6b	-0.013156037
32	0xbbc6cd3d	-0.006066947
33	0xbbd77270	-0.0065749213
34	0x3b4e1281	0.0031444135
35	0xb9511358	-0.00019939
36	0xbb813b63	-0.003943847
37	0x3bdb1338	0.0066856407
38	0xba6671cb	-0.000879076
39	0xbc5ec0cb	-0.01359577
40	0xbc9f502a	-0.019447405
41	0xbc53c3e4	-0.012925122
42	0xbc42c78c	-0.011888396
43	0x3ba4336c	0.005011013
44	0x3c001fa8	0.007820047
45	0x3be2c190	0.006920047
46	0x3bf80922	0.007569448
47	0xbc310766	-0.010804987
48	0x3c240b09	0.010012397
49	0xbbfda77c	-0.007740913
50	0x3c185a68	0.009298898
51	0xbc659513	-0.014012593
52	0xbc57bb8f	-0.013167276
53	0x3c3750c5	0.011188691
54	0xbc30c108	-0.01078821
55	0xbc45fe15	-0.012084504
56	0x3780bbf0	1.5346304e-05
57	0x3c1321a6	0.00898019
58	0xbc41c94f	-0.011827781
59	0xb99883e8	-0.00029089977
60	0x3bcb03c2	0.0061955163
61	0xbc14d8ab	-0.009084861
62	0xba46e191	-0.00075867126
63	0xba88e711	-0.001044484

conv.5.running_mean f4 [64]
0	0x3f448f1a	0.76780856
1	0x3e047a60	0.12937307
2	0x3e8e26fb	0.27764115
3	0xbc9b0310	-0.018922359
4	0x3f3d1478	0.7385936
5	0x3dbc3e21	0.09191538
6	0x3f5df0c7	0.8669552
7	0x3ec0c194	0.37647688
8	0x3e70829a	0.2348732
9	0xbdc0fcd5	-0.09423224
10	0x3f727f00	0.94725037
11	0xbe8d1892	-0.27557808
12	0x3e724863	0.23660426
13	0x3e1ced33	0.1532486
14	0xbea0c751	-0.31402066
15	0xbe3cb004	-0.1842652
16	0xbf1bf5dc	-0.60922027
17	0xbeb8c9d2	-0.36091477
18	0xbe0a8210	-0.13526177
19	0xbeba9aad	-0.36446133
20	0xbf16c01a	-0.58886874
21	0xbf03e5ae	-0.5152234
22	0xbe13c03d	-0.14428802
23	0xbeae61d8	-0.34059024
24	0x3e9a0c88	0.30087686
25	0x3e214477	0.15748774
26	0xbe1a04b5	-0.15040858
27	0xbd7b27e2	-0.061317332
28	0xbea3dad0	-0.32002878
29	0x3de6a162	0.1126125
30	0x3c9c2fe5	0.019065807
31	0xbe59bb65	-0.21262892
32	0xbf828fbe	-1.0200117
33	0xbf37d06e	-0.71802413
34	0x3da6fd18	0.081537426
35	0x3f29f16b	0.66384
36	0x3e2af879	0.16696347
37	0x3e50c235	0.20386584
38	0x3e02d967	0.12778245
39	0x3e6eea08	0.23331463
40	0xbdf46b7c	-0.119345635
41	0xbf05bf9e	-0.5224551
42	0xbe77b6d3	-0.24190836
43	0xbcd25076	-0.025673132
44	0x3ef348af	0.4751639
45	0xbee93cb5	-0.45554128
46	0x3e829133	0.25501403
47	0xbe1aaf34	-0.15105897
48	0xbe112423	-0.14173941
49	0xbd99c57b	-0.075083695
50	0xbed4be02	-0.41551214
51	0xbe9031f5	-0.28163114
52	0xbe591023	-0.21197562
53	0xbe25407b	-0.16137879
54	0x3ee1aa0f	0.44075057
55	0xbe796504	-0.2435494
56	0x3eac9645	0.33708397
57	0x3c129a3d	0.008947906
58	0xbf04e03a	-0.5190464
59	0xbee4474f	-0.44585654
60	0x3f2e5492	0.68097794
61	0x3ee5e12b	0.44898352
62	0xbebf1eeb	-0.37328276
63	0x3dc2faa8	0.09520465

conv.5.running_var f4 [64]
0	0x3e249edf	0.1607623
1	0x3e04025d	0.12891527
2	0x3e2cdbca	0.16880718
3	0x3e13baf7	0.1442679
4	0x3e004d8c	0.12529582
5	0x3e38547e	0.18000981
6	0x3e231c98	0.15928876
7	0x3e2d689d	0.16934438
8	0x3e2a4028	0.16626036
9	0x3e484c88	0.19560444
10	0x3e250f9b	0.16119234
11	0x3e0075c2	0.12544921
12	0x3e213760	0.1574378
13	0x3e34b9e6	0.1764904
14	0x3e125b33	0.14292602
15	0x3e28284f	0.16421627
16	0x3e1b2644	0.15151316
17	0x3e2c262b	0.16811435
18	0x3e208c93	0.15678625
19	0x3e2d30cf	0.1691315
20	0x3e124269	0.14283146
21	0x3e222a5c	0.15836471
22	0x3e17fd1b	0.14842646
23	0x3e29b164	0.16571575
24	0x3e1d4e58	0.15361917
25	0x3df3a00d	0.11895762
26	0x3e0e0820	0.13870287
27	0x3deab424	0.1146014
28	0x3e2d5fe3	0.16931109
29	0x3e19658b	0.14980142
30	0x3e1d77ce	0.15377733
31	0x3e186525	0.14882334
32	0x3e188929	0.14896072
33	0x3e142d07	0.14470302
34	0x3e189308	0.14899838
35	0x3e27833a	0.16358653
36	0x3e1b783a	0.15182582
37	0x3e15609a	0.14587632
38	0x3e2b0317	0.16700397
39	0x3e2bf441	0.16792394
40	0x3e178530	0.14796901
41	0x3e3e8d42	0.18608573
42	0x3e2cf3b4	0.1688984
43	0x3e115e79	0.14196195
44	0x3e082a67	0.13297425
45	0x3e2edbbb	0.17076008
46	0x3e0f2dfe	0.13982388
47	0x3e1d12d0	0.15339208
48	0x3e1a8bc4	0.15092379
49	0x3e206d37	0.15666662
50	0x3e28455f	0.16432713
51	0x3e0e85d3	0.13918237
52	0x3e14b56c	0.14522332
53	0x3e1baaa9	0.1520182
54	0x3e10a6bf	0.14126109
55	0x3e2ae6c5	0.16689594
56	0x3e1b0b36	0.15140995
57	0x3e03ac8e	0.12858793
58	0x3e0cfb75	0.13767798
59	0x3e26938a	0.16267219
60	0x3e196d02	0.1498299
61	0x3e175672	0.1477907
62	0x3e358ee8	0.17730296
63	0x3e2aace5	0.16667517

lstm.weight_ih_l0 f4 [256, 64]
0	0x3d16f684	0.03685619
1	0xbcff520d	-0.031167055
2	0x3d43fce7	0.04784861
3	0x3d83e5b0	0.06440294
4	0xbd1311a1	-0.035905484
5	0xbd8ae1ce	-0.0678135
6	0x3dcc5ce1	0.09978653
7	0x3bfb8ae7	0.0076764706
8	0x3d27ba48	0.040949136
9	0xbdf56fe4	-0.11984232
10	0xbc01de99	-0.007926607
11	0x3d80a6e2	0.0628183
12	0x3cc096e2	0.023509447
13	0xbcaad3a8	-0.020852879
14	0x3dcf1b8e	0.101126775
15	0x3d24ceee	0.040236406
16	0xbd958741	-0.07301188
17	0x3d76cbae	0.060252838
18	0xbdd64585	-0.104624785
19	0xbcb3e984	-0.021961935
20	0xbd1ce255	-0.038301785
21	0xbc89d2f4	-0.016824223
22	0xbcf63bda	-0.030057836
23	0x3db617f0	0.088912845
24	0x3dc4ba97	0.09605902
25	0x3cef38c2	0.029201869
26	0x3c401195	0.011722942
27	0x3dcd7b11	0.10033239
28	0x3dd515f1	0.104045756
29	0xbd4e61c5	-0.05038621
30	0x3db2ac6f	0.08724295
31	0xbda38f3b	-0.079863034
32	0xbcc54df4	-0.024085023
33	0xbd301e89	-0.04299787
34	0xbd2b53c3	-0.04182793
35	0xbdad87be	-0.084731564
36	0x3d820fc7	0.063506655
37	0x3db60cc2	0.08889152
38	0xbcf93ae6	-0.030423593
39	0x3c2a712f	0.010402962
40	0x3da64e68	0.081204236
41	0xbe02af73	-0.12762241
42	0xbd93dfa1	-0.07220388
43	0xbda86e08	-0.08224112
44	0xbdb8d53e	-0.09025048
45	0xbc9be933	-0.019032096
46	0x3d11513a	0.035477854
47	0xbd212fff	-0.039352413
48	0x3d249cc3	0.040188562
49	0x3d9448ae	0.07240425
50	0x3db7e46a	0.089791134
51	0xbdc01501	-0.09379006
52	0xbdd36cb3	-0.10323467
53	0x3d655c2f	0.055996116
54	0xbddece29	-0.10879166
55	0xbd4c03b2	-0.04980821
56	0xbb2970d7	-0.0025854611
57	0xbd2a9baa	-0.04165236
58	0x3c85e659	0.01634519
59	0x3dbc1d5d	0.09185288
60	0x3c0d7ce5	0.008635734
61	0x3d91524a	0.070957735
62	0xbcbbfb64	-0.02294702
63	0x3dd64add	0.10463498
64	0xbd88d42f	-0.06681096
65	0x3da7c223	0.081913255
66	0x3df7a618	0.12092227
67	0x3d558c57	0.05213579
68	0xbd5ff2df	-0.05467498
69	0x3dc545be	0.09632443
70	0xbdef745a	-0.11692114
71	0x3df983e9	0.12183363
72	0x3d328a9d	0.043589223
73	0xbd362cdf	-0.044476386
74	0xbdee04be	-0.11621998
75	0x3d053c1c	0.032528028
76	0x3c9f7acd	0.019467736
77	0x3dd854e7	0.10563069
78	0x3dfe4a14	0.12416473
79	0xbc1070b3	-0.008815932
80	0x3df0b02f	0.11752354
81	0x3cb7ea8e	0.022450712
82	0xbb35e462	-0.0027754535
83	0x3dbd61c7	0.09247165
84	0xbdcb124b	-0.099155985
85	0x3d0f69fe	0.03501319
86	0xbdc6639a	-0.09686966
87	0x3d6a778d	0.05724292
88	0xbdf40e95	-0.11916844
89	0xbd7f177a	-0.06227825
90	0xbcc92a04	-0.024556167
91	0x3de3bbe0	0.11119819
92	0x3db693dd	0.089149214
93	0x3c692f57	0.014232478
94	0x3dafabd5	0.08577696
95	0x3d0740d9	0.033020828
96	0xbdae0fc2	-0.08499099
97	0xbc9b2423	-0.01893813
98	0xbd35bb8f	-0.044368323
99	0x3df4575d	0.11930726
100	0xbc903123	-0.017601555
101	0xbdbabcd2	-0.09118046
102	0xbc5a31e8	-0.013317563
103	0x3df08b2b	0.11745294
104	0x3d979ae9	0.07402594
105	0xbdbf6d80	-0.09347057
106	0xbd02aff8	-0.031906098
107	0x3da27c46	0.079338595
108	0xbd9f4766	-0.0777729
109	0xbd2b06af	-0.04175442
110	0x3c63e21a	0.013908887
111	0xbc8f18dd	-0.01746791
112	0x3cf38614	0.02972702
113	0xbdae7a54	-0.08519426
114	0x3dd2b88f	0.10289108
115	0x3ddec107	0.10876661
116	0xbd2c4d70	-0.042066038
117	0x3db3515f	0.08755755
118	0x3cae5880	0.021282434
119	0x3acdab40	0.0015691295
120	0x3d8e7096	0.06955068
121	0x3d13aefd	0.036055554
122	0xbdd1730a	-0.1022702
123	0x39d5bb9d	0.0004076631
124	0xbd13f8c5	-0.036125917
125	0xbb6ddbea	-0.003629441
126	0x3d9350d2	0.071931496
127	0x3d939158	0.072054565
128	0x3dcefb26	0.101064965
129	0x3d5287a2	0.05139888
130	0xbd0dfbe7	-0.03466406
131	0x3da9bb35	0.0828766
132	0xbd8e818b	-0.06958302
133	0xbd0ec97b	-0.034860115
134	0xbd32da1a	-0.04366503
135	0x3ddbd013	0.107330464
136	0xbe041b58	-0.12901056
137	0x3d59a677	0.05313727
138	0xbd991400	-0.07474518
139	0x3d87300c	0.06600961
140	0x3cdb5e3b	0.026778331
141	0x3d17b5ae	0.037038498
142	0xbe01a154	-0.12659198
143	0xbc604512	-0.013688343
144	0xbd95e240	-0.073185444
145	0xbd518b86	-0.05115845
146	0x3db13d9c	0.08654329
147	0xbdc04d1d	-0.09389708
148	0x3d87cffd	0.066314675
149	0xbd3efa29	-0.04662529
150	0xbd47a73d	-0.048743475
151	0x3d1eaf14	0.038741186
152	0xbd3aab11	-0.045573298
153	0x3df7c84c	0.120987505
154	0x3de2b213	0.11069121
155	0xbcc38498	-0.023866937
156	0x3d692c8c	0.05692725
157	0x3de81b18	0.11333293
158	0xbd33753e	-0.043812983
159	0x3de8d0d1	0.113679536
160	0x3d84574b	0.06461962
161	0x3debd0e5	0.11514453
162	0x3c1c83e8	0.009552933
163	0xbc14483c	-0.009050425
164	0xbdd0d6a7	-0.10197192
165	0xbdc5977d	-0.09648035
166	0x3dde77a7	0.108626656
167	0x3d099fa9	0.03359953
168	0xbc44e992	-0.012018578
169	0x3c70624f	0.014671876
170	0x3cc4f064	0.024040408
171	0x3cee197c	0.029064886
172	0x3d0bd237	0.034136023
173	0x3c620a98	0.013796471
174	0x3d46f3b3	0.048572253
175	0x3db57d71	0.08861817
176	0x3db45533	0.08805313
177	0x3d7bbc87	0.06145909
178	0xbcca388e	-0.02468517
179	0x3d23efea	0.04002372
180	0xbd9f05fb	-0.077648126
181	0x3dbbc53e	0.0916848
182	0x3b9ce579	0.0047880975
183	0xbd5f283e	-0.054481737
184	0xbcfc6ef8	-0.030814633
185	0x3d9e75ef	0.07737338
186	0x3dc0deb5	0.09417478
187	0x3d28fea8	0.041258484
188	0xbdbae857	-0.091263466
189	0xbdf84b93	-0.1212379
190	0x3d454e81	0.04817057
191	0xbd5491c7	-0.051896837
192	0x3d6f6152	0.05844242
193	0xbb93fdf0	-0.0045163557
194	0x3c752d24	0.014964376
195	0x3db9dbc0	0.09075117
196	0xbc2439e7	-0.010023571
197	0xbc80ae8f	-0.015708236
198	0xbe08fb3c	-0.13377088
199	0x3b8b55e6	0.0042521833
200	0xbdc0d8d8	-0.0941636
201	0xbdfeb88d	-0.12437544
202	0x3c840790	0.016116887
203	0xbdb9569c	-0.090497226
204	0x3bae2ff2	0.005315774
205	0x3dd294ab	0.102822624
206	0x3d8b3b81	0.06798459
207	0x3d51b07b	0.051193696
208	0x3c8dddf5	0.017317751
209	0x3db9aa8d	0.09065733
210	0xbdfb7bab	-0.12279447
211	0x3c2d6789	0.010583767
212	0x3d736070	0.05941814
213	0x3b43cdf2	0.0029877392
214	0x3d77ce6f	0.060499605
215	0x3d898ce7	0.06716328
216	0x3cfef822	0.031124178
217	0x3dd37a45	0.103260554
218	0xbd3c2c30	-0.045940578
219	0xbdf1dcd7	-0.118097
220	0x3d71554e	0.058919244
221	0xbdf6fedb	-0.120603286
222	0xbd3e6a07	-0.046487834
223	0xbc339238	-0.010960154
224	0x3dcc7210	0.09982693
225	0x3ce42773	0.027850842
226	0xbdb21e84	-0.08697227
227	0xbd0b5244	-0.034014
228	0xbd29b5eb	-0.041433256
229	0xbdbf916f	-0.09353911
230	0xbde384b7	-0.11109298
231	0xbd6054ef	-0.0547685
232	0xbd8b03a2	-0.06787802
233	0x3c3183ae	0.010834618
234	0xbc25b3ff	-0.010113715
235	0xbceab59b	-0.02865105
236	0xbd90fab0	-0.07079065
237	0x3c7a4ec3	0.015277567
238	0xbc057efd	-0.008147952
239	0xbd350c14	-0.04420097
240	0x3dcc4f7c	0.09976098
241	0x3d44aac8	0.048014432
242	0xbca76314	-0.020432986
243	0xbd8eaa22	-0.06966044
244	0x3dc6036c	0.096686214
245	0xbd00e481	-0.03146792
246	0x3cb68cd0	0.022283942
247	0x3dafe6c7	0.08588939
248	0x3d8e40ea	0.06945975
249	0x3ca0c863	0.019626802
250	0x3ca352f4	0.019937016
251	0x3dae4b20	0.08510423
252	0x3c179399	0.009251499
253	0x3d1dd6b8	0.03853485
254	0xbe07ac2c	-0.13249272
255	0xbdb2295f	-0.08699297

lstm.weight_hh_l0 f4 [256, 64]
0	0xbdbfda89	-0.09367854
1	0x3dc9c324	0.09851673
2	0xbb2b2df5	-0.0026119922
3	0x3cf9226e	0.030411925
4	0xbd306777	-0.04306742
5	0x3dbd9754	0.09257379
6	0x3db97dc9	0.09057195
7	0xbda62179	-0.08111853
8	0xbc87dc39	-0.016584503
9	0x3bec6ecc	0.0072153565
10	0x3d28e9e4	0.04123868
11	0x3d1720d5	0.036896545
12	0x3b91722a	0.0044386582
13	0xbc5c7742	-0.013456168
14	0xbd50b3d4	-0.050952747
15	0xbd11129c	-0.035418138
16	0x3cae34a4	0.021265335
17	0xbd821026	-0.06350736
18	0xbdd38490	-0.10328019
19	0xbd921d27	-0.071344666
20	0x3c18282c	0.0092869215
21	0xbdbb81e2	-0.091556326
22	0xbd826a88	-0.063679755
23	0xbd9f7897	-0.077866726
24	0xbdb53193	-0.08847346
25	0x3c475ca2	0.0121680815
26	0xbd49ed5d	-0.049298633
27	0x3d45b28f	0.04826599
28	0x3da8a6ac	0.08234915
29	0x3d95f03c	0.07321212
30	0xbd24f4db	-0.040272575
31	0xbd371693	-0.044699263
32	0xbd8125be	-0.06306027
33	0xbc0b5f07	-0.008506543
34	0x3d02e945	0.031960744
35	0x3d815cc5	0.063165225
36	0x3d0ab910	0.033867896
37	0xbd8eb9f3	-0.06969061
38	0xbdd22ef1	-0.102628596
39	0x3c5dd870	0.013540372
40	0xbdfa46a6	-0.12220506
41	0xbdec1743	-0.11527874
42	0xbd8970d6	-0.06710975
43	0x3de174a3	0.11008575
44	0xbdfa3276	-0.12216656
45	0x3d295b97	0.041347113
46	0xbd103b2b	-0.035212677
47	0xbd3c457d	-0.045964707
48	0xbd0d4372	-0.03448815
49	0x3de5acf3	0.11214628
50	0xba891ddc	-0.0010461169
51	0x3dc8161b	0.09769841
52	0xbc91b4e1	-0.017786445
53	0x3dfdef90	0.123992085
54	0x3bda819c	0.0066682827
55	0xbd0fd677	-0.03511664
56	0xbd634000	-0.055480957
57	0xbce67830	-0.028133482
58	0x3de9f22f	0.11423146
59	0x3d9766c8	0.07392651
60	0xbd561d23	-0.05227388
61	0x3d54cf19	0.051955316
62	0x3dd5be52	0.10436691
63	0x3d294b4a	0.041331567
64	0xbdaee728	-0.08540183
65	0x3de5928d	0.11209593
66	0xbd0a27d1	-0.033729378
67	0x3db7615b	0.08954116
68	0x3db60c49	0.08889062
69	0x3deb38df	0.11485457
70	0x3aff6d5e	0.001948755
71	0x3dac6527	0.08417731
72	0x3db2647b	0.087105714
73	0x3d0decda	0.034649707
74	0x3df0bf44	0.11755231
75	0xbd409f6d	-0.04702704
76	0xbc8921aa	-0.016739685
77	0xbd860b16	-0.06545083
78	0xbd3a57f0	-0.04549402
79	0x3d8ecb5c	0.069723815
80	0x3ddd3589	0.10801227
81	0x3ddc23ec	0.10749039
82	0x3d829c12	0.06377424
83	0x3dd60608	0.10450369
84	0x3b4566f3	0.0030121177
85	0x3dd1f11b	0.10251065
86	0xbd3a0c1b	-0.0454217
87	0x3c61d278	0.01378309
88	0xbd98ad10	-0.07454884
89	0xbc85a785	-0.016315231
90	0x3d386c83	0.04502536
91	0xbdcc8ff7	-0.099883966
92	0x3d42f361	0.047595385
93	0x3cd35bca	0.025800604
94	0xbcf7cd94	-0.030249394
95	0xbcfc1cbb	-0.030775419
96	0x3d0bfb6e	0.03417533
97	0xbdccbff2	-0.09997548
98	0x3ca77ee6	0.020446252
99	0x3da93be7	0.082633786
100	0x3be2f5a2	0.0069262544
101	0xbddf1c0e	-0.10894023
102	0x3d67bc8e	0.056576304
103	0x3cee144d	0.029062415
104	0x3e075561	0.13216163
105	0x3d7e2943	0.06205107
106	0xbd8e7977	-0.06956761
107	0x3de1a3af	0.11017548
108	0x3dde83df	0.10864996
109	0xbdd688dd	-0.10475323
110	0xbd683e24	-0.056699887
111	0x3da05e78	0.078305185
112	0x3cf44690	0.029818803
113	0x3ddf2688	0.10896021
114	0x3c875489	0.016519802
115	0xbd312f01	-0.043257717
116	0x3de81776	0.113326
117	0xbc55a9f5	-0.013041009
118	0x3d0b4a3b	0.03400634
119	0x3d29be33	0.041441154
120	0x3d9a0b74	0.07521716
121	0x3da929b5	0.08259908
122	0xbd1224fd	-0.035679806
123	0x3df53029	0.119720764
124	0x3999bff8	0.00029325462
125	0xbc21a356	-0.0098656025
126	0xbd0b4877	-0.034004655
127	0xba999bc0	-0.0011719391
128	0xbd3c022b	-0.045900505
129	0x3d99955f	0.074991934
130	0x3ce426f3	0.027850604
131	0x3d6a9020	0.057266355
132	0xbda55013	-0.080719136
133	0xbb6aed6a	-0.0035847076
134	0xbc90f5ce	-0.017695334
135	0x3beaa99b	0.007161332
136	0x3d599dff	0.053129192
137	0xbda73688	-0.08164698
138	0x3d9e8a30	0.07741201
139	0x3ce78919	0.028263615
140	0xbdd105ef	-0.1020621
141	0x3ddbd985	0.10734848
142	0xbc62456c	-0.013810497
143	0x3d8723d1	0.06598628
144	0x3c5309d0	0.012880757
145	0xbcbd228f	-0.023087768
146	0x3da054b4	0.07828656
147	0x3c59b973	0.013288843
148	0xbdc01de2	-0.093807
149	0xbdbb6dce	-0.09151803
150	0x3b113696	0.002215778
151	0xbdb4ea2f	-0.088337295
152	0x3dfa65ad	0.12226424
153	0xbdb39c36	-0.08770029
154	0x3d591ed7	0.053007927
155	0x3dc6e742	0.09712078
156	0xbdff2233	-0.12457695
157	0xbd5f76f8	-0.054556817
158	0x3cf672a9	0.030083971
159	0xbcdcc79e	-0.026950654
160	0x3dc2235a	0.09479399
161	0xbd7af20d	-0.061265994
162	0xbd6d4ee7	-0.057936575
163	0xbd070992	-0.03296811
164	0x3c690677	0.014222733
165	0x3d7d2c08	0.06180957
166	0xbd921768	-0.07133371
167	0x3da6d0fb	0.081453286
168	0xbd4eb6d4	-0.050467327
169	0x3d2baff5	0.041915853
170	0xbd924b24	-0.07143238
171	0xbe05c7ee	-0.13064548
172	0x3dd049a4	0.10170296
173	0xbd1f1e7d	-0.038847435
174	0xbd6647b6	-0.056220733
175	0x3d8d963f	0.06913423
176	0xbc87faa1	-0.016599001
177	0xbc934c6f	-0.017980782
178	0x3da44023	0.080200456
179	0x3db51b60	0.08843112
180	0x3c5c2dbd	0.013438639
181	0xbd4194c0	-0.047261
182	0x3dccf227	0.100071244
183	0xbde90591	-0.11378015
184	0xbddea3e0	-0.108711004
185	0xbd2557a2	-0.040366776
186	0x3cc939d7	0.024563713
187	0x3daaf78e	0.083479986
188	0xbd1e6e4d	-0.03867941
189	0x3c765ff7	0.015037528
190	0xbac879a0	-0.0015295036
191	0xbdc9f445	-0.09861044
192	0xbda5cb14	-0.08095375
193	0x3dcf17eb	0.10111984
194	0x3d9a86f9	0.07545275
195	0x3df38e1d	0.1189234
196	0xbca5925c	-0.020211391
197	0xbdc0b820	-0.09410119
198	0xbcdb0650	-0.026736408
199	0x3b5fb2c2	0.0034133648
200	0x3cad108b	0.021126052
201	0xbcb4fa6f	-0.022092072
202	0x3c10bf49	0.008834668
203	0x3cdcc42c	0.02694901
204	0x3b6c65c5	0.0036071402
205	0xbd4d61e8	-0.0501422
206	0xbde10e08	-0.109890044
207	0x3db050fa	0.08609195
208	0x3cddf3f7	0.02709387
209	0xbdad580f	-0.084640615
210	0xbd0ec2b0	-0.034853637
211	0xbc7ba5c3	-0.015359345
212	0xbdadb12b	-0.08481058
213	0x3daf2c16	0.085533306
214	0xbd9d3891	-0.07676805
215	0x3c8b048b	0.01696994
216	0x3de1ce9d	0.110257365
217	0x3d40dc88	0.047085315
218	0x3d3ede0f	0.04659849
219	0x3c117d89	0.008880028
220	0xbdb9be85	-0.09069542
221	0xbd213728	-0.03935924
222	0xbbaf84ae	-0.005356393
223	0x3d96887f	0.07350253
224	0xbd9f2097	-0.07769888
225	0x3d8aea62	0.06782986
226	0x3d675c4e	0.056484513
227	0x3db60a6f	0.08888709
228	0x3d00d2f0	0.031451166
229	0xbd7aee92	-0.061262675
230	0xbd364e75	-0.044508416
231	0xbdc0ba04	-0.0941048
232	0xbdbb5c7f	-0.091485016
233	0xbbcd11c8	-0.006258223
234	0x3d901090	0.07034409
235	0xbc0a67ed	-0.008447629
236	0x3d80d069	0.06289751
237	0x3d226336	0.039645396
238	0xbd49125b	-0.04908977
239	0x3bc3199e	0.0059539815
240	0xbcf960e5	-0.03044171
241	0xbddd4add	-0.10805295
242	0xbcbf5167	-0.023354245
243	0x3cebe1bf	0.028794168
244	0x3d424ad6	0.04743465
245	0xbda2a2ca	-0.07941206
246	0xbd9986df	-0.07496428
247	0xbcf185df	-0.02948278
248	0xbc309aba	-0.010779077
249	0x3db64735	0.089003004
250	0xbd683a80	-0.056696415
251	0xbcd8faca	-0.026486773
252	0xbe03615b	-0.12830107
253	0x3d92c88f	0.0716716
254	0x3cb97111	0.022636922
255	0xbccbc599	-0.024874495

lstm.bias_ih_l0 f4 [256]
0	0x3d2ec487	0.04266789
1	0xbd952151	-0.07281745
2	0xbd7d9675	-0.061911065
3	0xbd2c0f7b	-0.04200695
4	0xbd412e11	-0.047163073
5	0x3d9a5d3c	0.07537314
6	0xbcc498b6	-0.0239986
7	0xbb9afceb	-0.004729857
8	0xbbfcd53e	-0.00771585
9	0xbdee4ecc	-0.11636123
10	0xbd3e7e1f	-0.046506997
11	0xbe02e602	-0.12783054
12	0xbcb4a458	-0.022051021
13	0xbd5ee608	-0.054418594
14	0xbd618477	-0.05505797
15	0xbbfe0153	-0.0077516227
16	0xbcf6856b	-0.030092916
17	0xbd4e8ffa	-0.050430275
18	0x3c9c3486	0.019068014
19	0xbb803e87	-0.003913704
20	0xbcdcfafb	-0.026975146
21	0xbd952432	-0.07282294
22	0x3c9d3325	0.019189427
23	0x3cb9434d	0.0226151
24	0x3d6d656c	0.05795805
25	0x3bda0a81	0.006654084
26	0x3da95976	0.082690164
27	0x3d8ef881	0.06980992
28	0xbddf952a	-0.10917123
29	0x3cff5c93	0.031172073
30	0x3d43a495	0.04776438
31	0x3d0809c9	0.033212457
32	0xbd763ef7	-0.06011864
33	0xbd9cc231	-0.076542266
34	0xbd73c3d4	-0.059512928
35	0xbd59d09f	-0.053177472
36	0x3dd59896	0.10429494
37	0xbd64cffe	-0.05586242
38	0xbdb18aeb	-0.086690746
39	0x3d94a128	0.072573006
40	0x3d85e122	0.06537081
41	0x3da7458c	0.08167562
42	0xbce7c577	-0.0282924
43	0xbdbfc649	-0.09363992
44	0xbdb86a8f	-0.090046994
45	0xbe0432f3	-0.1291006
46	0xbcc90308	-0.024537578
47	0xbb9a6741	-0.004712016
48	0x3d985f21	0.074400194
49	0xbd41d8eb	-0.04732601
50	0x3c8bbc37	0.017057521
51	0xbce84dfb	-0.028357496
52	0x3d6d9763	0.0580057
53	0xbd800346	-0.06250624
54	0xbd5f142a	-0.05446259
55	0x3d15688c	0.036476657
56	0x3dedac2b	0.11605104
57	0x3d93d870	0.072190166
58	0x3cb54b46	0.02213062
59	0x3dd83bfd	0.10558317
60	0x3d972898	0.073807895
61	0x3d805916	0.06266992
62	0xbdc2d65b	-0.09513541
63	0x3d484d81	0.04890204
64	0xbd8a8d7c	-0.06765267
65	0x3dd09c15	0.1018602
66	0xbd8ce5db	-0.06879779
67	0xbd1c45d0	-0.038152516
68	0x3d1a5855	0.037681896
69	0x3dc0ec6e	0.094200954
70	0xbdfd1679	-0.12357802
71	0xbd25fa44	-0.040521875
72	0xbcc15b05	-0.023602972
73	0xbda1da11	-0.07902921
74	0x3d05de16	0.0326825
75	0x3dac01e1	0.08398796
76	0x3d3b9b41	0.04580236
77	0xbcc4ea23	-0.024037426
78	0xbd85f1ff	-0.06540298
79	0x3d5f2c80	0.054485798
80	0x3da73f8a	0.08166416
81	0xbdca2950	-0.09871161
82	0xbcfd69b5	-0.030934194
83	0x3d5fae48	0.054609567
84	0xbdae5abc	-0.085134
85	0x3da4a85b	0.08039924
86	0xbb975860	-0.0046186894
87	0xbdb4cc75	-0.088280596
88	0xbd2282c7	-0.0396755
89	0x3d945609	0.072429724
90	0xbd6e7de5	-0.05822553
91	0x3db68307	0.0891171
92	0x3da07c73	0.07836237
93	0xbd828af5	-0.0637416
94	0xbcc62f0d	-0.024192357
95	0xbc1e3102	-0.009655239
96	0x3dc4233f	0.09577035
97	0x3d415dd1	0.04720861
98	0xbe003be6	-0.1252285
99	0x3dc73873	0.09727564
100	0xbd93d27e	-0.072178826
101	0xbcb674e0	-0.022272527
102	0x3dd117c4	0.10209611
103	0x3d8a12d0	0.067418694
104	0x3db6b05a	0.08920355
105	0x3c4313a5	0.011906539
106	0x3b852c67	0.004064131
107	0x3daf0152	0.08545174
108	0x3db32b6b	0.08748516
109	0xbdcbb8f3	-0.09947386
110	0xbd018e34	-0.031629756
111	0x3c82f29d	0.015984828
112	0xbb1333e0	-0.002246134
113	0xbdc69c56	-0.096977875
114	0x3dc88a69	0.09792025
115	0xbd0b09c2	-0.033944853
116	0x3decc283	0.11560538
117	0xbd497196	-0.04918059
118	0xbda4bb58	-0.080435455
119	0x3d787bd7	0.060664978
120	0xbde2a3f5	-0.110664286
121	0x3dc8bb68	0.0980137
122	0x3dc0efd6	0.09420745
123	0x3df1b2c9	0.11801679
124	0x3dd78972	0.105242625
125	0xbe018f66	-0.12652358
126	0x3d8ba1a3	0.06817939
127	0xbd86dfeb	-0.06585678
128	0xbdb9a5dd	-0.09064839
129	0xbd16116f	-0.03663772
130	0xbda4f51b	-0.08054563
131	0x3c61453f	0.01374942
132	0x3d9c6da2	0.07638098
133	0xbe04c0a8	-0.12964118
134	0xbd0bc91c	-0.03412734
135	0x3de8e14b	0.11371096
136	0x3b7e0474	0.0038759978
137	0xbe003166	-0.12518844
138	0x3d98ecdf	0.074670546
139	0x3d9eb0ad	0.07748542
140	0xbde07c89	-0.10961253
141	0xbccba897	-0.024860663
142	0x3cb54d5b	0.022131613
143	0x3d8159df	0.0631597
144	0xbdc2f6cf	-0.09519731
145	0xbdeab5e9	-0.11460478
146	0x3da31553	0.07963052
147	0xbd3489d7	-0.044076767
148	0x3dc16be4	0.09444407
149	0xbdcbe8cb	-0.09956511
150	0x3e024a98	0.12723768
151	0xbe050872	-0.12991503
152	0x3ddad562	0.10685231
153	0xbd36e151	-0.044648472
154	0x3d008b10	0.03138262
155	0xbb105728	-0.0022024605
156	0x3d9a4ab8	0.07533783
157	0x3deeeadf	0.11665892
158	0xbdced5f4	-0.10099402
159	0x3d072f26	0.03300395
160	0xbcb33153	-0.021874106
161	0xbbaa196b	-0.0051910183
162	0x3dbd3976	0.092394754
163	0x3daed438	0.08536571
164	0x3d2963c6	0.041354917
165	0xbdab54a5	-0.08365754
166	0xbce16026	-0.027511667
167	0xbd5f8add	-0.05457579
168	0x3d84b14f	0.064791314
169	0x3b385dea	0.002813215
170	0xbc4c677e	-0.012475846
171	0x3dbf4955	0.09340159
172	0x3d86ccff	0.06582069
173	0xbd313ec0	-0.043272734
174	0x3d177be8	0.0369834
175	0x3d7e742d	0.062122513
176	0xbc143a93	-0.009047168
177	0xbdef727e	-0.116917595
178	0x3b3dbcaa	0.0028951564
179	0xbd2c75d4	-0.042104557
180	0xbd776a05	-0.060403842
181	0xbad87acf	-0.0016516092
182	0xbdce9547	-0.10087066
183	0xbde706b7	-0.11280578
184	0x3d292326	0.041293286
185	0xbd13e4da	-0.03610692
186	0xbcbcea5b	-0.023060968
187	0x3d198be8	0.03748694
188	0x3b58003d	0.0032959126
189	0xbd92aed7	-0.07162254
190	0x3bbe3dd4	0.0058057103
191	0x3d49ae29	0.049238358
192	0xba288da9	-0.00064298004
193	0xbcea0a33	-0.028569316
194	0x3d007c8d	0.03136878
195	0xbca701ef	-0.020386664
196	0xbdd51041	-0.10403491
197	0xbd8985ac	-0.06714949
198	0x3d8f9200	0.07010269
199	0xbdda161f	-0.106487505
200	0xbd020418	-0.031742185
201	0xbc7d5520	-0.01546219
202	0xbd95d13f	-0.07315301
203	0x3cdeb18b	0.027184268
204	0xbcda02e9	-0.026612716
205	0x3c825ff9	0.015914904
206	0x3d718d46	0.05897262
207	0xbe014e6a	-0.12627569
208	0xbdfb63ec	-0.12274918
209	0x3d087bab	0.033321064
210	0x3d1d1c1b	0.03835688
211	0x3ce5debc	0.02806031
212	0xbd249682	-0.040182598
213	0xbe0a0d67	-0.13481675
214	0xbd5a1d97	-0.053250875
215	0x3d8740d9	0.066041656
216	0xbd600e20	-0.05470097
217	0xbc09d835	-0.008413364
218	0x3db4c6b1	0.0882696
219	0x3d8722c9	0.065984316
220	0x3dea9bb4	0.11455479
221	0xbc1b0125	-0.009460722
222	0xbde3be8b	-0.111203276
223	0xbd4acd94	-0.04951246
224	0xbd62baec	-0.055354044
225	0x3c963e10	0.01834014
226	0xbda794ac	-0.08182654
227	0x3dcb4770	0.09925735
228	0x3dc8c949	0.09804017
229	0xbca5f2ba	-0.020257343
230	0x3d8bca88	0.06825739
231	0x3cd60d75	0.026129464
232	0x3c2b584e	0.010458065
233	0x3db32eb7	0.087491445
234	0x3c6b5c29	0.014365234
235	0xbd50f73b	-0.051017027
236	0x3df4fc8f	0.11962234
237	0x3d861b26	0.06548147
238	0x3d95e350	0.07318747
239	0xbcb0bb9f	-0.02157384
240	0x3ce6313b	0.028099647
241	0x3c94a461	0.018144788
242	0xbddb02db	-0.10693904
243	0x3df259ad	0.118335105
244	0xbe01b66f	-0.12667249
245	0xbdb12820	-0.08650231
246	0x3de57538	0.11203998
247	0xbc1a3fe3	-0.009414646
248	0xbdf77cba	-0.120843366
249	0x3e02f9a1	0.12790538
250	0x3de2e4ac	0.11078772
251	0x3d2f42d3	0.042788338
252	0xbd23e1c3	-0.040010225
253	0x3d5967df	0.053077575
254	0x3d2f4a9b	0.04279576
255	0xbdb75f14	-0.089536816
