checkpoints/xvad_epoch_3.pth (torch, 340597 bytes, 23 tensors)

conv.0.weight f4 [32, 80, 3]
0	0xbdb0029b	-0.08594247
1	0x3b7ab15d	0.003825269
2	0xbbf478ee	-0.007460705
3	0xbd12a828	-0.035804898
4	0xbc6fc014	-0.014633197
5	0xbc181cb8	-0.009284191
6	0xbc1c69e3	-0.00954673
7	0x3d965bf4	0.073417574
8	0xbd75a7bd	-0.05997442
9	0xbd3d5851	-0.046226803
10	0x3d219b27	0.039454605
11	0x3c8ac67d	0.01694035
12	0x3d53d338	0.051715106
13	0x3d06e9bf	0.03293776
14	0xbcb9c39e	-0.022676285
15	0xbd8be804	-0.06831363
16	0x3c32a5cd	0.010903788
17	0x3d0ec364	0.034854308
18	0xbae49c2a	-0.001744156
19	0x3d02e458	0.031956047
20	0xbc51a551	-0.012795762
21	0xbd07dc26	-0.033168934
22	0xbcc21296	-0.023690503
23	0x3cd756a3	0.026286429
24	0x3cd7c080	0.026336908
25	0x3ca8ef86	0.020622026
26	0x3cb9bb54	0.022672333
27	0xbd38b4de	-0.045094363
28	0xbbb27323	-0.0054458543
29	0xbd2e4f83	-0.042556297
30	0xbcd52fc4	-0.026023753
31	0x3b118157	0.0022202337
32	0xbce89e36	-0.028395753
33	0xbca6fa00	-0.020382881
34	0xbd47e0c7	-0.04879835
35	0x3d6421b3	0.0556962
36	0x3d844b04	0.064596206
37	0x3d6e5a44	0.058191553
38	0x3d4587a6	0.048225068
39	0x3cc84271	0.024445744
40	0x3d54daff	0.051966663
41	0xbd5214ef	-0.051289495
42	0x3d96f7d5	0.07371489
43	0x3d37edf7	0.044904675
44	0xbcad3fb1	-0.021148534
45	0x3c1f3325	0.009716784
46	0x3d219603	0.039449703
47	0xbd51feb7	-0.051268306
48	0x3d2d20c5	0.04226758
49	0xbd4d3c5e	-0.0501064
50	0x3cbf11c9	0.02332391
51	0xbd2fb92b	-0.0429012
52	0xbaa00231	-0.0012207684
53	0xbcbf5694	-0.023356713
54	0x3bb69806	0.005572322
55	0x3d5edf03	0.0544119
56	0xbcea0cef	-0.02857062
57	0x3c2f3cfb	0.010695691
58	0x3d80d580	0.06290722
59	0xbcce3140	-0.025169969
60	0xbcdfae0a	-0.027304668
61	0x3d3b304b	0.045700353
62	0x3d87933a	0.06619878
63	0x3c320066	0.010864353
64	0xbd62ca50	-0.05536872
65	0xbca5d7d4	-0.020244516
66	0xbd8a2587	-0.06745439
67	0x3bcc84cf	0.006241418
68	0x3b27d015	0.0025606204
69	0xbd4c6ec4	-0.04991032
70	0xbcfccf1b	-0.030860474
71	0x3d45f5d8	0.048330158
72	0xbcf3a2fa	-0.0297408
73	0xbd248a30	-0.04017085
74	0x3d11b90c	0.035576865
75	0xbcfb7c49	-0.030698912
76	0xbd8069b8	-0.06270164
77	0xbd070c1e	-0.03297054
78	0xbbe42e52	-0.0069635296
79	0x3c4bb3fa	0.0124330465
80	0x3b45b539	0.0030167832
81	0x3d30be8f	0.04315048
82	0x3d989359	0.07449979
83	0x3d127616	0.035757147
84	0x3d39a148	0.045319825
85	0x3d96b52b	0.07358774
86	0xbcc02993	-0.023457324
87	0xbd775e37	-0.060392585
88	0x3bfc722d	0.0077040405
89	0xbd2c905e	-0.042129867
90	0x3b90d6a1	0.004420117
91	0xbd41222a	-0.047151722
92	0x3d220c6f	0.03956264
93	0x3bf7d7fc	0.007563589
94	0x3cdf954e	0.027292874
95	0x3ca13aec	0.019681416
96	0xbb1de3d9	-0.0024092107
97	0xbd53a3c7	-0.051669862
98	0x3d1a9c58	0.037746757
99	0x3d5e69e9	0.054300223
100	0x3d5f7bad	0.054561306
101	0x3d2153c3	0.039386522
102	0xbd68c5ef	-0.05682939
103	0x3c493b71	0.012282238
104	0xbc9f9cf3	-0.019484019
105	0xbd2d1f85	-0.042266387
106	0x3c0084ea	0.007844189
107	0x3b8cec72	0.0043006474
108	0xbd8d27aa	-0.06892331
109	0xbd99c63f	-0.075085156
110	0x3d581b3b	0.052760344
111	0xbbb4c21a	-0.005516303
112	0xbd25659b	-0.0403801
113	0xbc82c78e	-0.015964296
114	0xbcd7d564	-0.02634687
115	0x3bd56f39	0.006513503
116	0xbc70b0cf	-0.014690592
117	0x3d03c14f	0.032166775
118	0xbd817502	-0.063211456
119	0x3d5c5dc0	0.053800344
120	0x3c72e9ca	0.0148262475
121	0xbc269847	-0.010168142
122	0xbcfd5531	-0.030924411
123	0xbd6ecc86	-0.058300517
124	0xbd93bb2f	-0.07213437
125	0x3ca99a5c	0.020703487
126	0x3c55cc1b	0.013049151
127	0xbcaed165	-0.021340081
128	0x3d393bf9	0.04522321
129	0x3ca38839	0.019962417
130	0xbc8b6eae	-0.01702055
131	0xbd44e6ba	-0.0480716
132	0xbd11c25c	-0.035585746
133	0xbc817324	-0.015801974
134	0x3d18a3c7	0.037265565
135	0xbcfdee9b	-0.030997565
136	0x3b2f35f8	0.0026735049
137	0xbd36672b	-0.044531982
138	0xbd1a5acd	-0.03768425
139	0xbcae0d87	-0.021246685
140	0xbc4c47cc	-0.01246829
141	0x3ba26959	0.004956406
142	0xbd58fcee	-0.052975588
143	0xbd0b1b63	-0.033961665
144	0x3ca552b9	0.020181047
145	0x3bdc0306	0.0067142276
146	0x3d688bbc	0.056773886
147	0x3d11177c	0.035422787
148	0xbd51c9f1	-0.051217977
149	0x3cdf55ac	0.027262531
150	0x3bd0a78f	0.006367631
151	0x3d18e83d	0.037330855
152	0xbc8eaac2	-0.017415408
153	0x3d136d0f	0.03599268
154	0xbd2fc3d8	-0.04291138
155	0x3d8722b4	0.06598416
156	0xbd055f4b	-0.03256158
157	0x3c8c5adb	0.017133167
158	0xbbc31b5e	-0.00595419
159	0x3cc66bcd	0.024221325
160	0xbd0390c9	-0.0321205
161	0x3d12a8bd	0.035805453
162	0xbd8e4692	-0.06947054
163	0xbce27d63	-0.02764768
164	0xbd6ad65b	-0.05733333
165	0x3d76b412	0.060230322
166	0xbcc60581	-0.024172546
167	0x3ceac375	0.028657654
168	0xbda2146a	-0.0791405
169	0x3d7574b1	0.05992574
170	0x3cef10aa	0.02918275
171	0x3cc9cd48	0.024634019
172	0x3d01323a	0.03154204
173	0x3cbb25d6	0.02284519
174	0x3d4c7f91	0.049926344
175	0xbbef348d	-0.0072999657
176	0x3d2d0503	0.042241108
177	0xbd776d4c	-0.060406968
178	0x3d120ba7	0.035655644
179	0x3d24d219	0.040239427
180	0xbc752932	-0.014963435
181	0x3d42fcdd	0.04760443
182	0x3d632457	0.05545458
183	0x3c85d778	0.016338095
184	0xbbe1b5ce	-0.006888128
185	0x3d10e696	0.035376154
186	0xbceacade	-0.028661188
187	0xbb4b7cc1	-0.00310497
188	0x3d4490b5	0.047989566
189	0x3d158642	0.03650499
190	0x3b9e10dd	0.0048237876
191	0xbd8e5a6b	-0.069508396
192	0x3d0f54ca	0.03499297
193	0xbb2b490f	-0.0026136076
194	0xbd2b47c0	-0.041816473
195	0x3c1f77e7	0.009733177
196	0x3d1c6011	0.038177554
197	0xbcc18f80	-0.023627996
198	0xbd41c0ee	-0.047303133
199	0xbc9170e0	-0.017754018
200	0x3cd0171f	0.02540165
201	0xbd1549eb	-0.036447447
202	0xbd9d1b95	-0.076712765
203	0xbd3b9282	-0.045794018
204	0x3d48d589	0.049031768
205	0xbd4d21a6	-0.050080918
206	0x3d434a30	0.047678173
207	0x3d8af26f	0.06784522
208	0x3d34c7d1	0.044135872
209	0xbd95b90d	-0.07310686
210	0xbca22ad6	-0.019795816
211	0xbd97853b	-0.073984586
212	0x3bab7ace	0.0052331453
213	0x3c468b15	0.012118121
214	0x3be9ba69	0.0071328175
215	0xbd1c2da4	-0.038129464
216	0xbd2ff731	-0.04296035
217	0x3cb8a823	0.022541111
218	0xbc8c3aaf	-0.017117826
219	0x3b99f899	0.0046988246
220	0xbd65b61f	-0.056081887
221	0xbc3fc81c	-0.011705425
222	0xbcc7e37e	-0.024400469
223	0xbc9f8258	-0.019471332
224	0xbc2b7d82	-0.010466935
225	0xbcd16b3b	-0.025563827
226	0x3d5db263	0.0541252
227	0xbd14e7cc	-0.03635387
228	0x3bedf4b7	0.0072618383
229	0xbcdd99e9	-0.02705093
230	0x3d686b1c	0.056742772
231	0xbd864ee9	-0.0655802
232	0x3c1677ef	0.009183868
233	0xbd94e876	-0.07270901
234	0x3d2edf85	0.042693634
235	0xbc0ed83a	-0.008718545
236	0x3cc487b9	0.023990499
237	0xbc9d17c3	-0.01917637
238	0xbd19b75d	-0.037528384
239	0xbcc0c7a7	-0.023532702
240	0x3cde583c	0.027141683
241	0x3cac2a76	0.02101634
242	0xbd0b197c	-0.03395985
243	0x3d1df5a3	0.038564336
244	0x3bd58c68	0.006516982
245	0x3d87bef9	0.06628222
246	0xbd5fd875	-0.05464979
247	0xbd55693c	-0.052102312
248	0x3d1888c5	0.03723981
249	0xbcaae4e7	-0.020861102
250	0x3d3a1748	0.04543236
251	0xbd43cb34	-0.04780121
252	0xbd0bdb23	-0.034144532
253	0x3c8964ef	0.016771762
254	0x3d2b9310	0.041888297
255	0xbb162c21	-0.0022914486

conv.0.bias f4 [32]
0	0x3d441273	0.047869157
1	0x3d828ba8	0.063742936
2	0x3cf705fa	0.030154217
3	0x3d2d439b	0.0423008
4	0x3d5f407a	0.05450485
5	0x3d8360bc	0.06414935
6	0xbd4158b2	-0.047203727
7	0xbd046175	-0.032319505
8	0xbd6b00d2	-0.05737383
9	0xbd8056c7	-0.062665515
10	0x3d7b5195	0.0613571
11	0x3d77e4eb	0.060521048
12	0xbd53878b	-0.051642936
13	0x3d765456	0.060139023
14	0x3c2ff6e7	0.010740018
15	0xbc4aa751	-0.012368993
16	0xbd0bb39c	-0.034106836
17	0xbd5013e5	-0.050800223
18	0x3d105fe4	0.0352477
19	0xbd7a7636	-0.06114789
20	0xbc4c9ce1	-0.012488575
21	0xbcaae126	-0.020859312
22	0xbd0c4157	-0.034242
23	0x3d82f859	0.06395025
24	0xbd7d08f7	-0.061776128
25	0x3d06f0fd	0.032944668
26	0xbd523015	-0.051315386
27	0x3cf208f6	0.029545289
28	0xbb7e1ba3	-0.0038773797
29	0x3d267f26	0.040648602
30	0xbc70623e	-0.01467186
31	0xbc8e2fe9	-0.01735683

conv.1.weight f4 [32]
0	0x3f804d35	1.0023562
1	0x3f800df2	1.0004256
2	0x3f80509c	1.00246
3	0x3f7ef93b	0.99599046
4	0x3f81fe6d	1.015577
5	0x3f7f65a6	0.9976448
6	0x3f7f3bb5	0.9970048
7	0x3f80e7ee	1.0070779
8	0x3f80565a	1.0026352
9	0x3f80cf38	1.0063238
10	0x3f81aee5	1.0131499
11	0x3f7fd7a5	0.9993842
12	0x3f82d99e	1.0222661
13	0x3f7e4da5	0.99337226
14	0x3f7c251d	0.9849413
15	0x3f8169f6	1.0110462
16	0x3f7e7b66	0.9940704
17	0x3f80ccd3	1.0062507
18	0x3f7de652	0.99179566
19	0x3f8106a3	1.008015
20	0x3f804189	1.002
21	0x3f7f5b7e	0.9974898
22	0x3f7f5597	0.99739975
23	0x3f7c74d7	0.98615783
24	0x3f8028cb	1.0012449
25	0x3f81df34	1.0146241
26	0x3f7c4cc4	0.98554635
27	0x3f7dce5a	0.9914299
28	0x3f7cc76a	0.9874178
29	0x3f80b039	1.0053779
30	0x3f7c615e	0.9858607
31	0x3f8082ad	1.0039879

conv.1.bias f4 [32]
0	0xbb147b86	-0.0022656634
1	0xbbc9cd6e	-0.0061585223
2	0x3c07f06e	0.008297069
3	0xbbafaabf	-0.0053609307
4	0x3b824ae0	0.003976211
5	0xbc69eddd	-0.014277902
6	0x3b06e38f	0.0020582413
7	0x3bfaa9e8	0.007649649
8	0x3a795ca5	0.00095124013
9	0xbc52f90b	-0.012876759
10	0x3b9c5665	0.004771041
11	0x3bcd3a9e	0.006263091
12	0x3cb969dd	0.022633487
13	0xbb7c69ba	-0.0038515166
14	0xbcac0a52	-0.021001015
15	0x3a42be74	0.00074288924
16	0xbc0c4399	-0.008561038
17	0x3b4c9044	0.0031213919
18	0xbbadfbc3	-0.0053095534
19	0x3c2ca44f	0.010537221
20	0xbb343e59	-0.0027502982
21	0xbca7f908	-0.02050449
22	0x3a109738	0.00055156974
23	0xbb57321a	-0.003283626
24	0xbc5a2aed	-0.013315898
25	0x3acc5dcc	0.0015591918
26	0xbae18ddb	-0.0017208414
27	0x3bb33874	0.005469376
28	0xbbc9a29a	-0.006153417
29	0xbb6397bb	-0.003472789
30	0xbc8416ba	-0.016124118
31	0x3bd62b45	0.00653592

conv.1.running_mean f4 [32]
0	0x3d3f778a	0.04674486
1	0x3d864c5d	0.06557534
2	0x3cfdbb50	0.030973107
3	0x3d27ee9e	0.040999047
4	0x3d5130da	0.05107198
5	0x3d91ef0c	0.07125673
6	0xbd335859	-0.043785427
7	0xbcf42b83	-0.029805904
8	0xbd610156	-0.054932915
9	0xbd760ac9	-0.06006888
10	0x3d7ae2e4	0.061251536
11	0x3d75695b	0.059914928
12	0xbd4c7dd2	-0.04992468
13	0x3d78cb58	0.0607408
14	0x3c5be1e9	0.01342056
15	0xbc838e9d	-0.016059214
16	0xbd0b1788	-0.033957988
17	0xbd5196ad	-0.051169086
18	0x3d0cbe88	0.034361392
19	0xbd86bfd7	-0.06579559
20	0xbc8973dd	-0.01677888
21	0xbcab753c	-0.020929925
22	0xbd038977	-0.03211352
23	0x3d849e6c	0.06475529
24	0xbd70d19c	-0.05879365
25	0x3d0d1dae	0.034452133
26	0xbd5687b3	-0.052375507
27	0x3cf3e37c	0.029771559
28	0xbb74562e	-0.0037282812
29	0x3d237f8b	0.039916556
30	0xbc8807fe	-0.016605373
31	0xbc8fed83	-0.01756931

conv.1.running_var f4 [32]
0	0x3ebc2d4d	0.36753312
1	0x3eb09dfc	0.34495533
2	0x3ebb2705	0.36553207
3	0x3eb43414	0.35195982
4	0x3eaeea9a	0.34163362
5	0x3eb66db3	0.3563057
6	0x3eb5c0b1	0.35498574
7	0x3ecaf614	0.39640868
8	0x3ec4abc3	0.38412294
9	0x3eb0be96	0.34520406
10	0x3eb80b83	0.35946283
11	0x3eb748bf	0.35797688
12	0x3eb5b842	0.3549214
13	0x3eb31879	0.3497961
14	0x3ec27d06	0.3798601
15	0x3ebf7289	0.3739207
16	0x3eaa14ef	0.33219096
17	0x3ea513df	0.32241723
18	0x3ead091d	0.33796015
19	0x3eb3bce2	0.35105044
20	0x3ea34ded	0.3189539
21	0x3eb80864	0.35943902
22	0x3eb00a80	0.3438301
23	0x3ec9c0ba	0.3940485
24	0x3eb774df	0.35831353
25	0x3eac2a77	0.33626148
26	0x3ea711ab	0.32630667
27	0x3eaabc1a	0.33346635
28	0x3eb79f87	0.35863897
29	0x3eb17e39	0.34666613
30	0x3eb50a66	0.35359496
31	0x3eb39697	0.35075828

conv.4.weight f4 [64, 32, 3]
0	0xbc69321c	-0.014233138
1	0xbd83c5ac	-0.06434187
2	0x3dc260d5	0.094911255
3	0xbcf3b542	-0.029749516
4	0x3db8d659	0.090252586
5	0x3d9f0692	0.07764925
6	0xbd28ed81	-0.041242126
7	0xbd909c6d	-0.07061086
8	0x3d9f7e98	0.07787818
9	0x3d390593	0.04517133
10	0x3d6ffa1b	0.05858813
11	0x3d77567b	0.06038521
12	0x3db07549	0.0861612
13	0x3d55aad5	0.05216487
14	0x3daac38e	0.0833808
15	0xbd8a6f23	-0.06759479
16	0xbd389783	-0.045066368
17	0xbb20c9b2	-0.0024534282
18	0xbd970f93	-0.073760174
19	0xbc834ef8	-0.016028866
20	0x3d9e72ba	0.07736726
21	0xbd0af34c	-0.033923432
22	0xbda60a90	-0.081074834
23	0xbc541a84	-0.012945775
24	0xbd9314ca	-0.071816996
25	0x3d8168cf	0.06318819
26	0xbd064eb9	-0.03278992
27	0x3c5ab1f9	0.013348096
28	0x3c9cf29b	0.019158652
29	0xbc199c5d	-0.009375659
30	0x3ca2f338	0.019891366
31	0x3dc6069b	0.09669229
32	0xbd5a0037	-0.05322286
33	0x3d578674	0.05261846
34	0x3da07a96	0.078358814
35	0x3c57adba	0.013163978
36	0xbdd598d7	-0.104295425
37	0xbd65077a	-0.055915333
38	0x3d0e2351	0.03470165
39	0xbd1a6788	-0.03769639
40	0x3c32c9e5	0.010912393
41	0xbd027dd5	-0.031858284
42	0x3d6fe90f	0.05857187
43	0x3d8c268b	0.06843289
44	0x3da00718	0.07813853
45	0x3d02d82c	0.03194444
46	0x3da94b10	0.0826627
47	0x3d340323	0.043948304
48	0xbcb60eda	-0.022223879
49	0x3d514b27	0.05109706
50	0xbcb5771a	-0.022151519
51	0x3dbb9b20	0.09160447
52	0xbda6f244	-0.08151677
53	0xbd7009bf	-0.058603045
54	0x3d215922	0.039391644
55	0xbce5152c	-0.027964197
56	0x3d27805c	0.040893897
57	0xbdaa86a9	-0.08326466
58	0xbc24b388	-0.010052569
59	0x3d5a0121	0.053223733
60	0x3db43cc4	0.088006526
61	0xbdb6621b	-0.08905431
62	0x3da0ba9f	0.07848095
63	0x3c08292c	0.008310597
64	0xbdb8c933	-0.09022751
65	0x3dcc17b8	0.099654615
66	0x3da92478	0.08258909
67	0xbce00371	-0.027345391
68	0xbd9620a8	-0.073304474
69	0x3d87232b	0.06598505
70	0xbd8e29b3	-0.06941547
71	0xbd0814a2	-0.033222802
72	0xbcec09f9	-0.02881335
73	0x3b146868	0.0022645239
74	0x3d1c6e8c	0.038191363
75	0xbd3123e1	-0.043247107
76	0x3da84bb7	0.082175665
77	0x3da886dc	0.082288474
78	0xbc8dc6c5	-0.017306695
79	0x3d9c4c17	0.076317005
80	0x3d179777	0.037009683
81	0xbd4ed361	-0.050494555
82	0xbdb7563a	-0.08951993
83	0x3dc3c958	0.09559888
84	0x3d3a0e4b	0.045423787
85	0x3cda2f5d	0.026633913
86	0x3caa2dc8	0.020773783
87	0x3d9be99d	0.076129176
88	0x3d369753	0.044577908
89	0xbd337087	-0.043808486
90	0x3d8fe3b5	0.070258535
91	0x3d91072d	0.07081447
92	0xbd18527e	-0.037188046
93	0xbc89007e	-0.016723868
94	0x3cbf0261	0.023316564
95	0xbd0a2404	-0.033725753
96	0xbd1cf539	-0.0383198
97	0x3da0cacf	0.07851183
98	0x3b76dbdb	0.0037667665
99	0xbbbb0d58	-0.005708378
100	0xbc93e00f	-0.018051175
101	0x3d657764	0.056022063
102	0xba1903a0	-0.0005837027
103	0x3d960aca	0.073262766
104	0xbb2c3f06	-0.0026282682
105	0x3c5bc86a	0.013414482
106	0x3dd85415	0.105629124
107	0x3c83c276	0.016083937
108	0x3d24ec04	0.040264145
109	0x3d51dcb7	0.05123588
110	0x3da6f025	0.08151273
111	0x3ddc1c22	0.107475534
112	0xbd1557d4	-0.036460713
113	0x3d3d31ac	0.04618995
114	0xbd411662	-0.047140487
115	0xbd74d352	-0.059771843
116	0xbd2eed20	-0.04270661
117	0x3d852d3f	0.06502771
118	0xbd93faed	-0.07225595
119	0x3ca99851	0.020702513
120	0x3d677a63	0.0565132
121	0x3d580c4c	0.052746102
122	0xbd72a4c6	-0.05923917
123	0x3d651909	0.05593208
124	0x3d808dc4	0.0627704
125	0xbcfa7ec5	-0.030578027
126	0x3d44cb6b	0.048045557
127	0xbd3d46b3	-0.046210002
128	0x3d775ca5	0.060391087
129	0xbd508bdf	-0.05091464
130	0xbda57603	-0.080791496
131	0x3ce58186	0.028015863
132	0x3c821b20	0.015882075
133	0x3c3e1358	0.011601292
134	0x3d568668	0.052374274
135	0x3d58a667	0.05289307
136	0xbd87a2c0	-0.06622839
137	0x3db31fd4	0.08746305
138	0xbd6cf2a0	-0.057848573
139	0x3ddd1b4c	0.10796222
140	0x3db80f44	0.08987287
141	0xbc7423fd	-0.014901158
142	0xbd38f6dd	-0.045157302
143	0xbce374f5	-0.02776573
144	0x3d1d864a	0.038458146
145	0x3d10ab33	0.03531952
146	0x3d93297f	0.07185649
147	0xbadcd182	-0.0016847106
148	0xbdd953c6	-0.10611682
149	0x3cc414f0	0.023935765
150	0x3c271903	0.010198834
151	0x3c317daf	0.010833188
152	0xbdc94355	-0.09827296
153	0x3d9ac8bb	0.075578175
154	0x3d30a3dd	0.043125022
155	0xbcf45f47	-0.029830588
156	0xbd052110	-0.032502234
157	0xbdab8f0e	-0.08376895
158	0xbd498663	-0.049200427
159	0xbda966eb	-0.08271583
160	0x3d4145d0	0.04718572
161	0xbd00ce9b	-0.031447034
162	0x3b1b8f54	0.0023736553
163	0xbc0725be	-0.0082487445
164	0xbd4166c2	-0.047217138
165	0xbd22a514	-0.039708212
166	0xbbbfbfbe	-0.005851715
167	0x3d8533a2	0.06503989
168	0xbca1f199	-0.019768523
169	0xbde6f83e	-0.11277817
170	0xbd83f622	-0.064434305
171	0xbda2ff92	-0.079589024
172	0xbd2da1f8	-0.042390794
173	0x3dbf1baf	0.09331452
174	0x3d32cd6b	0.043652933
175	0x3d66fd61	0.056393985
176	0x3d0ff0e8	0.035141855
177	0xbd637743	-0.05553366
178	0xbdcce9e1	-0.10005546
179	0x3d8f20ec	0.06988701
180	0xbcdda6c6	-0.027057063
181	0x3cbb7ffc	0.022888176
182	0xbdb14df5	-0.08657447
183	0x3d4205f9	0.047368977
184	0x3ce56f48	0.028007165
185	0xbda504ce	-0.08057557
186	0x3d8b310c	0.06796464
187	0xbdcb0df8	-0.09914774
188	0x3d7f2742	0.0622933
189	0xbd72388d	-0.059135962
190	0xbd35d814	-0.04439552
191	0xb9a5ab60	-0.00031598937
192	0xbbebca2c	-0.0071957316
193	0xbca8eac3	-0.020619756
194	0xbd5bdb4a	-0.053675927
195	0x3d847ac1	0.06468726
196	0xbd8ad4b3	-0.067788504
197	0x3dbab9c4	0.09117463
198	0xbcfb3375	-0.030664185
199	0x3d89a995	0.06721798
200	0x3d590292	0.052980967
201	0x3daadcf6	0.08342926
202	0x3de373f4	0.11106101
203	0xbc957e5b	-0.018248728
204	0x3da67093	0.081269406
205	0xbd83dec4	-0.064389735
206	0x3d169210	0.03676039
207	0xbcd79b3e	-0.026319142
208	0x3d8fbf96	0.07018964
209	0xbd770e7c	-0.060316548
210	0x3d9725d6	0.073802635
211	0x3dd3d7ec	0.10343918
212	0xbb81bb63	-0.003959106
213	0x3b972a4e	0.0046131974
214	0xbdb35525	-0.087564744
215	0xbcc4a7c2	-0.024005774
216	0xbc1caa80	-0.009562135
217	0x3d934da6	0.07192545
218	0xbc301715	-0.010747691
219	0xbdba2566	-0.090891644
220	0xbdc1e8ce	-0.09468232
221	0x3d4b053c	0.04956554
222	0x3dc1e075	0.0946664
223	0xbd2037ed	-0.039115835
224	0xbd9b9663	-0.07597043
225	0x3d41501e	0.047195546
226	0x3dd05ced	0.10173974
227	0xbda34ef3	-0.07974043
228	0xbd13e111	-0.036103312
229	0xbd2601e0	-0.040529132
230	0xbbef72f4	-0.0073074047
231	0x3d738c10	0.059459746
232	0xbcf576a6	-0.029963803
233	0x3cd217c0	0.02564609
234	0x3d85c7c6	0.065322444
235	0x3da0f6e3	0.0785959
236	0x3dc29093	0.095002316
237	0xbcc6d101	-0.024269583
238	0xbdb25fbd	-0.08709667
239	0x3d86fac3	0.06590798
240	0x3d9bda46	0.07609992
241	0x3c9ef475	0.019403676
242	0xbd959f22	-0.07305743
243	0xbcce0efd	-0.025153631
244	0xbdd25dd5	-0.10271803
245	0x3c33cc48	0.010973997
246	0xbd70354b	-0.058644574
247	0xbdc09041	-0.09402514
248	0xbcdfee15	-0.027335206
249	0xbce7bdef	-0.02828881
250	0x3d8abe0d	0.067745306
251	0xbb1d6e1f	-0.0024021936
252	0xbd06657e	-0.032811634
253	0x3dc442bc	0.09583041
254	0x3d96141d	0.07328055
255	0x3d8fa0c5	0.07013086

conv.4.bias f4 [64]
0	0x3d9eb5c0	0.0774951
1	0xbd0d538f	-0.034503516
2	0xbc7adc65	-0.015311335
3	0xbd881edd	-0.06646512
4	0x3d7549ef	0.05988496
5	0x3d9ec563	0.07752492
6	0x3d64e0de	0.055878513
7	0x3dc7667e	0.09736346
8	0x3d99549e	0.074868426
9	0x3d95f750	0.07322562
10	0xbb3f97c6	-0.002923475
11	0xbdbc9321	-0.0920775
12	0x3d142df9	0.036176655
13	0x3b9abcbb	0.0047222055
14	0x3d7080d4	0.05871661
15	0xbd91caa2	-0.07118727
16	0xbd54c04d	-0.051941205
17	0xb9d97ab2	-0.0004148088
18	0x3d43f982	0.04784537
19	0xbca51b88	-0.02015473
20	0xbdadbd7d	-0.08483408
21	0x3c0fd3e7	0.008778549
22	0x3d2d9a8e	0.042383723
23	0x3d5152e1	0.05110443
24	0x3d17716a	0.036973394
25	0x3d14c5da	0.0363215
26	0x3daa7ff7	0.083251886
27	0xbc666dc8	-0.01406426
28	0xbc22a886	-0.009927874
29	0x3da82a07	0.08211141
30	0xbd53d481	-0.05171633
31	0x3d686286	0.056734584
32	0xbcefcd59	-0.029272722
33	0x3d1844f5	0.037175138
34	0xbda4580a	-0.080246046
35	0x3dc19cb7	0.09453719
36	0x3dbb117b	0.091341935
37	0xbd7b3f84	-0.06133987
38	0x3daf28c8	0.085527
39	0x3dc23687	0.094830565
40	0x3cf524dc	0.029924802
41	0xbd0332fd	-0.032031048
42	0x3db1ecba	0.0868773
43	0x3c10a250	0.008827761
44	0x3d794e85	0.060865898
45	0xbd1a51f9	-0.03767583
46	0xbd12e910	-0.035866797
47	0x3d891a34	0.06694451
48	0xbc9d2189	-0.01918103
49	0xbba3a30c	-0.004993802
50	0x3cbbadd1	0.02291003
51	0xbb52d456	-0.003217002
52	0x3c83d1f1	0.016091319
53	0xbd7ffbe7	-0.062496092
54	0xbcee0951	-0.029057177
55	0x3d33f767	0.043937113
56	0x3d5672ed	0.052355696
57	0x3c669c30	0.014075324
58	0xbdcd06e5	-0.10011081
59	0xbc2cec20	-0.010554343
60	0x3da0bdfc	0.07848737
61	0x3d084b6f	0.033275064
62	0xbdbfcdfd	-0.09365461
63	0x3dc48131	0.09594954

conv.5.weight f4 [64]
0	0x3f7ede72	0.99558175
1	0x3f7d13d1	0.9885836
2	0x3f7fa32a	0.99858344
3	0x3f814882	1.0100253
4	0x3f7ba864	0.9830382
5	0x3f81ec1b	1.0150179
6	0x3f7cba52	0.987218
7	0x3f7cf63f	0.9881324
8	0x3f813e4a	1.0097134
9	0x3f80dc33	1.00672
10	0x3f7e0c86	0.9923786
11	0x3f7f74bb	0.9978749
12	0x3f813906	1.0095527
13	0x3f7df85e	0.99207103
14	0x3f80610a	1.0029614
15	0x3f80717f	1.0034636
16	0x3f7fe265	0.99954826
17	0x3f80d429	1.0064746
18	0x3f7c4d0c	0.98555064
19	0x3f7d7334	0.9900391
20	0x3f7b90e9	0.9826799
21	0x3f7e27f2	0.992797
22	0x3f819b40	1.0125504
23	0x3f7caf46	0.98704946
24	0x3f806413	1.003054
25	0x3f80a3b6	1.0049961
26	0x3f80f294	1.0074029
27	0x3f80b49b	1.0055116
28	0x3f7ccb76	0.98747957
29	0x3f810070	1.0078259
30	0x3f7dced9	0.9914375
31	0x3f7d710c	0.9900062
32	0x3f7dfef9	0.9921718
33	0x3f7e4c7f	0.99335474
34	0x3f80e0b9	1.006858
35	0x3f7fd4c6	0.9993404
36	0x3f7d8cce	0.99042976
37	0x3f8170bf	1.0112532
38	0x3f7f21c5	0.99660903
39	0x3f7bb066	0.9831604
40	0x3f7ba1a4	0.9829352
41	0x3f7c9fca	0.9868132
42	0x3f7da63a	0.99081767
43	0x3f809eb4	1.0048432
44	0x3f813593	1.0094475
45	0x3f811eb1	1.0087491
46	0x3f8061b7	1.002982
47	0x3f7be1fe	0.9839171
48	0x3f819b48	1.0125513
49	0x3f7e5439	0.99347264
50	0x3f8121d8	1.0088453
51	0x3f7c5f3b	0.9858281
52	0x3f7bd61c	0.9837358
53	0x3f814154	1.0098062
54	0x3f7dcc01	0.9913941
55	0x3f7cd5db	0.9876382
56	0x3f7ea369	0.99468094
57	0x3f8159a0	1.0105476
58	0x3f7d007f	0.9882888
59	0x3f7ef485	0.9959186
60	0x3f80d1e9	1.006406
61	0x3f7d4a39	0.9894138
62	0x3f805202	1.0025027
63	0x3f7eef91	0.995843

conv.5.bias f4 [64]
0	0xbbffbbbd	-0.0078043626
1	0xbc5c4505	-0.01344419
2	0xb9fe09a4	-0.00048453838
3	0x3c14cbe7	0.009081817
4	0xbc813326	-0.01577146
5	0x3c2f936b	0.0107162995
6	0xbc583db7	-0.013198308
7	0xbc5ce099	-0.013481283
8	0x3c0f473c	0.008745011
9	0x3bc7e6a2	0.0061004916
10	0xbbaf4dd2	-0.005349853
11	0x3a52759a	0.0008028388
12	0x3c2bcb9b	0.010485555
13	0xbc1392f4	-0.009007204
14	0xba2e6e3e	-0.00066540006
15	0x3ba32009	0.004978184
16	0x3af45d7d	0.0018643584
17	0x3c328291	0.010895387
18	0xbc3858f5	-0.011251678
19	0xbbb49b8b	-0.005511706
20	0xbc93b14b	-0.018028876
21	0xbc26c418	-0.010178588
22	0x3c0e084b	0.008668969
23	0xbc50cb87	-0.012743837
24	0x3bf4dc1c	0.007472528
25	0x3a902af8	0.0010999134
26	0x3b232b98	0.002489781
27	0x3bf2e157	0.0074121165
28	0xbc80763a	-0.015681375
29	0x3bbbcf23	0.0057314797
30	0xbc0e4a4b	-0.008684705
31	0xbc4d7b67	-0.012541628
32	0xbbd8807c	-0.0066071134
33	0xbbacd763	-0.0052746995
34	0x3b28d4e8	0.0025761668
35	0xbb144c2e	-0.0022628414
36	0xbbf6926d	-0.0075247795
37	0x3bfc9592	0.00770826
38	0xbacb41f4	-0.0015507326
39	0xbc6b0c3f	-0.014346181
40	0xbc994ff6	-0.018714886
41	0xbc6eb768	-0.014570095
42	0xbc42644c	-0.011864733
43	0x3bc04330	0.0058673844
44	0x3bfed3c2	0.0077767083
45	0x3bf4c91b	0.0074702627
46	0x3bb3931f	0.0054801847
47	0xbc50b46e	-0.01273833
48	0x3c6ae3b5	0.014336516
49	0xbc122ded	-0.008922082
50	0x3c1f8528	0.009736337
51	0xbc58ac24	-0.013224635
52	0xbc7e4072	-0.015518295
53	0x3c30a19d	0.010780719
54	0xbc2afed8	-0.010436736
55	0xbc543a76	-0.012953391
56	0xbb51519c	-0.0031939512
57	0x3c110bd1	0.008852915
58	0xbc51566e	-0.012776954
59	0xba91eff5	-0.0011134135
60	0x3bdd61a8	0.0067560263
61	0xbc0a986f	-0.008459195
62	0xba24a8ff	-0.0006281286
63	0xbb46a4ac	-0.0030310554

conv.5.running_mean f4 [64]
0	0x3f46f3fa	0.7771603
1	0x3dbf0e5e	0.09328912
2	0x3e917b8a	0.28414565
3	0xbd09fd2b	-0.033688705
4	0x3f3f205e	0.74658763
5	0x3d826262	0.06366421
6	0x3f5e296e	0.86781967
7	0x3ebdec85	0.37094513
8	0x3e7f075e	0.24905154
9	0xbdde75ac	-0.10862288
10	0x3f6dc7f8	0.92883253
11	0xbe87642a	-0.26443607
12	0x3e863884	0.26214993
13	0x3e001900	0.12509537
14	0xbea09a0c	-0.31367528
15	0xbe396f0a	-0.18108764
16	0xbf2f7fd5	-0.6855443
17	0xbed315b6	-0.41227502
18	0xbdca4693	-0.09876742
19	0xbec44627	-0.38334772
20	0xbf1d5564	-0.6145842
21	0xbf0472ee	-0.5173787
22	0xbe16de5e	-0.14733264
23	0xbea9913f	-0.33118626
24	0x3e960671	0.2930179
25	0x3df0cb52	0.1175753
26	0xbe25591b	-0.16147272
27	0xbdd876ad	-0.105695106
28	0xbea5d9f9	-0.32392862
29	0x3de90b69	0.113791294
30	0x3be2a80a	0.0069170045
31	0xbe77a71d	-0.24184842
32	0xbf8ae045	-1.0849692
33	0xbf44e52c	-0.7691219
34	0x3dc4c099	0.096070476
35	0x3f2a658e	0.6656121
36	0x3e23eebf	0.16009043
37	0x3e33652f	0.17519067
38	0x3ddb479a	0.10707016
39	0x3e43a83f	0.1910715
40	0xbe22be82	-0.15892985
41	0xbef4cbac	-0.4781164
42	0xbe86847a	-0.26272947
43	0xbcdd48da	-0.027012277
44	0x3f01a8ee	0.5064839
45	0xbeff36db	-0.4984654
46	0x3e8aa50c	0.27079046
47	0xbe343214	-0.17597228
48	0xbe11cd78	-0.14238536
49	0xbd7e4737	-0.062079635
50	0xbede3a1c	-0.4340371
51	0xbe99a0aa	-0.3000539
52	0xbe4410b7	-0.19147001
53	0xbe1e3e54	-0.15453464
54	0x3ee56de0	0.4481039
55	0xbe52ebe3	-0.20597796
56	0x3eb665b5	0.3562447
57	0xbca99bb8	-0.020704135
58	0xbf0ab380	-0.54180145
59	0xbeeac2fc	-0.45851886
60	0x3f33ed37	0.70283836
61	0x3ed6cb68	0.41952062
62	0xbeb7c6cb	-0.35893854
63	0x3dc92bbc	0.09822795

conv.5.running_var f4 [64]
0	0x3e25058d	0.16115399
1	0x3e05ceef	0.1306722
2	0x3e2b6c43	0.16740517
3	0x3e17c94e	0.14822885
4	0x3e04d5d4	0.12972194
5	0x3e393f3a	0.18090525
6	0x3e240470	0.16017318
7	0x3e2bf624	0.16793114
8	0x3e2983e3	0.16554217
9	0x3e475734	0.19466859
10	0x3e25c0c8	0.16186821
11	0x3e0334a6	0.12813053
12	0x3e2786e8	0.16360056
13	0x3e32f3a6	0.17475757
14	0x3e12d797	0.14340053
15	0x3e29787a	0.16549864
16	0x3e1fb830	0.15597606
17	0x3e2cf501	0.16890337
18	0x3e1e841e	0.15480086
19	0x3e2f6169	0.17127003
20	0x3e1230fb	0.14276497
21	0x3e21dd85	0.15807159
22	0x3e179983	0.14804654
23	0x3e29b65b	0.1657347
24	0x3e1f59af	0.15561555
25	0x3df68aef	0.12038218
26	0x3e11ad26	0.14226207
27	0x3de9bfa9	0.114135094
28	0x3e310020	0.17285204
29	0x3e19695f	0.14981602
30	0x3e1ea84a	0.15493885
31	0x3e19684c	0.14981192
32	0x3e170fd8	0.14752138
33	0x3e163636	0.14669117
34	0x3e1c3314	0.1525386
35	0x3e2741ab	0.16333644
36	0x3e1beea4	0.15227753
37	0x3e17643b	0.14784329
38	0x3e2dd824	0.16976982
39	0x3e2b9877	0.1675738
40	0x3e19d3e9	0.15022244
41	0x3e3c6066	0.18396148
42	0x3e2c0b07	0.16801082
43	0x3e10f845	0.14157207
44	0x3e0ac935	0.13553317
45	0x3e2e42b8	0.17017639
46	0x3e0dd811	0.13851954
47	0x3e1db916	0.15402636
48	0x3e196ea9	0.1498362
49	0x3e21bc44	0.15794474
50	0x3e292745	0.16518886
51	0x3e12d8e3	0.14340548
52	0x3e14ef92	0.14544514
53	0x3e1b66ba	0.15175906
54	0x3e12d64b	0.14339559
55	0x3e2d1b64	0.1690498
56	0x3e1dcdd7	0.15410553
57	0x3e03f4f3	0.1288641
58	0x3e0df78e	0.13863966
59	0x3e23a2d6	0.15980086
60	0x3e169dd9	0.14708652
61	0x3e1aad82	0.1510525
62	0x3e380f31	0.17974545
63	0x3e2c0a0f	0.16800712

lstm.weight_ih_l0 f4 [256, 64]
0	0x3d1ca473	0.03824277
1	0xbcf9a2fa	-0.030473221
2	0x3d433ba5	0.047664303
3	0x3d84f873	0.064927004
4	0xbd1e86ef	-0.0387029
5	0xbd8f668d	-0.07001982
6	0x3dc98593	0.098399304
7	0x3bf8f5bd	0.0075976537
8	0x3d19bae3	0.037531745
9	0xbdfb7c20	-0.12279534
10	0xbc13da15	-0.009024163
11	0x3d7c5bb5	0.061610896
12	0x3cb99a58	0.022656605
13	0xbc9dd368	-0.019265845
14	0x3dc99cfb	0.09844395
15	0x3d22fd71	0.03979248
16	0xbd9bd6a7	-0.07609301
17	0x3d7c2264	0.061556235
18	0xbdd8aed7	-0.10580223
19	0xbcb7148e	-0.022348668
20	0xbd279be6	-0.04092016
21	0xbc81ef40	-0.015861154
22	0xbd025e32	-0.031828113
23	0x3db4ed8b	0.0883437
24	0x3dc0fdac	0.09423384
25	0x3cdf497e	0.027256723
26	0x3c71bf63	0.014755103
27	0x3dcde5e7	0.10053616
28	0x3dd7272d	0.10505519
29	0xbd54a948	-0.05191925
30	0x3db18985	0.08668808
31	0xbda582a6	-0.0808156
32	0xbcd9e8a7	-0.026600195
33	0xbd2f0d16	-0.04273709
34	0xbd351172	-0.04420609
35	0xbdaf428b	-0.08557614
36	0x3d784881	0.06061602
37	0x3db26d29	0.08712227
38	0xbcfda3f0	-0.03096196
39	0x3c2a8cc3	0.010409537
40	0x3da4fefc	0.08056447
41	0xbe04a2da	-0.12952748
42	0xbd930a06	-0.07179646
43	0xbdaf5c8d	-0.085625745
44	0xbdbefc11	-0.093254216
45	0xbcb4dcd3	-0.022077953
46	0x3d0fd6fd	0.03511714
47	0xbd24a10a	-0.04019264
48	0x3d20865f	0.039190646
49	0x3d9340bc	0.071900815
50	0x3db604b5	0.088876165
51	0xbdc1829e	-0.094487414
52	0xbdcedae2	-0.10100342
53	0x3d62e8da	0.055397846
54	0xbddf3411	-0.10898603
55	0xbd56150d	-0.05226617
56	0xbbf8a491	-0.007587977
57	0xbd2c802e	-0.04211443
58	0x3c634273	0.013870823
59	0x3dbdc8cd	0.09266815
60	0x3bdec755	0.0067986646
61	0x3d8ec87c	0.06971833
62	0xbccc9aa9	-0.024976091
63	0x3dd456e3	0.10368135
64	0xbd869bc6	-0.0657268
65	0x3da3a18f	0.07989799
66	0x3dfbf576	0.12302677
67	0x3d588422	0.052860387
68	0xbd5c3dc3	-0.053769838
69	0x3dc6ac52	0.09700836
70	0xbde90510	-0.11377919
71	0x3df98991	0.12184442
72	0x3d2f6988	0.04282525
73	0xbd3be9b0	-0.04587716
74	0xbded0a29	-0.115742035
75	0x3cf54eb7	0.02994476
76	0x3c979a6c	0.018506251
77	0x3ddf25d2	0.108958855
78	0x3dfd80b3	0.12378063
79	0xbc327561	-0.010892243
80	0x3df1a01f	0.11798119
81	0x3cba7978	0.022762999
82	0xbaeed300	-0.0018220842
83	0x3dbd4c72	0.092430964
84	0xbdcb9d1e	-0.09942077
85	0x3d0f4973	0.034982156
86	0xbdc54580	-0.09632397
87	0x3d717035	0.0589449
88	0xbdf59ec8	-0.11993176
89	0xbd799331	-0.06093139
90	0xbcc5793b	-0.024105659
91	0x3de18a4c	0.11012706
92	0x3db67b8d	0.08910284
93	0x3c6d2378	0.014473788
94	0x3db10377	0.08643239
95	0x3d004d0f	0.03132349
96	0xbdb0548d	-0.08609877
97	0xbc948c6d	-0.018133366
98	0xbd34a84f	-0.044105824
99	0x3df643e4	0.12024668
100	0xbc8df378	-0.017328009
101	0xbdbd8ce9	-0.09255392
102	0xbc530176	-0.012878766
103	0x3def32ab	0.11679586
104	0x3d9861bb	0.074405156
105	0xbdbedcb7	-0.09319442
106	0xbd0076f9	-0.03136346
107	0x3da1fa62	0.07909085
108	0xbd9d35c1	-0.07676268
109	0xbd2d0ce1	-0.04224861
110	0x3c7c2794	0.015390296
111	0xbc8f1000	-0.017463684
112	0x3ce7b3fe	0.02828407
113	0xbdb7c7eb	-0.08973678
114	0x3dd50a93	0.104024075
115	0x3de1b372	0.110205546
116	0xbd2fb64e	-0.04289847
117	0x3db4dd76	0.08831303
118	0x3cb3a081	0.02192712
119	0xb906c39a	-0.00012852103
120	0x3d8b282f	0.06794774
121	0x3d0bd08e	0.03413444
122	0xbdd20f47	-0.1025682
123	0x3a28c495	0.00064379844
124	0xbd124c87	-0.035717513
125	0xbb9ebbe7	-0.004844177
126	0x3d933e91	0.07189668
127	0x3d92f43b	0.071754895
128	0x3dc23ac4	0.09483865
129	0x3d375c6f	0.044765886
130	0xbd13abae	-0.0360524
131	0x3da44a5a	0.08021994
132	0xbd9264da	-0.07148142
133	0xbd0fd707	-0.035117175
134	0xbd3b887e	-0.045784466
135	0x3dd5833f	0.10425424
136	0xbe07b4a8	-0.13252509
137	0x3d330103	0.043702137
138	0xbda2e015	-0.079528965
139	0x3d7abb20	0.061213613
140	0x3cb9e21c	0.022690825
141	0x3d079ebc	0.033110365
142	0xbe0414cc	-0.12898558
143	0xbc867c30	-0.01641664
144	0xbd8db346	-0.06918959
145	0xbd61cdc8	-0.05512789
146	0x3da602a0	0.081059694
147	0xbdbab476	-0.091164514
148	0x3d897806	0.06712346
149	0xbd47fa64	-0.048822775
150	0xbd568264	-0.052370444
151	0x3d122236	0.035677157
152	0xbd4a37ae	-0.049369507
153	0x3dfb88ab	0.12281927
154	0x3dd8a077	0.10577481
155	0xbce2a610	-0.027667075
156	0x3d5b8acf	0.053599175
157	0x3de43264	0.11142424
158	0xbd3435ac	-0.043996498
159	0x3de5bcf1	0.11217678
160	0x3d776635	0.060400207
161	0x3dea23d7	0.11432617
162	0x3bf602f1	0.007507675
163	0xbc06f075	-0.00823604
164	0xbdd923be	-0.106025204
165	0xbdce50a4	-0.10073975
166	0x3ddc2a69	0.107502766
167	0x3cde96f0	0.027171582
168	0xbc3ce044	-0.0115280785
169	0x3c644934	0.013933469
170	0x3cb2b83b	0.021816364
171	0x3cd1e1a4	0.02562029
172	0x3d12d00a	0.035842933
173	0x3c3ee3cc	0.011650991
174	0x3d3faefd	0.04679774
175	0x3db35c57	0.08757847
176	0x3da8df53	0.08245721
177	0x3d7239d3	0.059137177
178	0xbcda6e46	-0.02666391
179	0x3d13e1c6	0.036103986
180	0xbda4fa14	-0.08055511
181	0x3dbc8058	0.09204167
182	0x3b40ced2	0.002942015
183	0xbd77165c	-0.060324058
184	0xbd14f9d8	-0.036371082
185	0x3d9f69d0	0.07783854
186	0x3db83b51	0.08995689
187	0x3d080c5a	0.033214904
188	0xbdbe8ab4	-0.09303799
189	0xbe000461	-0.1250167
190	0x3d42966e	0.047506742
191	0xbd64c840	-0.055855036
192	0x3d6e7015	0.05821236
193	0xbbc523b5	-0.0060162195
194	0x3c7d03de	0.015442817
195	0x3db9e252	0.0907637
196	0xbbe0d700	-0.0068615675
197	0xbc6b9203	-0.014378074
198	0xbe092cfd	-0.13396068
199	0x3babb874	0.0052404944
200	0xbdbbcdc7	-0.09170108
201	0xbe00cd59	-0.12578334
202	0x3c8b2ab1	0.01698813
203	0xbdb8dc30	-0.090263724
204	0x3b1ca27a	0.0023900555
205	0x3dd1ec7a	0.102501824
206	0x3d89906e	0.06717001
207	0x3d5ce608	0.053930312
208	0x3cb2f848	0.021846905
209	0x3db25e94	0.087094456
210	0xbdf8829e	-0.12134288
211	0x3c57a03f	0.013160764
212	0x3d68d90d	0.05684762
213	0x3bed7725	0.007246869
214	0x3d76b492	0.0602308
215	0x3d8d58ee	0.069017276
216	0x3cfc1969	0.030773835
217	0x3dd7d059	0.10537786
218	0xbd4a1a09	-0.049341235
219	0xbdf5c198	-0.11999816
220	0x3d72c76a	0.059272207
221	0xbdef9478	-0.1169824
222	0xbd2af865	-0.041740794
223	0xbc1b2189	-0.009468445
224	0x3dcec71d	0.100965716
225	0x3cf49a69	0.029858785
226	0xbdb0c33b	-0.08630987
227	0xbd0ac576	-0.03387972
228	0xbd2afdfa	-0.041746117
229	0xbdbfa714	-0.093580395
230	0xbddec6b9	-0.10877747
231	0xbd5744ac	-0.052555725
232	0xbd85df54	-0.06536737
233	0x3c5018e5	0.012701248
234	0xbc0f2ddb	-0.00873896
235	0xbd04a4aa	-0.0323836
236	0xbd8e2d7a	-0.06942268
237	0x3c940af7	0.018071635
238	0xbbd05811	-0.0063581546
239	0xbd315c7e	-0.043301098
240	0x3dcdc7d6	0.10047881
241	0x3d475e2e	0.0486738
242	0xbcad960d	-0.021189714
243	0xbd8f753a	-0.07004781
244	0x3dc90365	0.098151006
245	0xbd02fccc	-0.031979367
246	0x3cbe6667	0.023242189
247	0x3db3aee8	0.08773595
248	0x3d919926	0.07109289
249	0x3ca275bf	0.019831536
250	0x3c9995af	0.018748133
251	0x3db1c7b1	0.08680666
252	0x3c24220d	0.010017884
253	0x3d2c148a	0.042011775
254	0xbe067faf	-0.13134645
255	0xbdb67c1b	-0.0891039

lstm.weight_hh_l0 f4 [256, 64]
0	0xbdc04bdb	-0.09389468
1	0x3dc6644b	0.09687098
2	0xbabf3ac7	-0.001458966
3	0x3d00255e	0.031285636
4	0xbd2a2b40	-0.041545153
5	0x3dc07c32	0.093986884
6	0x3db7ea3c	0.089802235
7	0xbda366fe	-0.079786286
8	0xbca13bfc	-0.019681923
9	0x3c2891b4	0.010288645
10	0x3d211e95	0.039335806
11	0x3d1b323d	0.037889708
12	0x3bb12492	0.005405971
13	0xbc5bf204	-0.0134244
14	0xbd511a41	-0.05105043
15	0xbd155da1	-0.036466245
16	0x3cc05324	0.023477145
17	0xbd86b491	-0.06577409
18	0xbdd54216	-0.104129955
19	0xbd8f372a	-0.069929436
20	0x3c01163e	0.007878838
21	0xbdbca039	-0.092102475
22	0xbd84e278	-0.06488508
23	0xbd9acfec	-0.07559189
24	0xbdafa9bc	-0.08577296
25	0x3c574579	0.013139122
26	0xbd43d5ca	-0.047811307
27	0x3d42483a	0.047432162
28	0x3dac395c	0.08409378
29	0x3d94c0d8	0.072633445
30	0xbd1f3587	-0.038869407
31	0xbd333273	-0.043749284
32	0xbd79acdb	-0.060955863
33	0xbc20b3e9	-0.009808519
34	0x3ceb09e0	0.028691232
35	0x3d82bf04	0.063840896
36	0x3d1647ae	0.036689453
37	0xbd8e01f9	-0.0693397
38	0xbdd4570c	-0.103681654
39	0x3c753cc8	0.014968105
40	0xbdfa731c	-0.122289866
41	0xbdeb1bb4	-0.11479893
42	0xbd8e0dcc	-0.06936225
43	0x3de18778	0.11012167
44	0xbdfe1d07	-0.1240788
45	0x3d2e6476	0.042576276
46	0xbd18fca0	-0.037350297
47	0xbd3e9c50	-0.04653579
48	0xbd13a677	-0.036047425
49	0x3de659d7	0.11247604
50	0xbada28bc	-0.001664422
51	0x3dc92b6c	0.09822735
52	0xbc8c87aa	-0.017154533
53	0x3dffccf6	0.12490265
54	0x3c089082	0.008335235
55	0xbd09e6bd	-0.033667315
56	0xbd665e6c	-0.05624239
57	0xbcd13e84	-0.025542505
58	0x3ded9f55	0.11602656
59	0x3d973501	0.073831566
60	0xbd5d2f6a	-0.054000296
61	0x3d54d9f8	0.051965684
62	0x3dd1d444	0.102455646
63	0x3d2bbe58	0.041929573
64	0xbdb1d51b	-0.08683225
65	0x3de513e0	0.111854315
66	0xbd075154	-0.033036545
67	0x3db8c0c0	0.09021139
68	0x3db98f71	0.090605624
69	0x3deb8936	0.1150078
70	0x3928bd90	0.00016092346
71	0x3da7d828	0.081955254
72	0x3db23b55	0.08702723
73	0x3d0fa917	0.035073366
74	0x3dee656f	0.11640441
75	0xbd40ec63	-0.047100436
76	0xbc855397	-0.01627521
77	0xbd854d83	-0.06508925
78	0xbd3d5b6b	-0.04622976
79	0x3d90647f	0.07050418
80	0x3dda31c4	0.10654023
81	0x3ddc07b7	0.10743659
82	0x3d804da1	0.062648065
83	0x3dd4b2a6	0.10385637
84	0x3b648225	0.0034867611
85	0x3dd15a3a	0.102222875
86	0xbd3e9ff9	-0.04653928
87	0x3c614b96	0.013750931
88	0xbd95ca0d	-0.07313929
89	0xbc8461dc	-0.016159944
90	0x3d2dd589	0.04243997
91	0xbdceb936	-0.1009392
92	0x3d3b7b45	0.045771856
93	0x3ccb2031	0.024795623
94	0xbcf57e5d	-0.029967481
95	0xbcf9d11c	-0.030495219
96	0x3d0d8e4a	0.034559526
97	0xbdcc888a	-0.0998698
98	0x3ca30231	0.019898506
99	0x3da9d984	0.08293441
100	0x3c0777a6	0.0082682725
101	0xbdde2902	-0.10847665
102	0x3d66d56b	0.056355875
103	0x3ce1d4a8	0.027567223
104	0x3e0785c6	0.13234624
105	0x3d7e88d6	0.062142216
106	0xbd91b976	-0.07115452
107	0x3de4efa1	0.11178518
108	0x3dde01bc	0.108401746
109	0xbdd42366	-0.10358314
110	0xbd68d521	-0.05684388
111	0x3d9e6f38	0.07736057
112	0x3ceb8687	0.028750671
113	0x3dde2b30	0.10848081
114	0x3c9320d2	0.017959986
115	0xbd32d7e6	-0.043662928
116	0x3dea1ced	0.114312984
117	0xbc535fa4	-0.0129012205
118	0x3d0aa963	0.033852946
119	0x3d2c0340	0.041995287
120	0x3d9cf51d	0.07663939
121	0x3da92294	0.082585484
122	0xbd17fe79	-0.03710792
123	0x3df482f0	0.11939037
124	0xba996dc8	-0.0011705691
125	0xbc2dbcfd	-0.01060414
126	0xbd18f0e7	-0.037339117
127	0x3a34ff62	0.000690451
128	0xbd3cfa34	-0.04613705
129	0x3d92251d	0.07135985
130	0x3cf1e46b	0.029527863
131	0x3d780bb7	0.060558047
132	0xbd99645f	-0.074898474
133	0xba3a521c	-0.0007107572
134	0xbcc7a60f	-0.024371175
135	0x3c03344b	0.008008073
136	0x3d5367de	0.051612727
137	0xbd9ed810	-0.077560544
138	0x3d9986a9	0.074963875
139	0x3cf039f3	0.029324507
140	0xbdca2c57	-0.098717384
141	0x3de209cc	0.11037025
142	0xbc8a7cad	-0.016905153
143	0x3d847618	0.06467837
144	0x3c433e04	0.011916641
145	0xbcd92459	-0.02650659
146	0x3d97eaa1	0.07417799
147	0x3c7c10fd	0.01538491
148	0xbdbd231a	-0.09235211
149	0xbdc1fb2c	-0.09471735
150	0xba4aec09	-0.00077408605
151	0xbdaee128	-0.08539039
152	0x3e0117b2	0.12606695
153	0xbdacf5bd	-0.08445308
154	0x3d3ee18f	0.04660183
155	0x3dca035b	0.09863921
156	0xbe028833	-0.12747268
157	0xbd4f67ec	-0.050636217
158	0x3d0a210a	0.033722915
159	0xbcd7f2c7	-0.026360882
160	0x3dccdf8e	0.10003577
161	0xbd7fd627	-0.06246009
162	0xbd6a8c50	-0.05726272
163	0xbcf482ab	-0.029847464
164	0x3c87d93d	0.01658308
165	0x3d85506e	0.06509481
166	0xbd99c545	-0.07508329
167	0x3d9c5f14	0.07635322
168	0xbd52857b	-0.05139683
169	0x3d369b63	0.044581782
170	0xbd99e54a	-0.075144365
171	0xbe04da2e	-0.12973854
172	0x3dc76be4	0.097373754
173	0xbd220f5c	-0.03956543
174	0xbd73ed0d	-0.05955224
175	0x3d8abe4a	0.06774576
176	0xbca1e363	-0.019761747
177	0xbc8227b7	-0.015888078
178	0x3da0ff89	0.078612395
179	0x3db7ceb8	0.08974975
180	0x3c5c26e4	0.013437007
181	0xbd33c49e	-0.04388868
182	0x3dd09937	0.101854734
183	0xbde181a8	-0.11011058
184	0xbddb3d96	-0.10705106
185	0xbd1d8a55	-0.038462
186	0x3cc8d3ba	0.024515022
187	0x3da490cd	0.08035431
188	0xbd17fb0a	-0.037104644
189	0x3c74b8ab	0.014936606
190	0xbc200ea6	-0.009769117
191	0xbdbffbde	-0.09374212
192	0xbda4659a	-0.080271915
193	0x3dcf0ac8	0.10109478
194	0x3d99e452	0.07514252
195	0x3df3de58	0.11907643
196	0xbc9cae52	-0.019126091
197	0xbdc07d66	-0.09398918
198	0xbcde2b7f	-0.02712035
199	0x3b445862	0.0029959907
200	0x3ca23a3c	0.019803159
201	0xbca81ddb	-0.020522049
202	0x3bce6241	0.006298334
203	0x3cdf1490	0.027231485
204	0x3b8e5baa	0.0043444233
205	0xbd4d3a3e	-0.050104372
206	0xbddefec8	-0.108884394
207	0x3daf821e	0.0856974
208	0x3cdc5e5b	0.026900461
209	0xbdac63a5	-0.08417443
210	0xbd0f3e59	-0.03497157
211	0xbc707da5	-0.0146783935
212	0xbdadf151	-0.08493293
213	0x3dae98be	0.08525227
214	0xbd9fbd10	-0.07799733
215	0x3c842d52	0.016134892
216	0x3de40784	0.11134246
217	0x3d427838	0.04747793
218	0x3d3d6f09	0.04624847
219	0x3c25db72	0.010123121
220	0xbdb822a8	-0.08990985
221	0xbd16dede	-0.036833636
222	0xbbad1f63	-0.0052832826
223	0x3d983e7e	0.074337944
224	0xbd9cbea6	-0.07653551
225	0x3d8c658e	0.068553075
226	0x3d666ec9	0.056257997
227	0x3db61bb8	0.08892006
228	0x3d0527cc	0.032508656
229	0xbd7dff01	-0.06201077
230	0xbd3840fc	-0.04498385
231	0xbdc5ac85	-0.09652046
232	0xbdbcd40e	-0.09220134
233	0xbbbb1e73	-0.005710417
234	0x3d8e934e	0.0696169
235	0xbbfed2c3	-0.0077765896
236	0x3d814ff6	0.063140795
237	0x3d282216	0.041048132
238	0xbd4e245c	-0.050327644
239	0x3b3a6ffc	0.0028448096
240	0xbd0017c9	-0.031272683
241	0xbddded3b	-0.10836264
242	0xbcd2515a	-0.025673557
243	0x3cec0b1e	0.028813895
244	0x3d401765	0.04689731
245	0xbda2a8f9	-0.07942385
246	0xbd9a9601	-0.07548142
247	0xbcf39fc0	-0.02973926
248	0xbc45e3ce	-0.012078239
249	0x3db6e0af	0.08929574
250	0xbd60a9fc	-0.05484961
251	0xbce107ec	-0.027469598
252	0xbe06579a	-0.13119355
253	0x3d92f3d3	0.07175412
254	0x3cafc45d	0.021455938
255	0xbce39d49	-0.02778496

lstm.bias_ih_l0 f4 [256]
0	0x3d2ad3a0	0.041705728
1	0xbd951c38	-0.07280773
2	0xbd84e3a4	-0.064887315
3	0xbd289a00	-0.04116249
4	0xbd3e0ab4	-0.046396926
5	0x3d9aabbe	0.075522885
6	0xbcd67bd1	-0.026182087
7	0xbc150632	-0.009095715
8	0xbc24164b	-0.010015081
9	0xbdf29983	-0.11845686
10	0xbd3ce5ef	-0.04611772
11	0xbe02108a	-0.12701622
12	0xbcbed084	-0.023292787
13	0xbd638112	-0.055543013
14	0xbd5f8c82	-0.054577358
15	0xbc228269	-0.0099187875
16	0xbce79d37	-0.028273208
17	0xbd5ab421	-0.05339444
18	0x3c98dcb5	0.018659929
19	0xbb8c50c1	-0.0042820876
20	0xbce4295e	-0.027851757
21	0xbd958647	-0.07301002
22	0x3c993e8a	0.018706579
23	0x3cbd84b5	0.023134569
24	0x3d6a6a43	0.057230245
25	0x3bdd56c6	0.006754729
26	0x3db150c6	0.086579844
27	0x3d85e5e4	0.06537989
28	0xbde26c84	-0.11055854
29	0x3d068781	0.03284407
30	0x3d44690e	0.04795175
31	0x3d00be15	0.031431276
32	0xbd776615	-0.060400087
33	0xbd996b7e	-0.07491206
34	0xbd6e47b6	-0.058173858
35	0xbd5a16c4	-0.053244367
36	0x3dd0a8b7	0.1018843
37	0xbd66f2a5	-0.056383748
38	0xbdb13f20	-0.08654618
39	0x3d8cdb3d	0.06877754
40	0x3d862ce9	0.06551535
41	0x3da670ed	0.08127008
42	0xbcf1612a	-0.029465277
43	0xbdc8d835	-0.09806863
44	0xbdba36cd	-0.09092484
45	0xbe09f5fc	-0.13472742
46	0xbcde1324	-0.027108736
47	0xbb9809ab	-0.0046398244
48	0x3d984aaa	0.07436116
49	0xbd42de33	-0.047575187
50	0x3c91a38a	0.017778177
51	0xbcdb1a6e	-0.026746001
52	0x3d6d327c	0.057909474
53	0xbd8022df	-0.06256651
54	0xbd5e4fcb	-0.054275315
55	0x3d113e7a	0.035459973
56	0x3de966dc	0.11396572
57	0x3d929dc6	0.07158999
58	0x3cb3c0ed	0.02194258
59	0x3dda18e4	0.10649279
60	0x3d955fe1	0.07293678
61	0x3d813357	0.063086204
62	0xbdc66acb	-0.09688338
63	0x3d38aade	0.045084827
64	0xbd8aff05	-0.06786922
65	0x3dd11593	0.10209193
66	0xbd8d4bdb	-0.06899234
67	0xbd1e45db	-0.038640838
68	0x3d1f66d7	0.038916435
69	0x3dc11bce	0.094291314
70	0xbe00337d	-0.12519641
71	0xbd343a4f	-0.04400092
72	0xbcc75368	-0.024331763
73	0xbda6a07e	-0.0813608
74	0x3d06c30b	0.03290085
75	0x3daeeb9c	0.08541033
76	0x3d370bca	0.044688977
77	0xbcd35316	-0.025796454
78	0xbd853753	-0.06504693
79	0x3d592323	0.053012025
80	0x3db189f4	0.086688906
81	0xbdcb5c76	-0.09929745
82	0xbd018d8d	-0.031629134
83	0x3d630851	0.055427853
84	0xbdae1a4b	-0.08501109
85	0x3da3d854	0.08000246
86	0xbba77af2	-0.005111092
87	0xbdb38d3f	-0.08767175
88	0xbd2a9cfb	-0.041653614
89	0x3d933dfa	0.071895555
90	0xbd6148c5	-0.05500104
91	0x3db27678	0.08714002
92	0x3d9c15bb	0.07621332
93	0xbd822016	-0.06353776
94	0xbcc08a02	-0.023503307
95	0xbc32c1da	-0.010910476
96	0x3dc2d703	0.095136665
97	0x3d421326	0.047381543
98	0xbe01e605	-0.12685402
99	0x3dc5ad0a	0.09652145
100	0xbd94b1dd	-0.07260487
101	0xbcba515e	-0.022743877
102	0x3dd185ce	0.10230599
103	0x3d87075b	0.065932
104	0x3db653ad	0.08902679
105	0x3c416cd3	0.011805731
106	0x3b4b83b2	0.0031053838
107	0x3daec401	0.085334785
108	0x3db4536b	0.08804973
109	0xbdd26c62	-0.10274579
110	0xbd0c37eb	-0.034233015
111	0x3c7f789e	0.015592722
112	0xbb00f35b	-0.00196763
113	0xbdc71e87	-0.097226195
114	0x3dcc89b5	0.09987203
115	0xbd091eca	-0.03347663
116	0x3ded80a6	0.11596803
117	0xbd4d5c02	-0.050136574
118	0xbda432ee	-0.080175266
119	0x3d72a460	0.05923879
120	0xbde63457	-0.11240452
121	0x3dc6861a	0.096935466
122	0x3dc3329f	0.095311396
123	0x3df272e8	0.11838323
124	0x3dd8aeea	0.10580237
125	0xbe01bac4	-0.12668902
126	0x3d854e95	0.06509129
127	0xbd8ca1b1	-0.06866778
128	0xbdb921fa	-0.09039684
129	0xbd10e80e	-0.035377555
130	0xbda672d1	-0.08127368
131	0x3c490494	0.012269158
132	0x3d9cc803	0.07655337
133	0xbe03c576	-0.12868294
134	0xbd120798	-0.035651773
135	0x3deae597	0.11469572
136	0x3b628fee	0.0034570652
137	0xbdfef1eb	-0.12448486
138	0x3d995016	0.07485978
139	0x3d9e400c	0.0772706
140	0xbddf8656	-0.109142944
141	0xbccc319e	-0.024926003
142	0x3cb7ccc5	0.022436509
143	0x3d80b9b4	0.0628542
144	0xbdbfa4e1	-0.0935762
145	0xbdeaeadb	-0.114705764
146	0x3da535ae	0.08066879
147	0xbd3515cf	-0.04421025
148	0x3dc2ee94	0.095181614
149	0xbdcc9448	-0.0998922
150	0x3e02b95e	0.12766024
151	0xbe04a335	-0.12952884
152	0x3ddbfe52	0.10741867
153	0xbd362e26	-0.044477604
154	0x3cf2c7bf	0.029636262
155	0x3ace7256	0.0015750627
156	0x3d99c0e2	0.075074926
157	0x3deefebb	0.1166968
158	0xbdd061b1	-0.10174883
159	0x3d0840c6	0.033264898
160	0xbcad6e7e	-0.02117085
161	0xbbe1b205	-0.0068876767
162	0x3dbec4f5	0.0931491
163	0x3dae43f1	0.085090525
164	0x3d2903cd	0.04126339
165	0xbdac6e91	-0.08419526
166	0xbce03435	-0.027368644
167	0xbd5d4fac	-0.05403106
168	0x3d83caf2	0.06435193
169	0x3b1b24ca	0.002367305
170	0xbc4303b8	-0.011902742
171	0x3dbcd38a	0.092200354
172	0x3d88bf80	0.06677151
173	0xbd2e34bb	-0.042530756
174	0x3d1402fb	0.036135655
175	0x3d80a6ab	0.062817894
176	0xbc06fba4	-0.008238707
177	0xbded869e	-0.11597942
178	0x3b76764a	0.0037607127
179	0xbd38c7de	-0.045112483
180	0xbd76c817	-0.060249414
181	0xbaca1fb6	-0.0015420828
182	0xbdcf7310	-0.10129368
183	0xbde5c543	-0.11219265
184	0x3d23a049	0.03994778
185	0xbd11a165	-0.03555431
186	0xbcb43246	-0.021996628
187	0x3d1a5699	0.037680242
188	0x3b930c7d	0.0044875727
189	0xbd8f9cae	-0.07012306
190	0x3c0030b6	0.007824114
191	0x3d569ab4	0.05239363
192	0xbaaa45cc	-0.0012990772
193	0xbcea8139	-0.028626071
194	0x3ce4ef2b	0.027946075
195	0xbc9fc83a	-0.019504655
196	0xbdd3622d	-0.1032146
197	0xbd89556e	-0.067057475
198	0x3d8ba7ba	0.06819101
199	0xbde1f69e	-0.110333666
200	0xbd0723fa	-0.032993294
201	0xbc8f84e7	-0.017519427
202	0xbd956b9d	-0.07295916
203	0x3ce74196	0.028229516
204	0xbce66a54	-0.028126873
205	0x3c72d776	0.014821878
206	0x3d76c37e	0.06024503
207	0xbe03d4d0	-0.1287415
208	0xbdf71a96	-0.12065618
209	0x3cfb2b7d	0.030660385
210	0x3d16eda7	0.036847737
211	0x3ce143ae	0.027498093
212	0xbd27f355	-0.041003544
213	0xbe0a631b	-0.13514368
214	0xbd5c9d9d	-0.05386125
215	0x3d8745bb	0.06605097
216	0xbd64ce06	-0.05586054
217	0xbc0dfd27	-0.008666313
218	0x3dbc42c8	0.09192425
219	0x3d7e1f4b	0.062041562
220	0x3de7882a	0.11305268
221	0xbbcfc40f	-0.0063405107
222	0xbde4b5e9	-0.11167509
223	0xbd4f4399	-0.050601576
224	0xbd63611e	-0.05551254
225	0x3ca35d21	0.019941868
226	0xbda150da	-0.07876749
227	0x3dc93210	0.09824002
228	0x3dc4a688	0.09602076
229	0xbca9c8e9	-0.020725684
230	0x3d8ae1c9	0.06781346
231	0x3cb861ea	0.022507627
232	0x3c2cdb91	0.010550396
233	0x3db1ffb3	0.08691349
234	0x3c4e7dec	0.012603264
235	0xbd638c46	-0.055553697
236	0x3df18c03	0.11794283
237	0x3d6d6911	0.057961527
238	0x3d90bbf7	0.070671014
239	0xbcb09676	-0.02155612
240	0x3ce40364	0.027833648
241	0x3c8ffbf8	0.017576203
242	0xbdd8313d	-0.105562665
243	0x3df48211	0.11938871
244	0xbe001c30	-0.12510753
245	0xbdb179c3	-0.08665802
246	0x3de5c7cb	0.11219748
247	0xbc2c83aa	-0.010529438
248	0xbdfc62c5	-0.12323526
249	0x3e024ec6	0.12725362
250	0x3de36210	0.11102688
251	0x3d327d9d	0.043576825
252	0xbd261030	-0.04054278
253	0x3d5d12a7	0.053972866
254	0x3d25a85b	0.04044376
255	0xbdbe3d0c	-0.092889875
